evaluate_results/agent_ppo_paper/checkpoints/step_690001.pth (torch, 23877 bytes, 7 tensors)

actor.mlp.0.weight f4 [40, 60]
000000 00 60 7d ba 56 d5 8d 3d b1 33 15 be ce af 09 be
       -0.0009665489 0.06925456 -0.145705 -0.1344597
000010 db a0 b6 bd a0 cc 0d 3d e6 10 2c bd b9 31 45 3d
       -0.089173995 0.034618974 -0.042008303 0.048143122
000020 4a 84 50 bd 8e 1a b4 3e c2 ce 1f bd 58 e2 cf bc
       -0.05090741 0.3517651 -0.03901554 -0.025376484
000030 0a 97 fc bd c2 1a af bd e2 fa 59 bd e0 b4 9c 3b
       -0.12333496 -0.085500255 -0.053217776 0.004782304
000040 c0 0c 51 3d b8 a4 9e 3d a4 3e b3 bd da 44 66 bd
       0.05103755 0.07746261 -0.08752182 -0.056218006
000050 e8 10 40 3d 0c 8d db 3d 94 a6 d9 bc b2 d9 c5 3d
       0.046891123 0.10720262 -0.026568688 0.09660663
000060 f8 76 aa bc 70 d0 5f 3c 6c 67 ef 3d a3 45 f5 bd
       -0.020808682 0.013660535 0.11689648 -0.11976173
000070 75 72 a6 bd 20 df 05 bd 72 1f 4e bd 24 70 e4 3d
       -0.081273 -0.03268349 -0.050322957 0.111542016
000080 3a 60 ab bd 4f 81 ca bd d6 db 2d be 42 35 24 be
       -0.08367963 -0.09887945 -0.16978392 -0.16035941
000090 7b 97 1e be 24 46 e3 3d d8 f4 6b 3d 34 25 80 3d
       -0.15487473 0.11097363 0.057606548 0.06257096
0000a0 c0 7a de 3b 22 8d 87 bd bd 40 90 bc d2 2a 09 be
       0.0067895353 -0.06618716 -0.017608995 -0.13395241
0000b0 4e eb 07 be cc 4d 88 bd 38 d1 a6 3d 52 05 9b 3d
       -0.13273355 -0.066554636 0.08145374 0.07569374
0000c0 2e 84 6a bd f0 a3 98 bb da 18 a9 3d 25 5a 6a 3d
       -0.057254963 -0.0046582147 0.08256693 0.057214875
0000d0 bd d5 27 3d 6d e6 5b bd 10 46 b1 3d 42 ad 9b bd
       0.04097532 -0.053686548 0.086559415 -0.07601406
0000e0 00 13 c5 3c c7 fc cc bd bc 3f b7 bd 1c 95 88 bd
       0.024056911 -0.10009151 -0.08947703 -0.06669065
0000f0 88 43 6f 3d b0 a8 54 3d 71 6f ac bd 4a 1c 00 3d
       0.058414012 0.051918685 -0.08419693 0.03127698
000100 72 53 81 3d 3c 7c 85 bc 28 38 37 bb 56 24 8f 3c
       0.06314744 -0.016294591 -0.0027957056 0.017473381
000110 66 34 94 3d 10 41 76 3e e1 bf cb bd 38 c9 41 bd
       0.07236557 0.24048257 -0.09948707 -0.047311038
000120 fc d1 4f 3d 9a 10 db 3d 3c 14 e6 3d 92 4a e9 3d
       0.050737366 0.10696526 0.11234328 0.11391176
000130 70 79 d2 3c f4 e9 e5 bd 50 94 42 3c 48 68 a5 bd
       0.025692672 -0.11226264 0.011876181 -0.08076531
000140 96 67 f6 bd de e9 ea 3d 2c 09 c9 3d fc de 03 be
       -0.12031476 0.11470388 0.098162025 -0.1287803
000150 30 f3 c5 3c 10 29 b2 bc 7c 09 ae bc d0 0e 72 bd
       0.024163812 -0.021748096 -0.021244757 -0.059096158
000160 98 59 4b 3d 3c 9a 9c bd b0 d9 41 3d 00 b5 85 3d
       0.04964599 -0.07646605 0.047326744 0.06528664
000170 fa 45 bd 3d a3 14 26 3d c2 53 ce bd 38 55 bb bd
       0.092418626 0.040547024 -0.10074569 -0.091471136
000180 84 13 33 3e 80 5a dd 3c 36 40 ce bd 82 3e 98 bd
       0.17487913 0.027020693 -0.10070841 -0.074337974
000190 e2 ba f8 3d 8e 27 b2 3d 6a 1a 83 bd 00 f3 ba bb
       0.1214502 0.08698951 -0.064015225 -0.0057052374
0001a0 69 d7 05 be c0 12 18 bb 02 1b c7 bd 80 f1 cb bd
       -0.13070454 -0.0023204535 -0.09721948 -0.09958172
0001b0 f0 16 e9 bb 70 ca 9e 3c 5a 8e 58 bd 28 d4 31 bd
       -0.00711333 0.01938364 -0.052870132 -0.04341522
0001c0 18 7e 34 be 90 a6 3c bb b8 30 b5 3d da f5 de bd
       -0.17626226 -0.0028785802 0.08847183 -0.10886736
0001d0 9e 9b 03 bd 40 e2 be 3b 70 4d 9a 3c d8 d4 fa 3c
       -0.03213083 0.005825311 0.018835753 0.03061907
0001e0 40 83 4f 3d c0 65 fd 3b 53 9a c8 3d 5f 5b 63 3e
       0.05066228 0.007733077 0.0979506 0.22202824
0001f0 a3 f9 17 3d 86 b5 9c bd 5f b5 03 3e 0c 08 27 be
       0.037103307 -0.0765181 0.12862156 -0.16311663
000200 c2 1c ed 3d d2 71 ae 3f c0 f6 e0 bc a8 10 e2 3c
       0.11577751 1.3628485 -0.02746141 0.027595833
000210 a6 3e ac bd 10 19 d9 bb 92 44 bd 3d 88 70 59 bc
       -0.08410387 -0.006625302 0.092415944 -0.013271458
000220 00 24 6b 3b 18 79 36 bc f8 08 d6 3c fa 1c a8 3d
       0.0035879612 -0.011137269 0.026127324 0.08208652
000230 a2 72 fa 3d f2 e7 a7 3d 56 05 fb 3d e8 f8 18 bc
       0.12228896 0.08198537 0.12256877 -0.009336688
000240 27 83 ed bd 1c b0 7a bd 44 07 b4 3d 00 62 5b ba
       -0.11597281 -0.061203107 0.08790448 -0.000836879
000250 ba 6a 83 bd 08 9c ca bd 6b 6f f7 bd f0 26 df bd
       -0.06416841 -0.09893042 -0.12081798 -0.108960986
000260 40 84 d6 bc 6c 4d 6d 3e 4f 7c 80 3d 85 3a 15 3d
       -0.026186109 0.23174065 0.0627371 0.03643276
000270 71 6d 07 3f 61 e4 ce bd 78 95 df bc 10 69 56 bd
       0.5290137 -0.101021536 -0.027292952 -0.05234629
000280 e0 b4 cb bc 0c a6 cf bc a5 b4 38 3d dd d9 43 bd
       -0.024866521 -0.025347732 0.04509415 -0.047815192
000290 f2 1d 10 3e 80 d4 da 3a 74 37 70 bd fc 31 47 3d
       0.14073923 0.001669541 -0.058646634 0.048631653
0002a0 b6 f8 ed bd 28 bf 0e bc c2 83 e8 3d b1 d8 ee 3d
       -0.116197035 -0.008712567 0.11353256 0.11662424
0002b0 ca 65 a5 3e 8e 38 5d 3e 54 9b ee bd 4e 48 a7 3d
       0.3230422 0.21603605 -0.1165072 0.08168088
0002c0 10 14 74 bc 5a 0e 6c bd c4 6c d3 3d 28 a8 d5 bd
       -0.014897361 -0.057630874 0.1032348 -0.10432464
0002d0 c0 f7 62 3c b8 6c dd bc 67 79 6a 3e 55 f8 30 3e
       0.0138530135 -0.02702938 0.22897874 0.17282231
0002e0 9a 97 4b 3e 54 bf 3a 3d 1a 8e d8 3d ca 44 43 bd
       0.1988205 0.04559262 0.10573979 -0.047673024
0002f0 2f 05 f9 3c 20 bc 1d bf a4 ec d1 3d f4 e7 b4 3d
       0.03039798 -0.6161518 0.10250214 0.08833304
000300 bc 7f ba bd 20 ac bc 3b ac 61 ba bd ae 8b 91 bd
       -0.09106395 0.0057578236 -0.09100661 -0.0710672
000310 97 10 9a bd 38 b6 34 3d 8e 8e 9d bd 80 96 38 bb
       -0.075226955 0.04411909 -0.07693206 -0.0028165877
000320 40 f6 b1 3b 80 6f aa 3d ab dc c7 bd c8 82 b5 bd
       0.0054309666 0.08322048 -0.09758886 -0.08862835
000330 3e 86 99 bd 32 0f b9 3d fc 14 3e bd c6 03 df 3d
       -0.07496308 0.090361014 -0.04640673 0.108893916
000340 04 37 3f 3d e0 ea 85 3c 00 ed 7b ba 88 10 d1 bc
       0.046683326 0.016347349 -0.0009610206 -0.025520578
000350 e8 b0 84 3c 8f c4 db 3d ea 3c ba 3d d6 ef 1c 3e
       0.016197637 0.1073085 0.0909365 0.15325865
000360 06 45 52 bf fc 93 8a bd 62 7f d5 3d c6 91 d6 bd
       -0.8213657 -0.06766507 0.10424687 -0.10477023
000370 c8 e1 17 bc 75 c6 02 3e 46 d3 3b 3e 2c 1f 40 be
       -0.009270139 0.12771018 0.18342313 -0.18761891
000380 23 0b cc 3c cc f9 82 3d ee 52 bc bd de 1a 16 bd
       0.024907654 0.06395301 -0.09195505 -0.036646716
000390 0a 6b 31 bd 58 9d 9c bc 00 17 b9 3a 56 dc 75 3e
       -0.04331497 -0.019117996 0.0014121234 0.24009833
0003a0 ea bf 49 3c 1f 3b 7f 3e f0 bb a1 3d 96 27 a7 bd
       0.012313822 0.24924897 0.07897174 -0.08161847
0003b0 44 2a 6d 3d 77 e6 ba bd 74 1d 60 bd 90 87 1b 3d
       0.057901636 -0.09125989 -0.05471559 0.03797108
0003c0 4c 9a 2e 3d 66 5b c6 3d c4 69 07 be 54 44 b9 bd
       0.042627618 0.096854016 -0.1322394 -0.09046236
0003d0 44 62 c6 bc ea b1 ff bd f2 d0 2e 3b 3f d1 31 be
       -0.024216779 -0.12485106 0.0026674834 -0.17364977
0003e0 0c 0f b6 bd cf 2d 4e 3f 03 40 8b bd 20 c8 8b 3c
       -0.08889589 0.8053865 -0.06799319 0.0170632
0003f0 3c a2 da 3d 76 93 1a bd 5b f8 9c bd 4c 91 43 bd
       0.10675475 -0.037738286 -0.076645575 -0.047745988

actor.mlp.0.bias f4 [40]
000000 b1 b1 ae 3d a4 77 eb bb 0b 97 aa 3d 0b 24 58 3e
       0.08529986 -0.007185893 0.083295904 0.211075
000010 94 c3 f0 bd 61 48 13 bd cb 86 07 be a6 6d 1b be
       -0.117560536 -0.035957698 -0.13235013 -0.15178546
000020 1d b7 b9 bd 8d 12 e2 bc 97 ca 02 be 9c c8 2d 3c
       -0.09068129 -0.027596736 -0.12772594 0.010606911
000030 47 f8 3f 3d 2a 70 4a bd f7 65 f9 3c 73 7a 7c bd
       0.046867635 -0.049423374 0.030444128 -0.061640214
000040 88 bc 1a be 79 32 81 bd fa af 00 be e8 6a 25 3d
       -0.15110981 -0.06308455 -0.1256713 0.040385157
000050 d0 04 cc bc 08 11 19 be 3b 67 1a be 10 30 a3 bc
       -0.024904639 -0.14947903 -0.15078442 -0.019920379
000060 d3 f4 ed 3d 48 70 db bd 1f 4f 5a bd cb fb fb bd
       0.11618962 -0.10714775 -0.053298112 -0.12303885
000070 2f 25 41 bc fd ce 1c bd 6e 9e ae 3c 1d 4e bf 3d
       -0.01178865 -0.038283337 0.02131578 0.09341071
000080 82 63 d9 bd a8 05 3c 3e d6 7b 33 3e 75 0d 96 3d
       -0.10614683 0.18361533 0.17527708 0.073267855
000090 79 d7 04 3d a9 8b ac bd ca e2 e2 bd a8 f0 69 bc
       0.032432053 -0.084250756 -0.11078413 -0.014278568

actor.mlp.2.weight f4 [3, 40]
000000 d8 90 85 3d ee 0d 9f 3d f3 aa 9b be dd bb 92 be
       0.065217674 0.07766329 -0.3040386 -0.28658953
000010 98 70 e4 bc 4a 19 15 3e a6 55 9d bc 38 e2 1a 3e
       -0.02788572 0.14560428 -0.01920588 0.15125358
000020 df 24 a2 3d 77 0f 89 bd 68 a2 6d 3c cf b1 35 3e
       0.07917189 -0.06692403 0.014504053 0.1774361
000030 eb 76 cd bd 54 60 6e bd c4 ee f4 3d 1a 41 f7 bd
       -0.100324474 -0.058197334 0.119596034 -0.12072964
000040 de c1 c9 bd 63 53 44 bd a6 62 0c 3e 61 c6 7c 3d
       -0.0985143 -0.047931086 0.13709506 0.061712626
000050 59 1d 2d 3e 5d 14 bf 3d f1 14 c5 3d 72 3c 05 be
       0.16905726 0.09330056 0.09623135 -0.1301134
000060 27 a9 18 be 21 f9 fc 3c 7f 88 c0 3d 49 01 43 3d
       -0.14908276 0.030880513 0.094010346 0.047608647
000070 88 d0 50 bd e5 5c 09 3e a1 06 92 3d 72 8f b2 bd
       -0.05098012 0.13414343 0.071301706 -0.08718766
000080 0c 49 3d be 56 9b 70 3d 67 03 dc bc 29 8d b7 bd
       -0.18484896 0.05874189 -0.026857091 -0.08962471
000090 3d 58 ba 3d 77 60 ae bd 44 35 00 be 72 71 8e 3d
       0.09098861 -0.08514493 -0.12520319 0.06955232
0000a0 c8 d6 8c bd 9f 62 db bc c6 a4 8b bd 8d bd 87 3d
       -0.06876904 -0.026780425 -0.068185374 0.06627951
0000b0 4c 5e 4d be c2 98 82 be 3a 50 67 3d 19 19 cc bd
       -0.20055503 -0.2550717 0.056472994 -0.099657245
0000c0 dc e8 31 be 47 79 7a bc b7 88 d3 bd 8a 52 19 bd
       -0.17373985 -0.015287704 -0.10328811 -0.03743223
0000d0 ce f6 07 3e 8b 05 1d 3e 2f 01 03 be 3a f2 5d 3a
       0.13277742 0.15334146 -0.1279342 0.00084665755
0000e0 4f 22 ec 3d 6c fb 16 3e 6a 64 8b bd e4 29 20 3d
       0.11529981 0.14744347 -0.06806262 0.03910245
0000f0 8b fc 81 bd a9 36 4d 3d 95 86 e8 bd 48 b5 19 3e
       -0.06346997 0.050100956 -0.113537945 0.1501056
000100 2e 00 0d be ff 7e 69 be 46 79 61 3e 11 bf f3 3d
       -0.137696 -0.22802351 0.22018918 0.119016774
000110 d3 81 0a bd 05 0a b8 3d 16 33 98 bb 47 c2 74 3d
       -0.033815216 0.08986286 -0.004644762 0.05975559
000120 50 82 3b 3e 70 4d e5 3e 39 2c 87 bd 48 17 34 bd
       0.18311429 0.44785643 -0.06600232 -0.043967515
000130 41 a3 00 3e ee 24 fc bd be 7f 1d bc 3a e1 ad bd
       0.12562276 -0.12311731 -0.009612976 -0.08490224
000140 ef 05 55 bd 31 55 99 3d f2 39 69 3e 60 eb bc bb
       -0.05200761 0.07486952 0.2277601 -0.0057653636
000150 4e 13 44 3d 70 a5 9e bd d5 f4 06 3e 76 3f 72 be
       0.047869973 -0.077463984 0.13179334 -0.23657021
000160 a1 89 e4 bd 8b 73 2f 3d ec b1 5e 3d 78 85 d2 bd
       -0.11159063 0.0428348 0.0543689 -0.102793634
000170 53 41 38 3d 7c 6e 8b 3d 66 71 2b 3e 1e c8 98 bd
       0.044984173 0.068081826 0.16742477 -0.07460044
000180 5b 27 18 be 71 4f b7 3d 65 79 a4 bc 43 f2 f5 bd
       -0.14858763 0.08950699 -0.020077417 -0.120090984
000190 d7 19 41 be a7 8a 41 be 4e 58 66 bd af 70 4a bd
       -0.18857513 -0.18900548 -0.056236558 -0.04942387
0001a0 cd 62 4d 3e d0 c6 9c bd bc 3d a6 be 9b c0 98 3d
       0.20057221 -0.07655108 -0.32468975 0.074586116
0001b0 a3 be 15 be 97 4c 7c bc a6 e2 fb 3b 64 6e a6 3d
       -0.14623503 -0.01539912 0.0076869307 0.08126524
0001c0 2b 76 d4 bd c7 6b 1d bf 66 77 8a 3e 11 17 17 3e
       -0.10374101 -0.6149258 0.2704422 0.14754893
0001d0 39 14 54 be bf 84 c0 bc 90 44 98 3c ae d8 55 bd
       -0.2071084 -0.023500798 0.01858738 -0.052208595

actor.mlp.2.bias f4 [3]
000000 d0 7f 20 be 70 25 d7 bd 9d 81 3a 3e
       -0.15673757 -0.105051875 0.18213506

critic.mlp.0.weight f4 [40, 60]
000000 be 31 2b bd a8 1e 08 bc 64 49 aa 3d 6a 28 0b bd
       -0.041795485 -0.00830809 0.083147794 -0.03397409
000010 c1 8a 68 3d 0e 44 9d 3d 83 89 f7 bc 75 94 28 3e
       0.05677295 0.07678996 -0.030216938 0.16462882
000020 15 59 27 3d d4 5b 65 bf 88 af af 3d 94 4a 0c 3d
       0.04085644 -0.89593244 0.08578402 0.03425081
000030 40 a5 7f 3b 92 99 e3 bd 60 8a 52 3d 6c 31 a1 3d
       0.0039008409 -0.111132756 0.051401496 0.078707546
000040 06 12 40 bd cd 43 03 be c8 41 d6 3d 90 3e f8 bc
       -0.04689219 -0.12818833 0.104617655 -0.03030327
000050 d0 97 d3 3c ce a5 14 bd e2 9c a8 3d 09 ee 00 3e
       0.025829226 -0.036290936 0.08233048 0.12590803
000060 c2 bb a5 3d d6 48 28 bd 2c 49 b9 3d ce 01 81 3d
       0.080924526 -0.041085087 0.090471596 0.06299172
000070 30 5c 4e 3c 32 f7 d4 bd 34 0f 63 bd 76 cb 02 be
       0.012595221 -0.10398711 -0.05543442 -0.12772927
000080 32 d6 b0 3d 5e 07 31 3e 8d 6b 9c 3d 3c 2f b1 3d
       0.086346045 0.17287967 0.07637701 0.08651587
000090 3d fe 01 bf c2 84 fe 3d 05 0b 86 bd 58 87 31 bd
       -0.5077856 0.12427665 -0.065450706 -0.043341964
0000a0 29 65 ed bd 88 73 51 bc c3 ae 5d 3d 1f d1 41 bd
       -0.115915604 -0.012783892 0.054121744 -0.047318574
0000b0 63 76 36 bd f8 c3 74 bc be dc d9 bd e7 11 d7 bd
       -0.044546496 -0.014939301 -0.10637806 -0.105014615
0000c0 68 d9 89 3c 93 0b 01 be 3c ce 0c 3d 31 13 d6 bd
       0.0168273 -0.12602071 0.034376368 -0.10452879
0000d0 08 26 8d be 4c 01 4b bc cf 4e fc bd d4 88 d5 3d
       -0.27568078 -0.012390446 -0.12319719 0.104264885
0000e0 5e a2 d8 3d fd 19 8a bd e0 8a dd 3c 1a 42 87 3d
       0.10577844 -0.06743238 0.02704376 0.06604405
0000f0 20 09 28 3d 5c ab 8d bc 86 61 f9 bd 9a 40 c0 3d
       0.041024327 -0.017293625 -0.12176804 0.09387322
000100 8c e6 e7 bd 30 dd c3 bc f0 34 03 3c 38 27 2e bd
       -0.1132327 -0.023909181 0.008008227 -0.04251787
000110 6e 68 41 bd 65 82 e4 bd 80 16 e9 3b a8 2a 70 bc
       -0.047218733 -0.11157683 0.007113278 -0.014658608
000120 34 80 e6 3d da 16 2e bd fa 5a cc 3d a0 43 c8 3b
       0.112549216 -0.04250226 0.0997829 0.006111577
000130 96 93 6d bd 48 83 fb bc 08 08 70 bc 80 46 af 3a
       -0.058002077 -0.030702248 -0.014650352 0.0013372451
000140 50 3d ae bc 58 ee 1c 3d ee bb d9 3d 10 3c a6 3c
       -0.02126947 0.03831324 0.10631548 0.020292312
000150 f4 88 3f 3d 0a 45 a3 3d c0 f6 e3 3c e0 c1 73 3d
       0.046761468 0.079721525 0.02782762 0.059511065
000160 5e b0 8a 3d 54 7a f7 3d 3c 4d f1 bd a4 f2 34 3d
       0.067719206 0.12083879 -0.117823094 0.044176713
000170 b0 ae bf bb 80 ee bd bc 0c df 4b bd 70 f4 9e 3d
       -0.005849682 -0.023185015 -0.04977326 0.077614665
000180 a6 dd f1 3d 47 c5 d7 bd 02 d9 8e 3d 5e 50 b6 3d
       0.11809854 -0.105356745 0.06974985 0.089020476
000190 80 d6 b8 3c 80 54 c7 3a 94 75 cb 3d c0 d8 7a 3b
       0.02256322 0.0015207678 0.099345356 0.0038276166
0001a0 b8 e4 03 bd 88 31 1c bc a0 a7 29 3d 90 60 04 3d
       -0.032200545 -0.009533294 0.041419625 0.03231865
0001b0 60 3d e4 bb f8 eb 26 3d 1c 6a 0e 3d 13 2d d6 bd
       -0.0069653243 0.04075238 0.034769163 -0.10457816
0001c0 34 c3 03 3d da c4 a1 3d 30 92 72 3c c0 10 41 bc
       0.032168582 0.078988746 0.014805362 -0.011783779
0001d0 0e 89 ca 3d 5d ff e6 bd 14 5c 71 bd 3e 02 6f bd
       0.09889422 -0.112791754 -0.058925703 -0.058351748
0001e0 a0 73 e4 3d af ba ff bd a3 17 87 3c 2c 91 f8 bd
       0.11154866 -0.12486779 0.016490763 -0.12137064
0001f0 cb 62 12 ba ac 19 45 3d 4a 1e d9 bc f3 99 65 3e
       -0.00055841793 0.048120186 -0.0265037 0.22422008
000200 a5 46 86 3b c1 4a 94 3f 70 5b 08 3d ae 80 89 3d
       0.004097777 1.1585313 0.033290327 0.06713997
000210 00 7a 86 b9 00 2f e2 3d 1c 57 a7 bd b4 9f 61 3d
       -0.0002564937 0.11044121 -0.08170912 0.055083945
000220 20 22 96 3d b0 52 83 3d 00 a0 46 b8 74 f3 16 3d
       0.073307276 0.06412256 -4.735589e-05 0.03685327
000230 e0 6b cf bd 6b 7c cf bd b0 78 03 bc d4 8c 84 bc
       -0.101279974 -0.10131153 -0.00802438 -0.016180433
000240 12 52 c4 3d 1a fc bf 3d da 45 b3 3d 30 34 72 bd
       0.09585966 0.093742564 0.087535575 -0.0591318
000250 76 8f cf bd ba 00 f8 bd 14 60 3f 3d 04 3e ee bd
       -0.10134785 -0.121095136 0.046722487 -0.11632922
000260 b5 f7 03 be d5 23 7c bd dc 65 47 be 08 4a 41 bd
       -0.12887461 -0.06155761 -0.1947245 -0.047189742
000270 82 67 e8 be e7 a4 87 bd 0e 5e fb 3d 4c 4c c7 bc
       -0.4539147 -0.066232495 0.12273799 -0.024328373
000280 90 53 db 3d 80 b8 3b 3b 6a 97 53 bc d8 79 1e 3d
       0.10709298 0.0028643906 -0.012914518 0.038690418
000290 83 72 b5 bd 9c 6d d4 bd c4 12 b7 3d be f3 22 bd
       -0.08859732 -0.10372469 0.08939126 -0.039783232
0002a0 e4 e3 00 be cc a4 f2 3d 00 f1 1c 3b 34 d3 0f be
       -0.12586933 0.11847839 0.0023947358 -0.14045411
0002b0 e4 2c 03 3d f4 61 26 be 32 d6 e7 bd dc 41 ef 3d
       0.032025233 -0.16248304 -0.113201514 0.116824836
0002c0 92 4c b6 3d e0 ff 2c 3c 6f 56 e1 bd 68 4e 0a bd
       0.089013234 0.010559052 -0.11002814 -0.03376618
0002d0 34 5f f8 bd 6c 3b 36 3d bb 35 01 be f0 cb f4 bd
       -0.121275336 0.044490263 -0.12618153 -0.119529605
0002e0 4e 5b 07 be b0 ec 77 3d b2 69 b4 bc fd aa da 3d
       -0.13218424 0.060528457 -0.022023056 0.10677145
0002f0 99 53 dd bd e5 53 48 bf c0 d6 13 bb ce e2 c4 bd
       -0.108069606 -0.7825301 -0.002255842 -0.09613572
000300 a3 fe 00 3e f6 0e 64 bd c2 d3 99 3d 3b 38 94 bd
       0.12597136 -0.05567833 0.07511093 -0.072372876
000310 00 31 63 3a 0c 05 35 3d 4f c3 f2 bd 74 8e 72 3d
       0.00086666644 0.044194266 -0.118536584 0.059217885
000320 5a 61 ca bd e8 94 93 3c c8 b7 d1 bc c8 8e 97 3d
       -0.098818496 0.01801534 -0.025600329 0.0740028
000330 b3 7b 00 3e c8 57 ee 3c 00 96 71 bb 53 fe 82 bd
       0.12547188 0.029094592 -0.0036863089 -0.06396165
000340 0c 27 45 3d e8 84 7e bd 1c 6d 5a 3d 58 31 65 bd
       0.04813294 -0.062138468 0.05332671 -0.05595526
000350 e2 57 b3 3d a8 52 e9 3b 77 e2 68 3d b9 91 b9 bd
       0.08756997 0.007120449 0.0568566 -0.090609975
000360 f6 d1 6c 3f 0b ed f0 bd f2 6a d6 3d ee 62 09 bd
       0.92507875 -0.11763962 0.10469617 -0.033541612
000370 3c c6 40 3d ec 16 b3 bc ee 7f 0a be 66 c9 8d bc
       0.04706405 -0.021861516 -0.13525364 -0.017307948
000380 e1 69 0d bc 22 d8 8f bd f8 7f ba bc da 5f 85 3d
       -0.0086312005 -0.07023646 -0.022766098 0.06512423
000390 40 2e 55 3c 5d 76 de bd 45 74 03 be cd 13 54 be
       0.013011515 -0.1086242 -0.12837322 -0.20710678
0003a0 57 08 12 3d 83 cd 71 be c0 b7 91 3d 30 42 bd 3d
       0.035652485 -0.23613553 0.07115126 0.0924114
0003b0 c0 2e 5b bd 90 84 69 bd 41 37 be bd a8 f6 a4 3c
       -0.05351138 -0.057011187 -0.092878826 0.020137146
0003c0 b4 d8 93 bc a0 87 cd 3b 8f 78 22 3d 1e 1c 1b 3d
       -0.018047668 0.0062722713 0.039665755 0.03786861
0003d0 e2 ba 69 bd a0 45 11 3c 90 db 6a 3c ca 50 9f bc
       -0.05706299 0.008866698 0.014334574 -0.019447703
0003e0 89 ac 1b 3c eb f6 61 bd da b7 d8 3d 00 f4 58 bc
       0.009501585 -0.05516712 0.10581942 -0.013241768
0003f0 10 50 87 bc 68 4c ed bd ea a6 bf bd 80 97 83 3b
       -0.016517669 -0.11586839 -0.09358008 0.004015863

critic.mlp.0.bias f4 [40]
000000 a9 8b 07 bd f0 98 c2 3d 95 b6 3b bd 53 b5 22 be
       -0.033092175 0.09501827 -0.04582842 -0.15889482
000010 ee 4f 07 bd 2f fe da 3d 5a 20 2b bd d7 1b 9a 3c
       -0.03303521 0.10693013 -0.0417789 0.018812103
000020 c1 00 0a be ce 45 f0 3d d6 9a 07 be e7 e6 e7 3c
       -0.1347685 0.11732064 -0.13242659 0.028308345
000030 0b 75 91 bd 2e 10 c3 bd be b4 dc 3d 80 a1 30 bd
       -0.07102402 -0.095245704 0.10776661 -0.04312277
000040 06 78 3e 3d ee d8 0e 3e 2c 36 48 3d 67 49 c5 bd
       0.046501182 0.1394994 0.048879787 -0.09633141
000050 cf 39 22 bb c9 ee c6 3d c0 4e 88 bd ba 8c c6 bc
       -0.0024753695 0.097135134 -0.06655645 -0.024237026
000060 18 90 0f be 2f fe 55 bd 07 8d 12 be 26 7d 66 3d
       -0.14019811 -0.05224436 -0.1431161 0.056271695
000070 c5 ef d6 bd df 53 f8 3c 3b a1 0e bc 56 9b 4f bd
       -0.10494951 0.03031343 -0.0087054325 -0.05068525
000080 8f 47 f4 bd fb 6a 0d be 81 77 b3 bd a0 7d 8c 3b
       -0.11927711 -0.13810341 -0.08763028 0.0042874366
000090 5b f1 20 be dd 2c 1e 3d 42 1b 3a bd bd 73 c9 bd
       -0.1571707 0.038617004 -0.04543615 -0.098365285

critic.mlp.2.weight f4 [1, 40]
000000 e7 41 28 3e f8 27 03 be 9a d9 e9 3d b4 fe fb bd
       0.1643139 -0.12808216 0.11418457 -0.1230444
000010 ec fe db bd 04 a4 83 be 25 ce 8e 3e fb 3e 25 3b
       -0.10741982 -0.25711071 0.2789165 0.0025214541
000020 c8 6a 7f 3e 00 ab ca ba 25 23 43 bd 86 69 d5 3d
       0.24943078 -0.0015462339 -0.04764094 0.104205176
000030 ba 2a ff bd 67 be c4 bd ce 50 ba 3c f6 57 90 3e
       -0.12459321 -0.09606629 0.022743609 0.2819211
000040 67 63 b7 bd c4 d5 3f 3d ac 23 53 bc ca a6 a6 bd
       -0.08954506 0.046834722 -0.012886923 -0.08137281
000050 48 09 f5 bc 81 76 50 3a 9d 6a 19 be a2 55 09 3d
       -0.029911652 0.0007952229 -0.14982076 0.03352893
000060 fc b8 f1 ba b1 0b 80 3e c6 73 6f 3d cb fb 21 be
       -0.001844197 0.2500892 0.05846002 -0.15818708
000070 8a 6b ab bc 4d bf c1 bd 7e 6d 8d 3d 80 3f e4 bd
       -0.020925302 -0.09460316 0.069056496 -0.11144924
000080 9e 20 99 bd 79 4b 7a 3d 4b ef 9e be b0 74 9f bd
       -0.07476924 0.061107133 -0.3104194 -0.07785928
000090 b5 74 a5 3d bf d9 fb 3a d1 03 96 3c 20 a9 00 3e
       0.08078901 0.0019214674 0.018312367 0.12564516
