evaluate_results/agent_logic_paper/checkpoints/step_622001.pth (torch, 12933 bytes, 4 tensors)

actor.im.W f4 [5, 5]
0.4564357 0.07849582 0.44471022 0.3718537 -0.6693496 0.37932974 0.0040390817 0.3669307
0.29509696 -0.9102707 1.1435597 0.9413965 0.99472404 1.0076381 1.3280535 0.20117144
0.43613335 0.6487298 0.7307724 0.8366896 1.6690924 0.6718193 1.618186 1.5499905
1.6558124
00000000: f1b1 e93e 6bc2 a03d 0fb1 e33e 9c63 be3e
00000010: 7f5a 2bbf 8237 c23e 465a 843b 57de bb3e
00000020: f316 973e 8007 69bf 2a60 923f 5cff 703f
00000030: 3ca6 7e3f 49fa 803f a8fd a93f e3ff 4d3e
00000040: df4c df3e 2813 263f e613 3b3f 4a31 563f
00000050: d2a4 d53f 5afc 2b3f b820 cf3f 1766 c63f
00000060: a9f1 d33f

critic.mlp.0.weight f4 [40, 60]
-0.0009665443 0.06925457 -0.09189809 -0.08065303 -0.03536652 0.034618966 0.011798497 0.11466689
-0.07585014 0.09890599 -0.06862716 -0.025376482 -0.12333496 -0.085500255 -0.053217772 0.0047823046
0.051037554 0.077462606 -0.087521814 -0.05621801 0.046891127 0.10720262 -0.026568688 0.096606635
-0.020808682 0.013660542 0.11689647 -0.11976173 -0.081273 -0.03268349 -0.050322957 0.11154202
-0.08367963 -0.045071974 -0.05419291 -0.10655292 -0.35527787 0.11097363 0.057606544 0.06257096
0.0067895413 -0.06618716 0.036198165 -0.15183412 -0.07892639 -0.066554636 0.08145373 0.07569374
-0.057254963 -0.004658216 0.08256693 0.3695129 0.06754754 0.25861028 0.086559415 -0.07601406
0.02405691 -0.10009151 -0.08947703 -0.06669065 0.05841402 0.051918685 -0.08116318 0.034311205
0.066181175 -0.016294591 0.00023854256 0.025220843 0.075279675 0.12809092 -0.105111584 -0.047311038
0.05073736 0.106965266 0.11234328 0.11391177 0.025692668 -0.11226264 0.01187618 -0.0807653
-0.12031476 0.114703886 0.098162025 -0.1287803 0.024163809 -0.021748094 -0.021244753 -0.059096158
0.049645986 -0.07646605 0.047326736 0.06528664 0.09241862 0.043580957 -0.13233225 -0.08843716
0.05910032 0.027020687 -0.10070841 -0.074337974 0.12145021 0.086989515 -0.060981374 -0.037183154
-0.12767054 -0.0023204512 -0.09721949 -0.09958172 -0.0071133287 0.019383643 -0.052870132 0.07191391
-0.08325286 0.11245022 0.08847183 -0.108867355 -0.032130826 0.0058253054 0.01883575 0.030619066
0.05066227 0.0077330777 -0.03320729 0.0908731 -0.09405398 -0.0765181 -0.002533423 -0.019638082
-0.053184275 -0.09213519 0.012294306 0.027595839 -0.08410387 -0.0066253007 0.092415944 -0.013271455
0.0035879596 -0.011137268 0.026127322 0.08208652 0.12228896 0.08198536 0.12256876 -0.009336685
-0.11597281 -0.061203107 0.08790448 -0.00083688484 -0.06416841 -0.098930426 -0.12081798 -0.10896099
-0.026186112 0.100583434 0.04557366 -0.094723165 0.34989938 -0.101021536 -0.02729295 -0.052346293
-0.024866525 -0.025347734 -0.08606281 -0.1715841 0.009582669 0.0016695374 -0.058646634 0.048631657
-0.116197035 -0.0087125655 0.11353256 -0.018739559 0.24067366 0.08067308 -0.1165072 0.08168087
-0.014897362 -0.057630874 0.1032348 -0.10432465 0.013853007 -0.027029384 0.02883386 -0.027320283
-0.0013249088 0.045592625 -0.094402686 -0.06635439 -0.05783499 0.09188837 0.014585376 0.08833305
-0.09106395 0.0057578213 -0.0910066 -0.0710672 -0.075226955 0.044119094 -0.07693206 -0.0028165893
0.0054309713 0.083220474 -0.09758886 -0.088628344 -0.07496308 0.090361014 -0.04640673 0.10889392
0.046683334 0.016347349 -0.00096101937 -0.025520578 0.016197635 -0.092836745 0.014284025 -0.046885554
-0.22779894 -0.06766508 0.10424686 -0.10477023 -0.009270139 0.12771016 -0.016722191 0.0878236
-0.17523691 0.06395301 -0.09195505 -0.036646716 -0.04331497 -0.019117998 0.0014121267 0.18121262
0.008758734 0.19036399 0.078971736 -0.081618465 0.05790163 -0.09125989 -0.05471559 0.037971076
0.042627614 0.09685402 -0.019757995 0.022007817 0.08826453 -0.12485106 0.11513743 -0.18419252
0.039803322 -0.08368193 -0.07468536 0.017063208 0.10675475 -0.03773829 -0.076645575 -0.047745988
00000000: b15f 7dba 57d5 8d3d 1135 bcbd 6a2d a5bd
00000010: 7cdc 10bd 9ecc 0d3d 7c4e 413c 79d6 ea3d
00000020: 5157 9bbd 398f ca3d 658c 8cbd 57e2 cfbc
00000030: 0a97 fcbd c21a afbd e1fa 59bd e1b4 9c3b
00000040: c10c 513d b7a4 9e3d a33e b3bd db44 66bd
00000050: e910 403d 0c8d db3d 94a6 d9bc b3d9 c53d
00000060: f876 aabc 77d0 5f3c 6b67 ef3d a345 f5bd
00000070: 7572 a6bd 20df 05bd 721f 4ebd 2570 e43d
00000080: 3a60 abbd 649d 38bd 63f9 5dbd 6b38 dabd
00000090: fbe6 b5be 2446 e33d d7f4 6b3d 3425 803d
000000a0: cd7a de3b 228d 87bd 8744 143d 677a 1bbe
000000b0: 29a4 a1bd cc4d 88bd 37d1 a63d 5205 9b3d
000000c0: 2e84 6abd f3a3 98bb da18 a93d cb30 bd3e
000000d0: 5d56 8a3d 9168 843e 1046 b13d 42ad 9bbd
000000e0: ff12 c53c c7fc ccbd bc3f b7bd 1c95 88bd
000000f0: 8a43 6f3d b0a8 543d e238 a6bd e889 0c3d
00000100: ff89 873d 3c7c 85bc 4821 7a39 f19b ce3c
00000110: 3b2c 9a3d 442a 033e be44 d7bd 38c9 41bd
00000120: fad1 4f3d 9b10 db3d 3c14 e63d 934a e93d
00000130: 6e79 d23c f4e9 e5bd 4f94 423c 4768 a5bd
00000140: 9667 f6bd dfe9 ea3d 2c09 c93d fcde 03be
00000150: 2ef3 c53c 0f29 b2bc 7a09 aebc d00e 72bd
00000160: 9759 4b3d 3c9a 9cbd aed9 413d 00b5 853d
00000170: f945 bd3d f281 323d 1b82 07be 8b1e b5bd
00000180: 2d13 723d 7d5a dd3c 3640 cebd 823e 98bd
00000190: e3ba f83d 8f27 b23d 9bc7 79bd 5d4d 18bd
000001a0: 11bc 02be b612 18bb 031b c7bd 80f1 cbbd
000001b0: ed16 e9bb 72ca 9e3c 5a8e 58bd 9a47 933d
000001c0: 7a80 aabd 4d4c e63d b830 b53d d9f5 debd
000001d0: 9d9b 03bd 34e2 be3b 6e4d 9a3c d6d4 fa3c
000001e0: 3e83 4f3d c265 fd3b 5e04 08bd ad1b ba3d
000001f0: 609f c0bd 86b5 9cbd c907 26bb 0be0 a0bc
00000200: c1d7 59bd 60b1 bcbd 0f6e 493c ab10 e23c
00000210: a63e acbd 0d19 d9bb 9244 bd3d 8470 59bc
00000220: f923 6b3b 1679 36bc f708 d63c fa1c a83d
00000230: a272 fa3d f1e7 a73d 5405 fb3d e5f8 18bc
00000240: 2783 edbd 1cb0 7abd 4407 b43d 6462 5bba
00000250: ba6a 83bd 099c cabd 6b6f f7bd f126 dfbd
00000260: 4284 d6bc b0fe cd3d 72ab 3a3d 38fe c1bd
00000270: 0326 b33e 61e4 cebd 7795 dfbc 1169 56bd
00000280: e2b4 cbbc 0da6 cfbc b341 b0bd beb3 2fbe
00000290: a000 1d3c 61d4 da3a 7437 70bd fd31 473d
000002a0: b6f8 edbd 26bf 0ebc c283 e83d b483 99bc
000002b0: 2873 763e ee37 a53d 549b eebd 4d48 a73d
000002c0: 1114 74bc 5a0e 6cbd c46c d33d 29a8 d5bd
000002d0: b9f7 623c ba6c ddbc fd34 ec3c c9ce dfbc
000002e0: 90a8 adba 55bf 3a3d 3256 c1bd cfe4 87bd
000002f0: 62e4 6cbd f82f bc3d 80f7 6e3c f5e7 b43d
00000300: bc7f babd 1bac bc3b ab61 babd ae8b 91bd
00000310: 9710 9abd 39b6 343d 8e8e 9dbd 8796 38bb
00000320: 4af6 b13b 7f6f aa3d abdc c7bd c782 b5bd
00000330: 3e86 99bd 320f b93d fc14 3ebd c703 df3d
00000340: 0637 3f3d e0ea 853c ebec 7bba 8810 d1bc
00000350: e7b0 843c 3121 bebd 8b07 6a3c 110b 40bd
00000360: 2044 69be fd93 8abd 617f d53d c691 d6bd
00000370: c8e1 17bc 74c6 023e fafc 88bc dcdc b33d
00000380: 4e71 33be ccf9 823d ee52 bcbd de1a 16bd
00000390: 0a6b 31bd 599d 9cbc 1c17 b93a cd8f 393e
000003a0: cb80 0f3c c7ee 423e efbb a13d 9527 a7bd
000003b0: 422a 6d3d 77e6 babd 741d 60bd 8f87 1b3d
000003c0: 4b9a 2e3d 675b c63d 85db a1bc bd49 b43c
000003d0: 09c4 b43d eab1 ffbd 2ccd eb3d f79c 3cbe
000003e0: cf08 233d 6f61 abbd a3f4 98bd 24c8 8b3c
000003f0: 3ca2 da3d 7793 1abd 5bf8 9cbd 4c91 43bd

critic.mlp.0.bias f4 [40]
0.13910617 -0.004151642 -0.04785926 0.010932075 -0.0050901566 0.03438783 -0.05058827 -0.12499652
-0.083198786 -0.02096439 -0.057861093 0.081564836 0.009092099 -0.049423374 0.060078006 -0.14429697
-0.07448718 -0.022816159 -0.17167549 0.1029042 -0.033357415 -0.19200459 -0.14868566 5.8315076e-05
0.036756694 -0.023361037 -0.10375124 -0.11422422 -0.06124816 0.053040836 0.021571273 0.033325274
-0.06828575 0.16766968 0.13728645 0.114117116 0.14164178 -0.10110947 -0.055222366 -0.014278567
00000000: d971 0e3e 7f0a 88bb 1208 44bd 721c 333c
00000010: 54cb a6bb 41da 0c3d a535 4fbd 2dfe ffbd
00000020: 2064 aabd 83bd abbc c1ff 6cbd 770b a73d
00000030: 07f7 143c 2a70 4abd 5b14 763d 96c2 13be
00000040: bc8c 98bd f4e8 babc b3cb 2fbe 70bf d23d
00000050: c9a1 08bd da9c 44be 0e41 18be 5697 7438
00000060: 308e 163d a55f bfbc 887b d4bd 63ee e9bd
00000070: 5adf 7abd 5941 593d 3db6 b03c 1580 083d
00000080: 66d9 8bbd 9ab1 2b3e d294 0c3e 3cb6 e93d
00000090: 8b0a 113e 7b12 cfbd d930 62bd a7f0 69bc

critic.mlp.2.weight f4 [1, 40]
0.117887154 0.059969712 -0.19522695 -0.08707038 -0.20734254 0.08500386 -0.080784746 -0.24221446
-0.3371152 -0.083755285 0.100175135 0.14983124 -0.12437942 -0.058197334 0.103375025 -0.04845597
-0.17463903 -0.0031840773 0.04891934 0.06265932 -0.0025028118 -0.034857567 0.10411611 -0.059056763
0.08408593 0.02655874 0.10970044 3.364315e-06 -0.04657636 0.19842021 0.07670964 -0.058964863
-0.093887076 0.14344999 0.09537172 -0.18332615 0.103554115 -0.11295054 -0.20183149 0.069552325
00000000: d26e f13d cda2 753d 93e9 47be f551 b2bd
00000010: 9a51 54be 8116 ae3d 7972 a5bd 1107 78be
00000020: 5d9a acbe e487 abbd 9f28 cd3d 5c6d 193e
00000030: a3ba febd 5460 6ebd 49b6 d33d c479 46bd
00000040: 93d4 32be f4ab 50bb a55f 483d 8853 803d
00000050: 3706 24bb cfc6 0ebd d43a d53d 81e5 71bd
00000060: 3e35 ac3d b791 d93c a0aa e03d 7ec6 6136
00000070: dac6 3ebd ab2e 4b3e f219 9d3d 2485 71bd
00000080: de47 c0bd 8ee4 123e 4052 c33d dab9 3bbe
00000090: 2e14 d43d 9d52 e7bd eaac 4ebe 7371 8e3d
