evaluate_results/agent_logic_paper/checkpoints/step_710001.pth (torch, 12933 bytes, 4 tensors)

actor.im.W f4 [5, 5]
00000000: a92f e03e 6286 2a3e 2fbd d13e 37aa a63e
00000010: 3c82 30bf 5667 b93e 8176 bc3d 200c aa3e
00000020: 2156 7f3e a7c8 6dbf 9110 8f3f e977 853f
00000030: 0e3e 7a3f 9a35 7e3f e1e3 a33f d5ad 3a3e
00000040: 3572 083f 3921 243f 4960 373f 666e 4b3f
00000050: 5032 d73f 3814 433f 8741 d13f ce20 c63f
00000060: 27ab d13f
0.43786362 0.16652825 0.40964648 0.3255174 -0.6894872 0.36211652 0.0920229 0.33212376
0.249352 -0.92884296 1.1176931 1.0427219 0.9775094 0.9930054 1.2803918 0.18230374
0.53299266 0.64113194 0.71631294 0.7946533 1.6812229 0.76202726 1.6348122 1.5478761
1.6380357

critic.mlp.0.weight f4 [40, 60]
00000000: b15f 7dba 57d5 8d3d f0ee b8bd 4be7 a1bd
00000010: 2a50 0abd 9ecc 0d3d 737f 5b3c bddf eb3d
00000020: d130 b4bd ea74 a83d 73e9 a0bd 57e2 cfbc
00000030: 0a97 fcbd c21a afbd e1fa 59bd e1b4 9c3b
00000040: c10c 513d b7a4 9e3d a33e b3bd db44 66bd
00000050: e910 403d 0c8d db3d 94a6 d9bc b3d9 c53d
00000060: f876 aabc 77d0 5f3c 6b67 ef3d a345 f5bd
00000070: 7572 a6bd 20df 05bd 721f 4ebd 2570 e43d
00000080: 3a60 abbd 1e11 32bd d00f 1cbd 4df2 d6bd
00000090: 94df d0be 2446 e33d d7f4 6b3d 3425 803d
000000a0: cd7a de3b 228d 87bd cdd0 1a3d 7899 27be
000000b0: 0b5e 9ebd cc4d 88bd 37d1 a63d 5205 9b3d
000000c0: 2e84 6abd f3a3 98bb da18 a93d 13e8 c73e
000000d0: 486e 8a3d d91f 8f3e 1046 b13d 42ad 9bbd
000000e0: ff12 c53c c7fc ccbd bc3f b7bd 1c95 88bd
000000f0: 8a43 6f3d b0a8 543d e238 a6bd e889 0c3d
00000100: ff89 873d 3c7c 85bc 4821 7a39 f19b ce3c
00000110: 3b2c 9a3d 442a 033e be44 d7bd 38c9 41bd
00000120: fad1 4f3d 9b10 db3d 3c14 e63d 934a e93d
00000130: 6e79 d23c f4e9 e5bd 4f94 423c 4768 a5bd
00000140: 9667 f6bd dfe9 ea3d 2c09 c93d fcde 03be
00000150: 2ef3 c53c 0f29 b2bc 7a09 aebc d00e 72bd
00000160: 9759 4b3d 3c9a 9cbd aed9 413d 00b5 853d
00000170: f945 bd3d f281 323d 1b82 07be 8b1e b5bd
00000180: 2d13 723d 7d5a dd3c 3640 cebd 823e 98bd
00000190: e3ba f83d 8f27 b23d 9bc7 79bd 5d4d 18bd
000001a0: 11bc 02be b612 18bb 031b c7bd 80f1 cbbd
000001b0: ed16 e9bb 72ca 9e3c 5a8e 58bd 9a47 933d
000001c0: 7a80 aabd 4d4c e63d b830 b53d d9f5 debd
000001d0: 9d9b 03bd 34e2 be3b 6e4d 9a3c d6d4 fa3c
000001e0: 3e83 4f3d c265 fd3b 55c6 33bd c43a a43d
000001f0: 4a80 d6bd 86b5 9cbd 8189 58bc 15d3 18bd
00000200: a7c0 77bd 69b6 94bd e53f 84bb ab10 e23c
00000210: a63e acbd 0d19 d9bb 9244 bd3d 8470 59bc
00000220: f923 6b3b 1679 36bc f708 d63c fa1c a83d
00000230: a272 fa3d f1e7 a73d 5405 fb3d e5f8 18bc
00000240: 2783 edbd 1cb0 7abd 4407 b43d 6462 5bba
00000250: ba6a 83bd 099c cabd 6b6f f7bd f126 dfbd
00000260: 4284 d6bc c31d b83d a4e9 983c 1edf d7bd
00000270: e5a1 cb3e 61e4 cebd 7795 dfbc 1169 56bd
00000280: e2b4 cbbc 0da6 cfbc a022 c6bd f82c 40be
00000290: f336 90ba 61d4 da3a 7437 70bd fd31 473d
000002a0: b6f8 edbd 26bf 0ebc c283 e83d 1108 f1bc
000002b0: f91d 743e ce56 8f3d 549b eebd 4d48 a73d
000002c0: 1114 74bc 5a0e 6cbd c46c d33d 29a8 d5bd
000002d0: b9f7 623c ba6c ddbc a387 a63c 1ebe 12bd
000002e0: e80f 21bc 55bf 3a3d a9c1 d2bd 206c 8bbd
000002f0: e04f 72bd 9ae1 ac3d 36f7 80bc f5e7 b43d
00000300: bc7f babd 1bac bc3b ab61 babd ae8b 91bd
00000310: 9710 9abd 39b6 343d 8e8e 9dbd 8796 38bb
00000320: 4af6 b13b 7f6f aa3d abdc c7bd c782 b5bd
00000330: 3e86 99bd 320f b93d fc14 3ebd c703 df3d
00000340: 0637 3f3d e0ea 853c ebec 7bba 8810 d1bc
00000350: e7b0 843c a78c cfbd e639 a83c d0e1 62bd
00000360: e90b 4cbe fd93 8abd 617f d53d c691 d6bd
00000370: c8e1 17bc 74c6 023e 59aa cebc e672 b23d
00000380: f226 3cbe ccf9 823d ee52 bcbd de1a 16bd
00000390: 0a6b 31bd 599d 9cbc 1c17 b93a 8ca0 453e
000003a0: 2846 983c 86ff 4e3e efbb a13d 9527 a7bd
000003b0: 422a 6d3d 77e6 babd 741d 60bd 8f87 1b3d
000003c0: 4b9a 2e3d 675b c63d 37cd d1bc fd57 843c
000003d0: 90c7 a83d eab1 ffbd bdd0 df3d 1eed 42be
000003e0: 4bb8 b03c 671b c7bd de09 cbbd 24c8 8b3c
000003f0: 3ca2 da3d 7793 1abd 5bf8 9cbd 4c91 43bd
-0.0009665443 0.06925457 -0.09029949 -0.07905444 -0.033767857 0.034618966 0.0133970855 0.11517284
-0.087983735 0.082254246 -0.07857027 -0.025376482 -0.12333496 -0.085500255 -0.053217772 0.0047823046
0.051037554 0.077462606 -0.087521814 -0.05621801 0.046891127 0.10720262 -0.026568688 0.096606635
-0.020808682 0.013660542 0.11689647 -0.11976173 -0.081273 -0.03268349 -0.050322957 0.11154202
-0.08367963 -0.043473355 -0.038101017 -0.10495434 -0.40795577 0.11097363 0.057606544 0.06257096
0.0067895413 -0.06618716 0.037796784 -0.16367137 -0.07732781 -0.066554636 0.08145373 0.07569374
-0.057254963 -0.004658216 0.08256693 0.39044246 0.06759316 0.27953985 0.086559415 -0.07601406
0.02405691 -0.10009151 -0.08947703 -0.06669065 0.05841402 0.051918685 -0.08116318 0.034311205
0.066181175 -0.016294591 0.00023854256 0.025220843 0.075279675 0.12809092 -0.105111584 -0.047311038
0.05073736 0.106965266 0.11234328 0.11391177 0.025692668 -0.11226264 0.01187618 -0.0807653
-0.12031476 0.114703886 0.098162025 -0.1287803 0.024163809 -0.021748094 -0.021244753 -0.059096158
0.049645986 -0.07646605 0.047326736 0.06528664 0.09241862 0.043580957 -0.13233225 -0.08843716
0.05910032 0.027020687 -0.10070841 -0.074337974 0.12145021 0.086989515 -0.060981374 -0.037183154
-0.12767054 -0.0023204512 -0.09721949 -0.09958172 -0.0071133287 0.019383643 -0.052870132 0.07191391
-0.08325286 0.11245022 0.08847183 -0.108867355 -0.032130826 0.0058253054 0.01883575 0.030619066
0.05066227 0.0077330777 -0.043890316 0.08019021 -0.10473688 -0.0765181 -0.013216377 -0.03731068
-0.060486462 -0.072613545 -0.004035937 0.027595839 -0.08410387 -0.0066253007 0.092415944 -0.013271455
0.0035879596 -0.011137268 0.026127322 0.08208652 0.12228896 0.08198536 0.12256876 -0.009336685
-0.11597281 -0.061203107 0.08790448 -0.00083688484 -0.06416841 -0.098930426 -0.12081798 -0.10896099
-0.026186112 0.089900516 0.018666096 -0.10540603 0.39771953 -0.101021536 -0.02729295 -0.052346293
-0.024866525 -0.025347734 -0.09674573 -0.18767154 -0.0011002704 0.0016695374 -0.058646634 0.048631657
-0.116197035 -0.0087125655 0.11353256 -0.029422792 0.23839559 0.069989786 -0.1165072 0.08168087
-0.014897362 -0.057630874 0.1032348 -0.10432465 0.013853007 -0.027029384 0.020328349 -0.03582584
-0.0098304525 0.045592625 -0.10290844 -0.068077326 -0.059158206 0.084414676 -0.01574288 0.08833305
-0.09106395 0.0057578213 -0.0910066 -0.0710672 -0.075226955 0.044119094 -0.07693206 -0.0028165893
0.0054309713 0.083220474 -0.09758886 -0.088628344 -0.07496308 0.090361014 -0.04640673 0.10889392
0.046683334 0.016347349 -0.00096101937 -0.025520578 0.016197635 -0.10134249 0.02053542 -0.055391133
-0.19926418 -0.06766508 0.10424686 -0.10477023 -0.009270139 0.12771016 -0.025227712 0.087133214
-0.18374231 0.06395301 -0.09195505 -0.036646716 -0.04331497 -0.019117998 0.0014121267 0.19299525
0.01858814 0.20214662 0.078971736 -0.081618465 0.05790163 -0.09125989 -0.05471559 0.037971076
0.042627614 0.09685402 -0.02561055 0.016155237 0.082411885 -0.12485106 0.109284855 -0.19035766
0.021572253 -0.097220235 -0.099139914 0.017063208 0.10675475 -0.03773829 -0.076645575 -0.047745988

critic.mlp.0.bias f4 [40]
00000000: ce14 103e 7f0a 88bb 06ca 6fbd 8006 1f3b
00000010: 0b49 33bc 62ae 043d 0889 6dbd 61a0 f9bd
00000020: 1eb1 a3bd 83bd abbc 611c 60bd 2d85 973d
00000030: e322 14ba 2a70 4abd e7f0 703d d99c 1bbe
00000040: c178 99bd 0597 b0bc 1ebb 39be 246d ca3d
00000050: c9a1 08bd 1d96 36be 0e41 18be 9060 303c
00000060: 308e 163d 36c2 eabc 1ca4 c9bd 9aec e9bd
00000070: 1eee b9bd b699 493d 3db6 b03c ddb7 543d
00000080: 2bfb a1bd 30d6 283e 2038 0b3e 1927 013e
00000090: c5b3 103e 874d e5bd 7e16 6cbd a7f0 69bc
0.14070436 -0.004151642 -0.058542274 0.002426535 -0.010942708 0.032392867 -0.05799201 -0.12188793
-0.07992767 -0.02096439 -0.054714564 0.07398448 -0.00056509505 -0.049423374 0.058823492 -0.15196551
-0.07493735 -0.021556387 -0.18137786 0.09884098 -0.033357415 -0.17830701 -0.14868566 0.01076521
0.036756694 -0.02865706 -0.098457545 -0.11422081 -0.090786204 0.049218856 0.021571273 0.05193316
-0.079092346 0.16487956 0.13595629 0.12612571 0.14131077 -0.11196428 -0.057638638 -0.014278567

critic.mlp.2.weight f4 [1, 40]
00000000: 4630 033e cda2 753d 93c5 4cbe 681c a0bd
00000010: ee10 4ebe 309b a13d 7fc3 99bd 103f 81be
00000020: 5111 a9be e487 abbd 750d c33d c7d1 173e
00000030: ff7f f1bd 5460 6ebd 5358 ce3d 43d1 30bd
00000040: 7f70 30be 8431 fdb9 2a53 3b3d 3858 773d
00000050: 3706 24bb 5aaa 3bbd d43a d53d 6ba3 3fbd
00000060: 3e35 ac3d 5aa6 b93c bcdf d43d 8df4 d136
00000070: 525e 19bd 0415 4d3e f219 9d3d e21b 9cbd
00000080: a19c b4bd 4796 fc3d fa52 b53d 3d6a 3ebe
00000090: 2371 c23d 2552 e1bd 4b87 43be 7371 8e3d
0.12811384 0.059969712 -0.19997244 -0.07817918 -0.20123646 0.07890928 -0.07507991 -0.25243425
-0.33021024 -0.083755285 0.09524051 0.14826117 -0.117919914 -0.058197334 0.1007544 -0.043168318
-0.17230414 -0.00048292812 0.04573361 0.060386866 -0.0025028118 -0.045816757 0.10411611 -0.046786707
0.08408593 0.02266233 0.103942364 6.257155e-06 -0.037443466 0.20027548 0.07670964 -0.07622506
-0.08818937 0.12333351 0.08853717 -0.18595214 0.09494235 -0.11001996 -0.19094579 0.069552325
