evaluate_results/agent_logic_paper/checkpoints/step_48001.pth (torch, 12922 bytes, 4 tensors)

actor.im.W f4 [5, 5]
000000 f1 f9 f4 3f 00 d1 be be 0e 8d 23 bf 6b 7e 2a bf
       1.9138776 -0.3726883 -0.6388711 -0.6659915
000010 2e 26 06 c0 bd 0d 02 40 f1 a7 4b bf 19 51 28 bf
       -2.0960803 2.0320885 -0.79553133 -0.65748745
000020 42 65 2b bf a3 7f 10 c0 dc ac 1e 3f a7 d9 80 3f
       -0.6695138 -2.2577903 0.6198251 1.0066422
000030 77 1d 65 3f 5b 59 b2 3e c2 82 c8 3f f5 94 8b be
       0.89498085 0.34833798 1.5664904 -0.27262083
000040 ef 1a 08 3f b5 99 da 3e 8f 9a 3e 3f 07 70 70 3f
       0.531661 0.42695394 0.7445459 0.9392094
000050 14 8a 36 40 ba 41 f0 be 3e 2f d1 bd 86 aa 56 3f
       2.8521776 -0.46925145 -0.10214089 0.8385395
000060 32 a1 6c 3f
       0.92433465

critic.mlp.0.weight f4 [40, 60]
000000 b1 5f 7d ba 57 d5 8d 3d 4f 1e f4 bd 82 16 dd bd
       -0.0009665443 0.06925457 -0.119198434 -0.10795309
000010 8f 57 80 bd 9e cc 0d 3d 93 fa 7d bc 25 9f be 3d
       -0.062667005 0.034618966 -0.015501636 0.09307698
000020 ff 2b ab bc 41 0c df 3d 88 c1 58 bc 57 e2 cf bc
       -0.020895002 0.10891009 -0.013229735 -0.025376482
000030 0a 97 fc bd c2 1a af bd e1 fa 59 bd e1 b4 9c 3b
       -0.12333496 -0.085500255 -0.053217772 0.0047823046
000040 c1 0c 51 3d b7 a4 9e 3d a3 3e b3 bd db 44 66 bd
       0.051037554 0.077462606 -0.087521814 -0.05621801
000050 e9 10 40 3d 0c 8d db 3d 94 a6 d9 bc b3 d9 c5 3d
       0.046891127 0.10720262 -0.026568688 0.096606635
000060 f8 76 aa bc 77 d0 5f 3c 6b 67 ef 3d a3 45 f5 bd
       -0.020808682 0.013660542 0.11689647 -0.11976173
000070 75 72 a6 bd 20 df 05 bd 72 1f 4e bd 25 70 e4 3d
       -0.081273 -0.03268349 -0.050322957 0.11154202
000080 3a 60 ab bd ff 37 94 bd 4d ac bb bd dd 10 09 be
       -0.08367963 -0.07237243 -0.09163723 -0.13385339
000090 29 67 06 be 24 46 e3 3d d7 f4 6b 3d 34 25 80 3d
       -0.1312529 0.11097363 0.057606544 0.06257096
0000a0 cd 7a de 3b 22 8d 87 bd 39 c8 11 3c 79 d0 0e be
       0.0067895413 -0.06618716 0.008897834 -0.13946714
0000b0 61 8d d9 bd cc 4d 88 bd 37 d1 a6 3d 52 05 9b 3d
       -0.10622669 -0.066554636 0.08145373 0.07569374
0000c0 2e 84 6a bd f3 a3 98 bb da 18 a9 3d aa 89 e2 3d
       -0.057254963 -0.004658216 0.08256693 0.110614136
0000d0 42 7f 35 3d 85 af 96 b9 10 46 b1 3d 42 ad 9b bd
       0.044310816 -0.00028741002 0.086559415 -0.07601406
0000e0 ff 12 c5 3c c7 fc cc bd bc 3f b7 bd 1c 95 88 bd
       0.02405691 -0.10009151 -0.08947703 -0.06669065
0000f0 8a 43 6f 3d b0 a8 54 3d e2 38 a6 bd e8 89 0c 3d
       0.05841402 0.051918685 -0.08116318 0.034311205
000100 ff 89 87 3d 3c 7c 85 bc 48 21 7a 39 f1 9b ce 3c
       0.066181175 -0.016294591 0.00023854256 0.025220843
000110 3b 2c 9a 3d 44 2a 03 3e be 44 d7 bd 38 c9 41 bd
       0.075279675 0.12809092 -0.105111584 -0.047311038
000120 fa d1 4f 3d 9b 10 db 3d 3c 14 e6 3d 93 4a e9 3d
       0.05073736 0.106965266 0.11234328 0.11391177
000130 6e 79 d2 3c f4 e9 e5 bd 4f 94 42 3c 47 68 a5 bd
       0.025692668 -0.11226264 0.01187618 -0.0807653
000140 96 67 f6 bd df e9 ea 3d 2c 09 c9 3d fc de 03 be
       -0.12031476 0.114703886 0.098162025 -0.1287803
000150 2e f3 c5 3c 0f 29 b2 bc 7a 09 ae bc d0 0e 72 bd
       0.024163809 -0.021748094 -0.021244753 -0.059096158
000160 97 59 4b 3d 3c 9a 9c bd ae d9 41 3d 00 b5 85 3d
       0.049645986 -0.07646605 0.047326736 0.06528664
000170 f9 45 bd 3d f2 81 32 3d 1b 82 07 be 8b 1e b5 bd
       0.09241862 0.043580957 -0.13233225 -0.08843716
000180 2d 13 72 3d 7d 5a dd 3c 36 40 ce bd 82 3e 98 bd
       0.05910032 0.027020687 -0.10070841 -0.074337974
000190 e3 ba f8 3d 8f 27 b2 3d 9b c7 79 bd 5d 4d 18 bd
       0.12145021 0.086989515 -0.060981374 -0.037183154
0001a0 11 bc 02 be b6 12 18 bb 03 1b c7 bd 80 f1 cb bd
       -0.12767054 -0.0023204512 -0.09721949 -0.09958172
0001b0 ed 16 e9 bb 72 ca 9e 3c 5a 8e 58 bd 9a 47 93 3d
       -0.0071133287 0.019383643 -0.052870132 0.07191391
0001c0 7a 80 aa bd 4d 4c e6 3d b8 30 b5 3d d9 f5 de bd
       -0.08325286 0.11245022 0.08847183 -0.108867355
0001d0 9d 9b 03 bd 34 e2 be 3b 6e 4d 9a 3c d6 d4 fa 3c
       -0.032130826 0.0058253054 0.01883575 0.030619066
0001e0 3e 83 4f 3d c2 65 fd 3b 6c b1 57 bd d0 44 92 3d
       0.05066227 0.0077330777 -0.052659437 0.07142031
0001f0 2c 76 e8 bd 86 b5 9c bd 07 1b b4 bc 6a 93 76 bd
       -0.113506645 -0.0765181 -0.021985544 -0.06019918
000200 f9 db 13 bd 8f e9 6c bc 72 25 c9 bc ab 10 e2 3c
       -0.036098454 -0.014459982 -0.024553988 0.027595839
000210 a6 3e ac bd 0d 19 d9 bb 92 44 bd 3d 84 70 59 bc
       -0.08410387 -0.0066253007 0.092415944 -0.013271455
000220 f9 23 6b 3b 16 79 36 bc f7 08 d6 3c fa 1c a8 3d
       0.0035879596 -0.011137268 0.026127322 0.08208652
000230 a2 72 fa 3d f1 e7 a7 3d 54 05 fb 3d e5 f8 18 bc
       0.12228896 0.08198536 0.12256876 -0.009336685
000240 27 83 ed bd 1c b0 7a bd 44 07 b4 3d 64 62 5b ba
       -0.11597281 -0.061203107 0.08790448 -0.00083688484
000250 ba 6a 83 bd 09 9c ca bd 6b 6f f7 bd f1 26 df bd
       -0.06416841 -0.098930426 -0.12081798 -0.10896099
000260 42 84 d6 bc e2 27 a6 3d 4c 30 66 3d 05 d5 e9 bd
       -0.026186112 0.08113076 0.056198403 -0.114175834
000270 fc 69 ee 3d 61 e4 ce bd 77 95 df bc 11 69 56 bd
       0.11641309 -0.101021536 -0.02729295 -0.052346293
000280 e2 b4 cb bc 0d a6 cf bc 85 18 d8 bd 63 0f 9f bd
       -0.024866525 -0.025347734 -0.10551552 -0.07766607
000290 cf b3 21 bc 61 d4 da 3a 74 37 70 bd fd 31 47 3d
       -0.00986953 0.0016695374 -0.058646634 0.048631657
0002a0 b6 f8 ed bd 26 bf 0e bc c2 83 e8 3d 4f 85 1c bd
       -0.116197035 -0.0087125655 0.11353256 -0.03821307
0002b0 56 30 2b 3e 37 ac 7a 3d 54 9b ee bd 4d 48 a7 3d
       0.16717657 0.061199393 -0.1165072 0.08168087
0002c0 11 14 74 bc 5a 0e 6c bd c4 6c d3 3d 29 a8 d5 bd
       -0.014897362 -0.057630874 0.1032348 -0.10432465
0002d0 b9 f7 62 3c ba 6c dd bc 1b 7a a9 3d be e4 d9 3c
       0.013853007 -0.027029384 0.08275243 0.02659833
0002e0 a7 6c 57 3d 55 bf 3a 3d cc d2 25 bd 12 cd bf bc
       0.052593853 0.045592625 -0.040484235 -0.023413215
0002f0 39 f9 eb bd 45 b6 ad 3d 63 f9 9d 3d f5 e7 b4 3d
       -0.11522145 0.08482031 0.07713582 0.08833305
000300 bc 7f ba bd 1b ac bc 3b ab 61 ba bd ae 8b 91 bd
       -0.09106395 0.0057578213 -0.0910066 -0.0710672
000310 97 10 9a bd 39 b6 34 3d 8e 8e 9d bd 87 96 38 bb
       -0.075226955 0.044119094 -0.07693206 -0.0028165893
000320 4a f6 b1 3b 7f 6f aa 3d ab dc c7 bd c7 82 b5 bd
       0.0054309713 0.083220474 -0.09758886 -0.088628344
000330 3e 86 99 bd 32 0f b9 3d fc 14 3e bd c7 03 df 3d
       -0.07496308 0.090361014 -0.04640673 0.10889392
000340 06 37 3f 3d e0 ea 85 3c eb ec 7b ba 88 10 d1 bc
       0.046683334 0.016347349 -0.00096101937 -0.025520578
000350 e7 b0 84 3c c6 68 1f bd 85 ee 0a bc d8 75 e6 3b
       0.016197635 -0.03891828 -0.008479719 0.007033091
000360 bd 33 c7 bd fd 93 8a bd 61 7f d5 3d c6 91 d6 bd
       -0.09726665 -0.06766508 0.10424686 -0.10477023
000370 c8 e1 17 bc 74 c6 02 3e 4e 5b 18 3d 22 76 84 3c
       -0.009270139 0.12771016 0.03719645 0.016169611
000380 89 75 f8 bd cc f9 82 3d ee 52 bc bd de 1a 16 bd
       -0.12131793 0.06395301 -0.09195505 -0.036646716
000390 0a 6b 31 bd 59 9d 9c bc 1c 17 b9 3a db 8f 13 3e
       -0.04331497 -0.019117998 0.0014121267 0.14410345
0003a0 77 23 57 3c d8 ee 1c 3e ef bb a1 3d 95 27 a7 bd
       0.013131014 0.15325487 0.078971736 -0.081618465
0003b0 42 2a 6d 3d 77 e6 ba bd 74 1d 60 bd 8f 87 1b 3d
       0.05790163 -0.09125989 -0.05471559 0.037971076
0003c0 4b 9a 2e 3d 67 5b c6 3d a1 4b c5 bc b4 d9 90 3c
       0.042627614 0.09685402 -0.024083914 0.017681934
0003d0 09 e8 ab 3d ea b1 ff bd 3a f1 e2 3d 27 eb e2 bd
       0.083938666 -0.12485106 0.110811666 -0.11080008
0003e0 f0 9e 92 3c 19 03 da bc 62 bc 3f bc 24 c8 8b 3c
       0.017898053 -0.026612805 -0.011702629 0.017063208
0003f0 3c a2 da 3d 77 93 1a bd 5b f8 9c bd 4c 91 43 bd
       0.10675475 -0.03773829 -0.076645575 -0.047745988

critic.mlp.0.bias f4 [40]
000000 ea fa e4 3d 7f 0a 88 bb 97 da 89 bd 78 d0 84 3d
       0.111806706 -0.004151642 -0.06731146 0.06485075
000010 b4 45 1a bc b1 76 8f 3b 69 96 4b bd a5 51 e6 bd
       -0.009416033 0.004378163 -0.04970399 -0.11246041
000020 92 54 b6 bd 83 bd ab bc b3 47 8e bd 87 35 db 3d
       -0.08902849 -0.02096439 -0.06947269 0.10703569
000030 69 cb 45 3b 2a 70 4a bd 82 ee 74 3d 39 1c f1 bd
       0.0030181056 -0.049423374 0.05979777 -0.11772961
000040 fe 4b 90 bd 69 56 70 3d 29 7f f8 bd 0b b1 78 3d
       -0.07045744 0.058676157 -0.12133629 0.060715716
000050 6d 4f fd 3c d6 09 f2 bd 43 26 11 be 7a c0 8e 3c
       0.030921662 -0.11818282 -0.14174752 0.017425764
000060 5a aa 44 3d 04 54 a3 bc 22 94 ac bd 0e f7 89 bd
       0.048014022 -0.019937523 -0.084266916 -0.06736575
000070 47 37 07 3c 2a a8 b3 3c a0 d5 c5 3c 15 87 30 3c
       0.008252925 0.021930773 0.024149716 0.010774394
000080 b5 fc 81 3b ae c9 bf 3d 3a 9f 09 3e e0 c7 db 3d
       0.0039668926 0.09364639 0.13439646 0.107314825
000090 b8 3a c8 3d 10 9e 50 bd de 2c 52 bd a7 f0 69 bc
       0.09776825 -0.05093199 -0.05131232 -0.014278567

critic.mlp.2.weight f4 [1, 40]
000000 d3 08 4b 3d cd a2 75 3d 56 91 90 bd ca 7f e1 bd
       0.049568962 0.059969712 -0.07058971 -0.11010702
000010 d5 58 08 be 85 44 10 3e 08 31 1e bd 20 3b a2 bd
       -0.13315137 0.14088638 -0.03862098 -0.079214334
000020 44 05 32 be e4 87 ab bd 09 72 12 3d 3e 83 84 3d
       -0.17384821 -0.083755285 0.035753284 0.06470345
000030 be 65 a5 bd 54 60 6e bd 8e 0c f1 3d 47 54 80 bd
       -0.080760464 -0.058197334 0.11769973 -0.06266075
000040 dc 46 fc bd ab d4 a6 bc a0 d5 09 3e 00 21 1d 3d
       -0.12318203 -0.02036508 0.13460398 0.03836155
000050 45 a2 7a 3c b4 e9 8f bc e6 45 d8 3d f7 ea 84 bd
       0.015297477 -0.017567493 0.10560207 -0.064901285
000060 02 53 9e 3d 54 d1 07 3d d1 37 d5 3d 54 1a 4d 3c
       0.07730676 0.033158615 0.10411037 0.012518484
000070 ed 80 d0 bd 8a 08 bf 3d a9 da 9b 3d b4 ff bb bd
       -0.10180841 0.093278006 0.076100655 -0.09179631
000080 7a 41 13 be dd aa c9 3d dd ba e3 3d 02 7d 05 be
       -0.14380446 0.09847043 0.11119626 -0.13035968
000090 15 cf 13 3e 39 31 9a bd 8a 95 13 be 73 71 8e 3d
       0.14434464 -0.0752892 -0.14412513 0.069552325
