evaluate_results/agent_logic_paper/checkpoints/step_40001.pth (torch, 12922 bytes, 4 tensors)

actor.im.W f4 [5, 5]
00000000: 18ff e93f dc54 95be 83b6 0dbf dba2 16bf
00000010: 1845 01c0 9f7e fe3f 6607 40bf c1ca 1cbf
00000020: b6f3 20bf 1bc6 0dc0 fc68 013f 16bd 863f
00000030: f454 693f 1760 6f3e 420d c83f d18a d0be
00000040: a76b 153f 4965 e33e 729c 4b3f 32eb 4d3f
00000050: 8c2f 3040 f779 c3be 95fd 20bc d652 6d3f
00000060: 70e0 813f
1.8280973 -0.29166305 -0.55356616 -0.5884225 -2.0198421 1.9882392 -0.7501129 -0.6124688
-0.62871873 -2.2152164 0.5055082 1.0526454 0.91145253 0.23376499 1.5629046 -0.4073091
0.5836739 0.44413212 0.7953559 0.80437005 2.752902 -0.3817899 -0.009826084 0.9270452
1.0146618

critic.mlp.0.weight f4 [40, 60]
00000000: b15f 7dba 57d5 8d3d f247 e5bd 2540 cebd
00000010: 5902 63bd 9ecc 0d3d 9e47 07bc b7bc cc3d
00000020: 8ac0 75bc 342c cb3d e4b9 cbbb 57e2 cfbc
00000030: 0a97 fcbd c21a afbd e1fa 59bd e1b4 9c3b
00000040: c10c 513d b7a4 9e3d a33e b3bd db44 66bd
00000050: e910 403d 0c8d db3d 94a6 d9bc b3d9 c53d
00000060: f876 aabc 77d0 5f3c 6b67 ef3d a345 f5bd
00000070: 7572 a6bd 20df 05bd 721f 4ebd 2570 e43d
00000080: 3a60 abbd a261 85bd 5727 b6bd a9a5 01be
00000090: 7852 0ebe 2446 e33d d7f4 6b3d 3425 803d
000000a0: cd7a de3b 228d 87bd a33d 843c 8841 09be
000000b0: 04b7 cabd cc4d 88bd 37d1 a63d 5205 9b3d
000000c0: 2e84 6abd f3a3 98bb da18 a93d 2ef3 ee3d
000000d0: e822 4c3d 332d bd3b 1046 b13d 42ad 9bbd
000000e0: ff12 c53c c7fc ccbd bc3f b7bd 1c95 88bd
000000f0: 8a43 6f3d b0a8 543d e238 a6bd e889 0c3d
00000100: ff89 873d 3c7c 85bc 4821 7a39 f19b ce3c
00000110: 3b2c 9a3d 442a 033e be44 d7bd 38c9 41bd
00000120: fad1 4f3d 9b10 db3d 3c14 e63d 934a e93d
00000130: 6e79 d23c f4e9 e5bd 4f94 423c 4768 a5bd
00000140: 9667 f6bd dfe9 ea3d 2c09 c93d fcde 03be
00000150: 2ef3 c53c 0f29 b2bc 7a09 aebc d00e 72bd
00000160: 9759 4b3d 3c9a 9cbd aed9 413d 00b5 853d
00000170: f945 bd3d f281 323d 1b82 07be 8b1e b5bd
00000180: 2d13 723d 7d5a dd3c 3640 cebd 823e 98bd
00000190: e3ba f83d 8f27 b23d 9bc7 79bd 5d4d 18bd
000001a0: 11bc 02be b612 18bb 031b c7bd 80f1 cbbd
000001b0: ed16 e9bb 72ca 9e3c 5a8e 58bd 9a47 933d
000001c0: 7a80 aabd 4d4c e63d b830 b53d d9f5 debd
000001d0: 9d9b 03bd 34e2 be3b 6e4d 9a3c d6d4 fa3c
000001e0: 3e83 4f3d c265 fd3b 7782 72bd 4edc 843d
000001f0: b0de f5bd 86b5 9cbd 17bd e9bc 95d9 87bd
00000200: f357 30bd 1303 26bd a4bb 7abc ab10 e23c
00000210: a63e acbd 0d19 d9bb 9244 bd3d 8470 59bc
00000220: f923 6b3b 1679 36bc f708 d63c fa1c a83d
00000230: a272 fa3d f1e7 a73d 5405 fb3d e5f8 18bc
00000240: 2783 edbd 1cb0 7abd 4407 b43d 6462 5bba
00000250: ba6a 83bd 099c cabd 6b6f f7bd f126 dfbd
00000260: 4284 d6bc 5ebf 983d 8e5c 5c3d 893d f7bd
00000270: 1130 f03d 61e4 cebd 7795 dfbc 1169 56bd
00000280: e2b4 cbbc 0da6 cfbc 0981 e5bd 703e babd
00000290: fc7b 86bc 61d4 da3a 7437 70bd fd31 473d
000002a0: b6f8 edbd 26bf 0ebc c283 e83d 3a7a 39bd
000002b0: 32ff 153e 4cb7 5d3d 549b eebd 4d48 a73d
000002c0: 1114 74bc 5a0e 6cbd c46c d33d 29a8 d5bd
000002d0: b9f7 623c ba6c ddbc db80 a43d adff c53c
000002e0: 197a 4d3d 55bf 3a3d 59c5 2fbd e87f b5bc
000002f0: 9223 f2bd 01ec ba3d 05f8 853d f5e7 b43d
00000300: bc7f babd 1bac bc3b ab61 babd ae8b 91bd
00000310: 9710 9abd 39b6 343d 8e8e 9dbd 8796 38bb
00000320: 4af6 b13b 7f6f aa3d abdc c7bd c782 b5bd
00000330: 3e86 99bd 320f b93d fc14 3ebd c703 df3d
00000340: 0637 3f3d e0ea 853c ebec 7bba 8810 d1bc
00000350: e7b0 843c 545b 29bd d393 62bc 97e1 963b
00000360: b6ff 97bd fd93 8abd 617f d53d c691 d6bd
00000370: c8e1 17bc 74c6 023e c068 0e3d 3fd9 3c3c
00000380: ce6e fdbd ccf9 823d ee52 bcbd de1a 16bd
00000390: 0a6b 31bd 599d 9cbc 1c17 b93a 87f8 143e
000003a0: 61ea 7d3c 8457 1e3e efbb a13d 9527 a7bd
000003b0: 422a 6d3d 77e6 babd 741d 60bd 8f87 1b3d
000003c0: 4b9a 2e3d 675b c63d 8b8c b9bc c698 9c3c
000003d0: ccd7 ae3d eab1 ffbd fce0 e53d 30bd c7bd
000003e0: 50e3 a13c 7b31 ddbc efb9 0bbd 24c8 8b3c
000003f0: 3ca2 da3d 7793 1abd 5bf8 9cbd 4c91 43bd
-0.0009665443 0.06925457 -0.11195363 -0.10070828 -0.05542216 0.034618966 -0.008256821 0.09996932
-0.014999518 0.099205405 -0.0062172282 -0.025376482 -0.12333496 -0.085500255 -0.053217772 0.0047823046
0.051037554 0.077462606 -0.087521814 -0.05621801 0.046891127 0.10720262 -0.026568688 0.096606635
-0.020808682 0.013660542 0.11689647 -0.11976173 -0.081273 -0.03268349 -0.050322957 0.11154202
-0.08367963 -0.065127626 -0.08894222 -0.1266085 -0.13898647 0.11097363 0.057606544 0.06257096
0.0067895413 -0.06618716 0.016142672 -0.13403904 -0.09898189 -0.066554636 0.08145373 0.07569374
-0.057254963 -0.004658216 0.08256693 0.116674766 0.049837977 0.0057732104 0.086559415 -0.07601406
0.02405691 -0.10009151 -0.08947703 -0.06669065 0.05841402 0.051918685 -0.08116318 0.034311205
0.066181175 -0.016294591 0.00023854256 0.025220843 0.075279675 0.12809092 -0.105111584 -0.047311038
0.05073736 0.106965266 0.11234328 0.11391177 0.025692668 -0.11226264 0.01187618 -0.0807653
-0.12031476 0.114703886 0.098162025 -0.1287803 0.024163809 -0.021748094 -0.021244753 -0.059096158
0.049645986 -0.07646605 0.047326736 0.06528664 0.09241862 0.043580957 -0.13233225 -0.08843716
0.05910032 0.027020687 -0.10070841 -0.074337974 0.12145021 0.086989515 -0.060981374 -0.037183154
-0.12767054 -0.0023204512 -0.09721949 -0.09958172 -0.0071133287 0.019383643 -0.052870132 0.07191391
-0.08325286 0.11245022 0.08847183 -0.108867355 -0.032130826 0.0058253054 0.01883575 0.030619066
0.05066227 0.0077330777 -0.059206452 0.06487332 -0.12005365 -0.0765181 -0.028532548 -0.06633297
-0.043052625 -0.040530276 -0.015303526 0.027595839 -0.08410387 -0.0066253007 0.092415944 -0.013271455
0.0035879596 -0.011137268 0.026127322 0.08208652 0.12228896 0.08198536 0.12256876 -0.009336685
-0.11597281 -0.061203107 0.08790448 -0.00083688484 -0.06416841 -0.098930426 -0.12081798 -0.10896099
-0.026186112 0.074583754 0.053799205 -0.12072284 0.11727918 -0.101021536 -0.02729295 -0.052346293
-0.024866525 -0.025347734 -0.11206252 -0.0909394 -0.016416542 0.0016695374 -0.058646634 0.048631657
-0.116197035 -0.0087125655 0.11353256 -0.04528258 0.1464813 0.054129884 -0.1165072 0.08168087
-0.014897362 -0.057630874 0.1032348 -0.10432465 0.013853007 -0.027029384 0.0803239 0.024169767
0.05016527 0.045592625 -0.042912815 -0.022155717 -0.11823191 0.091270454 0.065414466 0.08833305
-0.09106395 0.0057578213 -0.0910066 -0.0710672 -0.075226955 0.044119094 -0.07693206 -0.0028165893
0.0054309713 0.083220474 -0.09758886 -0.088628344 -0.07496308 0.090361014 -0.04640673 0.10889392
0.046683334 0.016347349 -0.00096101937 -0.025520578 0.016197635 -0.041346863 -0.013829189 0.004604529
-0.0742182 -0.06766508 0.10424686 -0.10477023 -0.009270139 0.12771016 0.034767866 0.011526405
-0.1237465 0.06395301 -0.09195505 -0.036646716 -0.04331497 -0.019117998 0.0014121267 0.1454793
0.015497775 0.15463072 0.078971736 -0.081618465 0.05790163 -0.09125989 -0.05471559 0.037971076
0.042627614 0.09685402 -0.022650024 0.019115817 0.08537254 -0.12485106 0.11224553 -0.097528815
0.019761711 -0.027001133 -0.034112867 0.017063208 0.10675475 -0.03773829 -0.076645575 -0.047745988

critic.mlp.0.bias f4 [40]
00000000: 47d1 f33d 7f0a 88bb 1c43 97bd 65ae 7f3d
00000010: 89c7 02bc 81f6 bd3a 9c83 58bd 5ce4 a9bd
00000020: 308a b0bd 83bd abbc 411d 94bd 3bbf f63d
00000030: fe84 853b 2a70 4abd 86f8 803d 76ea f6bd
00000040: 639b 8ebd 9c32 6a3d 93f4 fdbd 085e 863d
00000050: 674f ec3c cd3f f6bd 819c 0dbe 3717 8c3c
00000060: ee3f 643d 3ae9 87bc a553 a3bd 5653 86bd
00000070: 256a 123c cda1 c13b ad2c cd3c b027 563c
00000080: f088 8bb9 ffe7 dc3d 1a2e 0d3e eb13 023e
00000090: 2c40 cd3d 114f 51bd 63ff 68bd a7f0 69bc
0.11905151 -0.004151642 -0.07385847 0.062422175 -0.007982143 0.001449302 -0.052859887 -0.08295509
-0.08620107 -0.02096439 -0.07232142 0.12048193 0.004074692 -0.049423374 0.06297402 -0.120564386
-0.069632314 0.05717717 -0.124001645 0.06560904 0.028846456 -0.12023888 -0.13829233 0.017100913
0.05572503 -0.016590703 -0.07974938 -0.06558864 0.00893644 0.0059091807 0.025045717 0.013070986
-0.00026614172 0.10786437 0.13787118 0.1270291 0.100220054 -0.051100794 -0.05688418 -0.014278567

critic.mlp.2.weight f4 [1, 40]
00000000: 33d2 573d cda2 753d 6f24 3ebd b682 e2bd
00000010: 19b6 01be 93a7 0f3e a503 0dbd e8f0 84bd
00000020: 5803 14be e487 abbd a6d8 193d 38d4 7f3d
00000030: 92bf 95bd 5460 6ebd ccd0 ed3d 69bb 6bbd
00000040: 86af dbbd b670 cebc 1983 073e c645 203d
00000050: f7b4 953c d3d7 a7bc c957 da3d 3583 71bd
00000060: 57a8 a93d d57b fd3c f169 ed3d d0f7 5b3c
00000070: 4255 d6bd a953 bb3d def4 9b3d 2866 c1bd
00000080: 4a58 18be 2cfb e93d ae92 e53d 227d ebbd
00000090: 17b7 143e 93b5 94bd 6276 0cbe 7371 8e3d
0.052690696 0.059969712 -0.046421465 -0.110600874 -0.12667121 0.14028768 -0.034427304 -0.06491262
-0.144544 -0.083755285 0.037560128 0.062458247 -0.0731193 -0.058197334 0.116120905 -0.057551775
-0.10726838 -0.02520023 0.13233604 0.03912904 0.018274767 -0.020488655 0.10661275 -0.05896302
0.082840614 0.030942837 0.11592472 0.013425782 -0.104654804 0.09146816 0.07615064 -0.09443313
-0.1487743 0.1142486 0.112096176 -0.114984766 0.14522968 -0.07261195 -0.13717034 0.069552325
