evaluate_results/agent_logic_paper/checkpoints/step_14001.pth (torch, 12922 bytes, 4 tensors)

actor.im.W f4 [5, 5]
0	0x3fb204ef	1.3907756
1	0x3db32a6f	0.08748328
2	0xbdcbc7e6	-0.09950237
3	0xbe3c525b	-0.18390791
4	0xbfd275d3	-1.6442207
5	0x3fe20a93	1.7659477
6	0xbf077573	-0.5291359
7	0xbec375e2	-0.38175875
8	0xbed48f51	-0.41515592
9	0xc000086e	-2.0005145
10	0x3e23d488	0.15999043
11	0x3f9a5cf5	1.2059618
12	0x3f85ffd1	1.0468694
13	0xbde4501b	-0.111480914
14	0x3fb73599	1.4313232
15	0xbf8c0d40	-1.0941544
16	0x3f20e96b	0.6285617
17	0x3dfbe1aa	0.122989014
18	0x3f97ff8c	1.1874862
19	0x3df28961	0.11842609
20	0x4011b351	2.2765696
21	0x3ba6d3b4	0.005091155
22	0x3ee771e1	0.4520407
23	0x3faec630	1.3654232
24	0x3fb47611	1.4098531

critic.mlp.0.weight f4 [40, 60]
0	0xba7d5fb1	-0.0009665443
1	0x3d8dd557	0.06925457
2	0xbdd41263	-0.103550695
3	0xbdbd0a95	-0.09230534
4	0xbd409749	-0.047019277
5	0x3d0dcc9e	0.034618966
6	0x391926eb	0.00014605715
7	0x3de2dbac	0.11077055
8	0xbbf420f0	-0.0074502155
9	0x3d1878a1	0.037224416
10	0x3c43e07d	0.011955378
11	0xbccfe257	-0.025376482
12	0xbdfc970a	-0.12333496
13	0xbdaf1ac2	-0.085500255
14	0xbd59fae1	-0.053217772
15	0x3b9cb4e1	0.0047823046
16	0x3d510cc1	0.051037554
17	0x3d9ea4b7	0.077462606
18	0xbdb33ea3	-0.087521814
19	0xbd6644db	-0.05621801
20	0x3d4010e9	0.046891127
21	0x3ddb8d0c	0.10720262
22	0xbcd9a694	-0.026568688
23	0x3dc5d9b3	0.096606635
24	0xbcaa76f8	-0.020808682
25	0x3c5fd077	0.013660542
26	0x3def676b	0.11689647
27	0xbdf545a3	-0.11976173
28	0xbda67275	-0.081273
29	0xbd05df20	-0.03268349
30	0xbd4e1f72	-0.050322957
31	0x3de47025	0.11154202
32	0xbdab603a	-0.08367963
33	0xbd68583d	-0.056724776
34	0xbdbb3f4e	-0.09142934
35	0xbdf215be	-0.11820553
36	0xbdf290fc	-0.1184406
37	0x3de34624	0.11097363
38	0x3d6bf4d7	0.057606544
39	0x3d802534	0.06257096
40	0x3bde7acd	0.0067895413
41	0xbd878d22	-0.06618716
42	0x3cc913c9	0.024545567
43	0xbdf7fcc0	-0.12108755
44	0xbdb98172	-0.09057893
45	0xbd884dcc	-0.066554636
46	0x3da6d137	0.08145373
47	0x3d9b0552	0.07569374
48	0xbd6a842e	-0.057254963
49	0xbb98a3f3	-0.004658216
50	0x3da918da	0.08256693
51	0x3e02658e	0.12734053
52	0x3d4158f9	0.04720399
53	0x3c86ab05	0.01643897
54	0x3db14610	0.086559415
55	0xbd9bad42	-0.07601406
56	0x3cc512ff	0.02405691
57	0xbdccfcc7	-0.10009151
58	0xbdb73fbc	-0.08947703
59	0xbd88951c	-0.06669065
60	0x3d6f438a	0.05841402
61	0x3d54a8b0	0.051918685
62	0xbda638e2	-0.08116318
63	0x3d0c89e8	0.034311205
64	0x3d8789ff	0.066181175
65	0xbc857c3c	-0.016294591
66	0x397a2148	0.00023854256
67	0x3cce9bf1	0.025220843
68	0x3d9a2c3b	0.075279675
69	0x3e032a44	0.12809092
70	0xbdd744be	-0.105111584
71	0xbd41c938	-0.047311038
72	0x3d4fd1fa	0.05073736
73	0x3ddb109b	0.106965266
74	0x3de6143c	0.11234328
75	0x3de94a93	0.11391177
76	0x3cd2796e	0.025692668
77	0xbde5e9f4	-0.11226264
78	0x3c42944f	0.01187618
79	0xbda56847	-0.0807653
80	0xbdf66796	-0.12031476
81	0x3deae9df	0.114703886
82	0x3dc9092c	0.098162025
83	0xbe03defc	-0.1287803
84	0x3cc5f32e	0.024163809
85	0xbcb2290f	-0.021748094
86	0xbcae097a	-0.021244753
87	0xbd720ed0	-0.059096158
88	0x3d4b5997	0.049645986
89	0xbd9c9a3c	-0.07646605
90	0x3d41d9ae	0.047326736
91	0x3d85b500	0.06528664
92	0x3dbd45f9	0.09241862
93	0x3d3281f2	0.043580957
94	0xbe07821b	-0.13233225
95	0xbdb51e8b	-0.08843716
96	0x3d72132d	0.05910032
97	0x3cdd5a7d	0.027020687
98	0xbdce4036	-0.10070841
99	0xbd983e82	-0.074337974
100	0x3df8bae3	0.12145021
101	0x3db2278f	0.086989515
102	0xbd79c79b	-0.060981374
103	0xbd184d5d	-0.037183154
104	0xbe02bc11	-0.12767054
105	0xbb1812b6	-0.0023204512
106	0xbdc71b03	-0.09721949
107	0xbdcbf180	-0.09958172
108	0xbbe916ed	-0.0071133287
109	0x3c9eca72	0.019383643
110	0xbd588e5a	-0.052870132
111	0x3d93479a	0.07191391
112	0xbdaa807a	-0.08325286
113	0x3de64c4d	0.11245022
114	0x3db530b8	0.08847183
115	0xbddef5d9	-0.108867355
116	0xbd039b9d	-0.032130826
117	0x3bbee234	0.0058253054
118	0x3c9a4d6e	0.01883575
119	0x3cfad4d6	0.030619066
120	0x3d4f833e	0.05066227
121	0x3bfd65c2	0.0077330777
122	0xbd801765	-0.06254462
123	0x3d7c0c48	0.06153515
124	0xbdfcb4d8	-0.12339181
125	0xbd9cb586	-0.0765181
126	0xbd028ae1	-0.031870726
127	0xbd5b1aa0	-0.05349219
128	0xbd39220b	-0.04519848
129	0xbdc9302e	-0.09823643
130	0xbd8a55e8	-0.067546666
131	0x3ce210ab	0.027595839
132	0xbdac3ea6	-0.08410387
133	0xbbd9190d	-0.0066253007
134	0x3dbd4492	0.092415944
135	0xbc597084	-0.013271455
136	0x3b6b23f9	0.0035879596
137	0xbc367916	-0.011137268
138	0x3cd608f7	0.026127322
139	0x3da81cfa	0.08208652
140	0x3dfa72a2	0.12228896
141	0x3da7e7f1	0.08198536
142	0x3dfb0554	0.12256876
143	0xbc18f8e5	-0.009336685
144	0xbded8327	-0.11597281
145	0xbd7ab01c	-0.061203107
146	0x3db40744	0.08790448
147	0xba5b6264	-0.00083688484
148	0xbd836aba	-0.06416841
149	0xbdca9c09	-0.098930426
150	0xbdf76f6b	-0.12081798
151	0xbddf26f1	-0.10896099
152	0xbcd68442	-0.026186112
153	0x3d91e932	0.071245566
154	0x3d846454	0.064644486
155	0xbdfe13ad	-0.124060966
156	0x3da9a902	0.08284189
157	0xbdcee461	-0.101021536
158	0xbcdf9577	-0.02729295
159	0xbd566911	-0.052346293
160	0xbccbb4e2	-0.024866525
161	0xbccfa60d	-0.025347734
162	0xbdec5734	-0.1154007
163	0xbde27c58	-0.11058873
164	0xbca1d4a6	-0.019754719
165	0x3adad461	0.0016695374
166	0xbd703774	-0.058646634
167	0x3d4731fd	0.048631657
168	0xbdedf8b6	-0.116197035
169	0xbc0ebf26	-0.0087125655
170	0x3de883c2	0.11353256
171	0xbd55dc25	-0.0522119
172	0x3dfaed80	0.12252331
173	0x3d415566	0.047200583
174	0xbdee9b54	-0.1165072
175	0x3da7484d	0.08168087
176	0xbc741411	-0.014897362
177	0xbd6c0e5a	-0.057630874
178	0x3dd36cc4	0.1032348
179	0xbdd5a829	-0.10432465
180	0x3c62f7b9	0.013853007
181	0xbcdd6cba	-0.027029384
182	0x3daf1545	0.08548979
183	0x3cf05152	0.029335652
184	0x3d62a2f5	0.05533119
185	0x3d3abf55	0.045592625
186	0xbd1a9c82	-0.037746914
187	0xbcdae20b	-0.026719114
188	0xbde67f31	-0.112547286
189	0x3d8cbd8f	0.06872093
190	0x3d6a6ce3	0.05723275
191	0x3db4e7f5	0.08833305
192	0xbdba7fbc	-0.09106395
193	0x3bbcac1b	0.0057578213
194	0xbdba61ab	-0.0910066
195	0xbd918bae	-0.0710672
196	0xbd9a1097	-0.075226955
197	0x3d34b639	0.044119094
198	0xbd9d8e8e	-0.07693206
199	0xbb389687	-0.0028165893
200	0x3bb1f64a	0.0054309713
201	0x3daa6f7f	0.083220474
202	0xbdc7dcab	-0.09758886
203	0xbdb582c7	-0.088628344
204	0xbd99863e	-0.07496308
205	0x3db90f32	0.090361014
206	0xbd3e14fc	-0.04640673
207	0x3ddf03c7	0.10889392
208	0x3d3f3706	0.046683334
209	0x3c85eae0	0.016347349
210	0xba7beceb	-0.00096101937
211	0xbcd11088	-0.025520578
212	0x3c84b0e7	0.016197635
213	0xbd143278	-0.036180943
214	0xbb4b1e59	-0.003099343
215	0x3c201426	0.009770429
216	0xbd7e9e95	-0.062162954
217	0xbd8a93fd	-0.06766508
218	0x3dd57f61	0.10424686
219	0xbdd691c6	-0.10477023
220	0xbc17e1c8	-0.009270139
221	0x3e02c674	0.12771016
222	0x3d239193	0.039933752
223	0x3c0d6cf5	0.008631934
224	0xbdf2da66	-0.118580624
225	0x3d82f9cc	0.06395301
226	0xbdbc52ee	-0.09195505
227	0xbd161ade	-0.036646716
228	0xbd316b0a	-0.04331497
229	0xbc9c9d59	-0.019117998
230	0x3ab9171c	0.0014121267
231	0x3de1ca3d	0.11024902
232	0x3c7f9084	0.01559842
233	0x3df4881f	0.119400255
234	0x3da1bbef	0.078971736
235	0xbda72795	-0.081618465
236	0x3d6d2a42	0.05790163
237	0xbdbae677	-0.09125989
238	0xbd601d74	-0.05471559
239	0x3d1b878f	0.037971076
240	0x3d2e9a4b	0.042627614
241	0x3dc65b67	0.09685402
242	0xbd0469ff	-0.03232765
243	0x3c1aa2a1	0.009438188
244	0x3d9b05fc	0.07569501
245	0xbdffb1ea	-0.12485106
246	0x3dd20f29	0.10256798
247	0xbdb5f313	-0.08884253
248	0x3c2d1701	0.010564567
249	0xbd25c1f0	-0.040468156
250	0xbdb736d9	-0.08946008
251	0x3c8bc824	0.017063208
252	0x3ddaa23c	0.10675475
253	0xbd1a9377	-0.03773829
254	0xbd9cf85b	-0.076645575
255	0xbd43914c	-0.047745988

critic.mlp.0.bias f4 [40]
0	0x3e02836a	0.12745443
1	0xbb880a7f	-0.004151642
2	0xbd9e1944	-0.07719663
3	0x3d8a6b9f	0.06758808
4	0xbc90ab42	-0.017659787
5	0x3c29dee9	0.010368087
6	0xbd80cd8f	-0.06289207
7	0xbdd8aee6	-0.10580234
8	0xbdc3e405	-0.09564976
9	0xbcabbd6c	-0.020964347
10	0xbda9d96d	-0.08293424
11	0x3e00d2de	0.1258044
12	0x3b3473b2	0.002753478
13	0xbd4a702a	-0.049423374
14	0x3d68cb78	0.056834668
15	0xbdee3a54	-0.11632219
16	0xbd93b9b4	-0.072131544
17	0x3d32d704	0.043662086
18	0xbddb90fb	-0.10721012
19	0x3da65854	0.08122316
20	0x3cadaad9	0.02119963
21	0xbdeaecce	-0.11470948
22	0xbe0a8437	-0.13526998
23	0x3d02d307	0.031939533
24	0x3d68460a	0.05670742
25	0xbcac4b60	-0.021032035
26	0xbdbb614a	-0.09149416
27	0xbd89dde8	-0.067317784
28	0x3bd4a954	0.006489912
29	0x3c1b8ebc	0.00949448
30	0x3cda9352	0.026681576
31	0x3c949306	0.018136512
32	0xbc60244a	-0.013680527
33	0x3d47cbd9	0.04877839
34	0x3e061d8f	0.13097213
35	0x3de424d8	0.1113984
36	0x3de654ab	0.11246618
37	0xbd3aa6cc	-0.045569226
38	0xbd2f1fa7	-0.042754795
39	0xbc69f0a7	-0.014278567

critic.mlp.2.weight f4 [1, 40]
0	0x3d765fc9	0.06014994
1	0x3d75a2cd	0.059969712
2	0xbcb5ef2a	-0.022208769
3	0xbdc89144	-0.09793332
4	0xbdfc2e7e	-0.12313555
5	0x3e15f280	0.14643288
6	0xbd2a9b91	-0.041652266
7	0xbd0b7792	-0.034049578
8	0xbdc5dd4a	-0.09661348
9	0xbdab87e5	-0.08375529
10	0x3d0dd9e8	0.03463164
11	0x3d7637f7	0.060111966
12	0xbd87e8f8	-0.06636232
13	0xbd6e6054	-0.058197334
14	0x3dfa66eb	0.12226661
15	0xbd9a8623	-0.07545116
16	0xbde18513	-0.1101171
17	0xbcebc950	-0.028782517
18	0x3e17bda3	0.14818434
19	0x3d576650	0.052587807
20	0x3cc66696	0.024218839
21	0xbca90fbe	-0.02063739
22	0x3dbb8387	0.09155946
23	0xbd8da46a	-0.06916125
24	0x3db9098c	0.09035024
25	0x3d0e15a3	0.034688603
26	0x3d9429c0	0.07234526
27	0x3c86cb3f	0.016454337
28	0xbdc9e80f	-0.09858715
29	0x3ded95db	0.11600848
30	0x3d9c9622	0.07645823
31	0xbde1bea3	-0.11022689
32	0xbe1beeb6	-0.1522778
33	0xbc15220c	-0.009102356
34	0x3dd5cacf	0.10439073
35	0xbdc11d34	-0.09429398
36	0x3e10d134	0.14142305
37	0xbd93150f	-0.07181751
38	0xbe10a877	-0.14126764
39	0x3d8e7173	0.069552325
