evaluate_results/agent_logic_paper/checkpoints/step_636001.pth (torch, 12933 bytes, 4 tensors)

actor.im.W f4 [5, 5]
000000 d7 85 f3 3e b7 a3 a3 3d 4c 63 e3 3e 5c bd b6 3e
       0.4756305 0.079902105 0.44411695 0.35691345
000010 4e 1c 2c bf 6f 42 cc 3e 2c 4d af 3b a7 84 bb 3e
       -0.6723069 0.39894435 0.005349776 0.36624643
000020 28 7a 8f 3e 6b c2 69 bf e8 cf 91 3f 9e 37 71 3f
       0.28022885 -0.91312283 1.1391573 0.9422549
000030 8b e6 7d 3f 34 85 80 3f 02 51 aa 3f 3b 5e 49 3e
       0.99179906 1.004065 1.3305972 0.19664852
000040 a0 69 e1 3e 6a a4 25 3f dc 97 38 3f d1 f4 56 3f
       0.44025898 0.64704 0.7210672 0.8396731
000050 b2 f9 d5 3f 08 e1 2a 3f 7b a3 cf 3f e4 7c c4 3f
       1.6716826 0.6674962 1.6221765 1.5350614
000060 7b 8e d4 3f
       1.6605982

critic.mlp.0.weight f4 [40, 60]
000000 b1 5f 7d ba 57 d5 8d 3d 2d ee b7 bd 8b e6 a0 bd
       -0.0009665443 0.06925457 -0.08980975 -0.078564726
000010 a4 4e 08 bd 9e cc 0d 3d 9e 85 63 3c 4b d4 f5 3d
       -0.033278123 0.034618966 0.013886837 0.12003382
000020 c2 80 9e bd a6 dc c7 3d 86 d7 99 bd 57 e2 cf bc
       -0.07739402 0.09758882 -0.07511811 -0.025376482
000030 0a 97 fc bd c2 1a af bd e1 fa 59 bd e1 b4 9c 3b
       -0.12333496 -0.085500255 -0.053217772 0.0047823046
000040 c1 0c 51 3d b7 a4 9e 3d a3 3e b3 bd db 44 66 bd
       0.051037554 0.077462606 -0.087521814 -0.05621801
000050 e9 10 40 3d 0c 8d db 3d 94 a6 d9 bc b3 d9 c5 3d
       0.046891127 0.10720262 -0.026568688 0.096606635
000060 f8 76 aa bc 77 d0 5f 3c 6b 67 ef 3d a3 45 f5 bd
       -0.020808682 0.013660542 0.11689647 -0.11976173
000070 75 72 a6 bd 20 df 05 bd 72 1f 4e bd 25 70 e4 3d
       -0.081273 -0.03268349 -0.050322957 0.11154202
000080 3a 60 ab bd 8e 0f 30 bd f8 05 73 bd 89 f1 d5 bd
       -0.08367963 -0.042983584 -0.059331864 -0.1044646
000090 bf a7 c5 be 24 46 e3 3d d7 f4 6b 3d 34 25 80 3d
       -0.38604543 0.11097363 0.057606544 0.06257096
0000a0 cd 7a de 3b 22 8d 87 bd 5a d2 1c 3d 07 72 21 be
       0.0067895413 -0.06618716 0.038286544 -0.15766154
0000b0 47 5d 9d bd cc 4d 88 bd 37 d1 a6 3d 52 05 9b 3d
       -0.07683807 -0.066554636 0.08145373 0.07569374
0000c0 2e 84 6a bd f3 a3 98 bb da 18 a9 3d 51 f4 bc 3e
       -0.057254963 -0.004658216 0.08256693 0.3690515
0000d0 18 31 84 3d 19 2c 84 3e 10 46 b1 3d 42 ad 9b bd
       0.064546764 0.25814894 0.086559415 -0.07601406
0000e0 ff 12 c5 3c c7 fc cc bd bc 3f b7 bd 1c 95 88 bd
       0.02405691 -0.10009151 -0.08947703 -0.06669065
0000f0 8a 43 6f 3d b0 a8 54 3d e2 38 a6 bd e8 89 0c 3d
       0.05841402 0.051918685 -0.08116318 0.034311205
000100 ff 89 87 3d 3c 7c 85 bc 48 21 7a 39 f1 9b ce 3c
       0.066181175 -0.016294591 0.00023854256 0.025220843
000110 3b 2c 9a 3d 44 2a 03 3e be 44 d7 bd 38 c9 41 bd
       0.075279675 0.12809092 -0.105111584 -0.047311038
000120 fa d1 4f 3d 9b 10 db 3d 3c 14 e6 3d 93 4a e9 3d
       0.05073736 0.106965266 0.11234328 0.11391177
000130 6e 79 d2 3c f4 e9 e5 bd 4f 94 42 3c 47 68 a5 bd
       0.025692668 -0.11226264 0.01187618 -0.0807653
000140 96 67 f6 bd df e9 ea 3d 2c 09 c9 3d fc de 03 be
       -0.12031476 0.114703886 0.098162025 -0.1287803
000150 2e f3 c5 3c 0f 29 b2 bc 7a 09 ae bc d0 0e 72 bd
       0.024163809 -0.021748094 -0.021244753 -0.059096158
000160 97 59 4b 3d 3c 9a 9c bd ae d9 41 3d 00 b5 85 3d
       0.049645986 -0.07646605 0.047326736 0.06528664
000170 f9 45 bd 3d f2 81 32 3d 1b 82 07 be 8b 1e b5 bd
       0.09241862 0.043580957 -0.13233225 -0.08843716
000180 2d 13 72 3d 7d 5a dd 3c 36 40 ce bd 82 3e 98 bd
       0.05910032 0.027020687 -0.10070841 -0.074337974
000190 e3 ba f8 3d 8f 27 b2 3d 9b c7 79 bd 5d 4d 18 bd
       0.12145021 0.086989515 -0.060981374 -0.037183154
0001a0 11 bc 02 be b6 12 18 bb 03 1b c7 bd 80 f1 cb bd
       -0.12767054 -0.0023204512 -0.09721949 -0.09958172
0001b0 ed 16 e9 bb 72 ca 9e 3c 5a 8e 58 bd 9a 47 93 3d
       -0.0071133287 0.019383643 -0.052870132 0.07191391
0001c0 7a 80 aa bd 4d 4c e6 3d b8 30 b5 3d d9 f5 de bd
       -0.08325286 0.11245022 0.08847183 -0.108867355
0001d0 9d 9b 03 bd 34 e2 be 3b 6e 4d 9a 3c d6 d4 fa 3c
       -0.032130826 0.0058253054 0.01883575 0.030619066
0001e0 3e 83 4f 3d c2 65 fd 3b 6f 32 19 bd ab 84 b1 3d
       0.05066227 0.0077330777 -0.037401613 0.086678825
0001f0 63 36 c9 bd 86 b5 9c bd 56 74 dc bb dc a2 b3 bc
       -0.098248266 -0.0765181 -0.0067277355 -0.021928243
000200 15 2b 53 bd 69 ee cb bd 37 fd 9e 3b ab 10 e2 3c
       -0.051554758 -0.099575825 0.004851963 0.027595839
000210 a6 3e ac bd 0d 19 d9 bb 92 44 bd 3d 84 70 59 bc
       -0.08410387 -0.0066253007 0.092415944 -0.013271455
000220 f9 23 6b 3b 16 79 36 bc f7 08 d6 3c fa 1c a8 3d
       0.0035879596 -0.011137268 0.026127322 0.08208652
000230 a2 72 fa 3d f1 e7 a7 3d 54 05 fb 3d e5 f8 18 bc
       0.12228896 0.08198536 0.12256876 -0.009336685
000240 27 83 ed bd 1c b0 7a bd 44 07 b4 3d 64 62 5b ba
       -0.11597281 -0.061203107 0.08790448 -0.00083688484
000250 ba 6a 83 bd 09 9c ca bd 6b 6f f7 bd f1 26 df bd
       -0.06416841 -0.098930426 -0.12081798 -0.10896099
000260 42 84 d6 bc ac 67 c5 3d 77 04 3c 3d 3a 95 ca bd
       -0.026186112 0.096389145 0.045902696 -0.09891744
000270 10 4e bf 3e 61 e4 ce bd 77 95 df bc 11 69 56 bd
       0.37364244 -0.101021536 -0.02729295 -0.052346293
000280 e2 b4 cb bc 0d a6 cf bc b7 d8 b8 bd cd c0 34 be
       -0.024866525 -0.025347734 -0.0902571 -0.17651673
000290 d3 90 b0 3b 61 d4 da 3a 74 37 70 bd fd 31 47 3d
       0.005388358 0.0016695374 -0.058646634 0.048631657
0002a0 b6 f8 ed bd 26 bf 0e bc c2 83 e8 3d 3c e0 bb bc
       -0.116197035 -0.0087125655 0.11353256 -0.022934072
0002b0 5a ed 71 3e cb a0 9c 3d 54 9b ee bd 4d 48 a7 3d
       0.23625699 0.07647856 -0.1165072 0.08168087
0002c0 11 14 74 bc 5a 0e 6c bd c4 6c d3 3d 29 a8 d5 bd
       -0.014897362 -0.057630874 0.1032348 -0.10432465
0002d0 b9 f7 62 3c ba 6c dd bc ba bb ff 3c 17 48 cc bc
       0.013853007 -0.027029384 0.031217445 -0.024936719
0002e0 c0 c2 8a 3a 55 bf 3a 3d 84 74 bc bd 4b 6b 74 bd
       0.0010586604 0.045592625 -0.09201911 -0.059672635
0002f0 a5 ca 54 bd fa a9 aa 3d db 5c b6 3b f5 e7 b4 3d
       -0.05195107 0.08333202 0.0055652685 0.08833305
000300 bc 7f ba bd 1b ac bc 3b ab 61 ba bd ae 8b 91 bd
       -0.09106395 0.0057578213 -0.0910066 -0.0710672
000310 97 10 9a bd 39 b6 34 3d 8e 8e 9d bd 87 96 38 bb
       -0.075226955 0.044119094 -0.07693206 -0.0028165893
000320 4a f6 b1 3b 7f 6f aa 3d ab dc c7 bd c7 82 b5 bd
       0.0054309713 0.083220474 -0.09758886 -0.088628344
000330 3e 86 99 bd 32 0f b9 3d fc 14 3e bd c7 03 df 3d
       -0.07496308 0.090361014 -0.04640673 0.10889392
000340 06 37 3f 3d e0 ea 85 3c eb ec 7b ba 88 10 d1 bc
       0.046683334 0.016347349 -0.00096101937 -0.025520578
000350 e7 b0 84 3c 81 3f b9 bd 4e 24 9a 3c b7 47 36 bd
       0.016197635 -0.090453155 0.01881614 -0.044501986
000360 d2 aa 46 be fd 93 8a bd 61 7f d5 3d c6 91 d6 bd
       -0.194011 -0.06766508 0.10424686 -0.10477023
000370 c8 e1 17 bc 74 c6 02 3e 8b ec 6a bc 1e b2 b9 3d
       -0.009270139 0.12771016 -0.014338623 0.09067176
000380 70 00 31 be cc f9 82 3d ee 52 bc bd de 1a 16 bd
       -0.17285323 0.06395301 -0.09195505 -0.036646716
000390 0a 6b 31 bd 59 9d 9c bc 1c 17 b9 3a 01 23 43 3e
       -0.04331497 -0.019117998 0.0014121267 0.19056322
0003a0 5a c1 3b 3c fb 81 4c 3e ef bb a1 3d 95 27 a7 bd
       0.011459673 0.19971459 0.078971736 -0.081618465
0003b0 42 2a 6d 3d 77 e6 ba bd 74 1d 60 bd 8f 87 1b 3d
       0.05790163 -0.09125989 -0.05471559 0.037971076
0003c0 4b 9a 2e 3d 67 5b c6 3d 20 e9 a8 bc 21 3c ad 3c
       0.042627614 0.09685402 -0.020618975 0.021146836
0003d0 a0 00 b3 3d ea b1 ff bd c6 09 ea 3d fd b7 3b be
       0.087403536 -0.12485106 0.114276454 -0.18331905
0003e0 85 7c 27 3d 8a ad b9 bd 4c 94 a6 bd 24 c8 8b 3c
       0.040890235 -0.09066303 -0.08133754 0.017063208
0003f0 3c a2 da 3d 77 93 1a bd 5b f8 9c bd 4c 91 43 bd
       0.10675475 -0.03773829 -0.076645575 -0.047745988

critic.mlp.0.bias f4 [40]
000000 46 95 10 3e 7f 0a 88 bb 21 36 55 bd e1 29 5a 3c
       0.14119443 -0.004151642 -0.052053574 0.013315649
000010 b5 01 c3 bb 93 52 06 3d 25 cb 49 bd df 6d fe bd
       -0.005951131 0.032793593 -0.049266 -0.124233
000020 5c b5 ab bd 83 bd ab bc 47 82 75 bd ad 33 ad 3d
       -0.08384201 -0.02096439 -0.059938695 0.08457122
000030 10 8c 75 3c 2a 70 4a bd d3 39 70 3d e7 a5 14 be
       0.014987007 -0.049423374 0.058648895 -0.14516412
000040 35 ac a0 bd 66 71 bb bc 2c 62 36 be 1e a3 bf 3d
       -0.07845346 -0.022881221 -0.17810887 0.09357284
000050 c9 a1 08 bd e5 40 43 be 0e 41 18 be 34 09 63 3b
       -0.033357415 -0.19067724 -0.14868566 0.0034642937
000060 30 8e 16 3d 5f 78 cf bc 7f 2f c7 bd 63 ee e9 bd
       0.036756694 -0.025325952 -0.09725856 -0.11422422
000070 36 97 9c bd c7 dc 46 3d 3d b6 b0 3c 3f 0e 0c 3d
       -0.07646029 0.048550393 0.021571273 0.034193274
000080 1a 66 90 bd b9 4d 32 3e 17 4a 0b 3e d7 4b ec 3d
       -0.07050724 0.17412461 0.13602482 0.11537903
000090 50 f9 10 3e 0d ee c6 bd 04 fb 5e bd a7 f0 69 bc
       0.14157605 -0.09713373 -0.054438606 -0.014278567

critic.mlp.2.weight f4 [1, 40]
000000 88 b1 ff 3d cd a2 75 3d 45 62 43 be e2 54 af bd
       0.12485033 0.059969712 -0.19080456 -0.08561112
000010 dc a2 54 be 09 ec a7 3d a2 ea a0 bd ef f8 71 be
       -0.20765251 0.08199317 -0.07857253 -0.23630117
000020 bf 8d a8 be e4 87 ab bd 84 5d cd 3d 6e fd 1a 3e
       -0.32920644 -0.083755285 0.10027602 0.15135738
000030 0e 13 f9 bd 54 60 6e bd 03 19 cf 3d 39 d8 46 bd
       -0.121618375 -0.058197334 0.101121925 -0.04854605
000040 4b 86 28 be 27 65 50 bb f2 c2 3b 3d 39 23 79 3d
       -0.16457479 -0.0031798573 0.04584021 0.060824607
000050 37 06 24 bb bd 10 07 bd d4 3a d5 3d 6b 33 6c bd
       -0.0025028118 -0.032974947 0.10411611 -0.057666223
000060 3e 35 ac 3d 34 19 c9 3c a5 4e f6 3d ae c6 61 36
       0.08408593 0.02454815 0.12026719 3.364326e-06
000070 4b 86 30 bd d4 89 49 3e f2 19 9d 3d 83 e5 71 bd
       -0.04309682 0.19681484 0.07670964 -0.05905677
000080 97 a6 c9 bd 1a dd 0b 3e bb 5d bb 3d 36 70 33 be
       -0.098462276 0.13658562 0.09148737 -0.17523274
000090 09 be cf 3d 74 73 e8 bd 7f 73 47 be 73 71 8e 3d
       0.10143668 -0.11350146 -0.19477652 0.069552325
