evaluate_results/agent_logic_paper/checkpoints/step_652001.pth (torch, 12933 bytes, 4 tensors)

actor.im.W f4 [5, 5]
00000000: 2fc4 eb3e 2c1b e63d 37de d83e 47f1 b63e
00000010: c7ba 31bf 3717 c53e b1b3 1a3d 28f0 b03e
00000020: 8499 8f3e 7b37 6fbf 1596 8e3f 58ef 783f
00000030: cbed 773f 0d37 7b3f da68 aa3f a1a0 2c3e
00000040: c529 ef3e 2ce1 1e3f d730 383f 19b1 563f
00000050: b1ee d43f dc2d 2c3f be8d cd3f 029b c63f
00000060: 1dd7 d43f
0.46048114 0.112356514 0.42357036 0.35730955 -0.69425625 0.38494274 0.037769023 0.34558225
0.2804681 -0.9344403 1.1139551 0.9724021 0.9684722 0.98130876 1.3313248 0.1685815
0.46711555 0.62062335 0.71949524 0.8386398 1.6635343 0.67257476 1.6058881 1.5516055
1.6628147

critic.mlp.0.weight f4 [40, 60]
00000000: b15f 7dba 57d5 8d3d e0b3 b3bd 3aac 9cbd
00000010: eeb3 ffbc 9ecc 0d3d 14ac 823c de04 f23d
00000020: c7ac a1bd dc85 b23d 341f 88bd 57e2 cfbc
00000030: 0a97 fcbd c21a afbd e1fa 59bd e1b4 9c3b
00000040: c10c 513d b7a4 9e3d a33e b3bd db44 66bd
00000050: e910 403d 0c8d db3d 94a6 d9bc b3d9 c53d
00000060: f876 aabc 77d0 5f3c 6b67 ef3d a345 f5bd
00000070: 7572 a6bd 20df 05bd 721f 4ebd 2570 e43d
00000080: 3a60 abbd e79a 27bd f5b6 67bd 3bb7 d1bd
00000090: c102 d1be 2446 e33d d7f4 6b3d 3425 803d
000000a0: cd7a de3b 228d 87bd 0347 253d ef4b 2abe
000000b0: f922 99bd cc4d 88bd 37d1 a63d 5205 9b3d
000000c0: 2e84 6abd f3a3 98bb da18 a93d 75e5 be3e
000000d0: 0baa 643d 3b1d 863e 1046 b13d 42ad 9bbd
000000e0: ff12 c53c c7fc ccbd bc3f b7bd 1c95 88bd
000000f0: 8a43 6f3d b0a8 543d e238 a6bd e889 0c3d
00000100: ff89 873d 3c7c 85bc 4821 7a39 f19b ce3c
00000110: 3b2c 9a3d 442a 033e be44 d7bd 38c9 41bd
00000120: fad1 4f3d 9b10 db3d 3c14 e63d 934a e93d
00000130: 6e79 d23c f4e9 e5bd 4f94 423c 4768 a5bd
00000140: 9667 f6bd dfe9 ea3d 2c09 c93d fcde 03be
00000150: 2ef3 c53c 0f29 b2bc 7a09 aebc d00e 72bd
00000160: 9759 4b3d 3c9a 9cbd aed9 413d 00b5 853d
00000170: f945 bd3d f281 323d 1b82 07be 8b1e b5bd
00000180: 2d13 723d 7d5a dd3c 3640 cebd 823e 98bd
00000190: e3ba f83d 8f27 b23d 9bc7 79bd 5d4d 18bd
000001a0: 11bc 02be b612 18bb 031b c7bd 80f1 cbbd
000001b0: ed16 e9bb 72ca 9e3c 5a8e 58bd 9a47 933d
000001c0: 7a80 aabd 4d4c e63d b830 b53d d9f5 debd
000001d0: 9d9b 03bd 34e2 be3b 6e4d 9a3c d6d4 fa3c
000001e0: 3e83 4f3d c265 fd3b 02d6 2fbd df32 a63d
000001f0: 2f88 d4bd 86b5 9cbd 82c8 48bc 0047 b0bc
00000200: 7a52 62bd 1e31 d7bd 4703 23bc ab10 e23c
00000210: a63e acbd 0d19 d9bb 9244 bd3d 8470 59bc
00000220: f923 6b3b 1679 36bc f708 d63c fa1c a83d
00000230: a272 fa3d f1e7 a73d 5405 fb3d e5f8 18bc
00000240: 2783 edbd 1cb0 7abd 4407 b43d 6462 5bba
00000250: ba6a 83bd 099c cabd 6b6f f7bd f126 dfbd
00000260: 4284 d6bc de15 ba3d ca8a 0d3d 05e7 d5bd
00000270: f088 c93e 61e4 cebd 7795 dfbc 1169 56bd
00000280: e2b4 cbbc 0da6 cfbc 852a c4bd 8a65 42be
00000290: 827c 11b9 61d4 da3a 7437 70bd fd31 473d
000002a0: b6f8 edbd 26bf 0ebc c283 e83d b727 e9bc
000002b0: c7d5 6b3e e74e 913d 549b eebd 4d48 a73d
000002c0: 1114 74bc 5a0e 6cbd c46c d33d 29a8 d5bd
000002d0: b9f7 623c ba6c ddbc feb5 c73c e926 02bd
000002e0: 4e66 bdbb 55bf 3a3d fc75 cabd fb4d 6ebd
000002f0: 9049 65bd b680 b43d b0fd 9d3b f5e7 b43d
00000300: bc7f babd 1bac bc3b ab61 babd ae8b 91bd
00000310: 9710 9abd 39b6 343d 8e8e 9dbd 8796 38bb
00000320: 4af6 b13b 7f6f aa3d abdc c7bd c782 b5bd
00000330: 3e86 99bd 320f b93d fc14 3ebd c703 df3d
00000340: 0637 3f3d e0ea 853c ebec 7bba 8810 d1bc
00000350: e7b0 843c fb40 c7bd 6162 d83c 9e4a 52bd
00000360: 6456 47be fd93 8abd 617f d53d c691 d6bd
00000370: c8e1 17bc 74c6 023e 027c adbc e77b b23d
00000380: 2901 38be ccf9 823d ee52 bcbd de1a 16bd
00000390: 0a6b 31bd 599d 9cbc 1c17 b93a d128 443e
000003a0: 5b9a 993c ca87 4d3e efbb a13d 9527 a7bd
000003b0: 422a 6d3d 77e6 babd 741d 60bd 8f87 1b3d
000003c0: 4b9a 2e3d 675b c63d c4ff dcbc f64a 723c
000003d0: fbfa a53d eab1 ffbd 2304 dd3d ef1f 3dbe
000003e0: 64d4 003d 7bce b5bd 0536 e8bd 24c8 8b3c
000003f0: 3ca2 da3d 7793 1abd 5bf8 9cbd 4c91 43bd
-0.0009665443 0.06925457 -0.08774543 -0.07650037 -0.031213727 0.034618966 0.015951194 0.118173346
-0.07894283 0.08716938 -0.066465765 -0.025376482 -0.12333496 -0.085500255 -0.053217772 0.0047823046
0.051037554 0.077462606 -0.087521814 -0.05621801 0.046891127 0.10720262 -0.026568688 0.096606635
-0.020808682 0.013660542 0.11689647 -0.11976173 -0.081273 -0.03268349 -0.050322957 0.11154202
-0.08367963 -0.04091921 -0.056570966 -0.102400266 -0.40822414 0.11097363 0.057606544 0.06257096
0.0067895413 -0.06618716 0.040350925 -0.16630529 -0.07477374 -0.066554636 0.08145373 0.07569374
-0.057254963 -0.004658216 0.08256693 0.37284437 0.055826228 0.26194176 0.086559415 -0.07601406
0.02405691 -0.10009151 -0.08947703 -0.06669065 0.05841402 0.051918685 -0.08116318 0.034311205
0.066181175 -0.016294591 0.00023854256 0.025220843 0.075279675 0.12809092 -0.105111584 -0.047311038
0.05073736 0.106965266 0.11234328 0.11391177 0.025692668 -0.11226264 0.01187618 -0.0807653
-0.12031476 0.114703886 0.098162025 -0.1287803 0.024163809 -0.021748094 -0.021244753 -0.059096158
0.049645986 -0.07646605 0.047326736 0.06528664 0.09241862 0.043580957 -0.13233225 -0.08843716
0.05910032 0.027020687 -0.10070841 -0.074337974 0.12145021 0.086989515 -0.060981374 -0.037183154
-0.12767054 -0.0023204512 -0.09721949 -0.09958172 -0.0071133287 0.019383643 -0.052870132 0.07191391
-0.08325286 0.11245022 0.08847183 -0.108867355 -0.032130826 0.0058253054 0.01883575 0.030619066
0.05066227 0.0077330777 -0.042928703 0.08115172 -0.103775375 -0.0765181 -0.012254836 -0.02151823
-0.055254437 -0.10507415 -0.009949512 0.027595839 -0.08410387 -0.0066253007 0.092415944 -0.013271455
0.0035879596 -0.011137268 0.026127322 0.08208652 0.12228896 0.08198536 0.12256876 -0.009336685
-0.11597281 -0.061203107 0.08790448 -0.00083688484 -0.06416841 -0.098930426 -0.12081798 -0.10896099
-0.026186112 0.09086202 0.034556188 -0.10444454 0.39362288 -0.101021536 -0.02729295 -0.052346293
-0.024866525 -0.025347734 -0.095784225 -0.18984047 -0.0001387466 0.0016695374 -0.058646634 0.048631657
-0.116197035 -0.0087125655 0.11353256 -0.02846132 0.23030768 0.070951276 -0.1165072 0.08168087
-0.014897362 -0.057630874 0.1032348 -0.10432465 0.013853007 -0.027029384 0.024378773 -0.03177539
-0.005780018 0.045592625 -0.09885785 -0.058179837 -0.055978358 0.08813612 0.0048215017 0.08833305
-0.09106395 0.0057578213 -0.0910066 -0.0710672 -0.075226955 0.044119094 -0.07693206 -0.0028165893
0.0054309713 0.083220474 -0.09758886 -0.088628344 -0.07496308 0.090361014 -0.04640673 0.10889392
0.046683334 0.016347349 -0.00096101937 -0.025520578 0.016197635 -0.09729191 0.026414098 -0.05134069
-0.19466549 -0.06766508 0.10424686 -0.10477023 -0.009270139 0.12771016 -0.021177296 0.08715039
-0.17969193 0.06395301 -0.09195505 -0.036646716 -0.04331497 -0.019117998 0.0014121267 0.19156195
0.01875036 0.2007133 0.078971736 -0.081618465 0.05790163 -0.09125989 -0.05471559 0.037971076
0.042627614 0.09685402 -0.026977427 0.01478838 0.08104511 -0.12485106 0.10791805 -0.18469213
0.03145255 -0.08877274 -0.113384284 0.017063208 0.10675475 -0.03773829 -0.076645575 -0.047745988

critic.mlp.0.bias f4 [40]
00000000: 6fb2 123e 7f0a 88bb b4d9 6bbd d03c d43b
00000010: 18ae 49bc 8704 243d 80de 54bd 175a 02be
00000020: 945c b3bd 83bd abbc edc4 80bd 97ac c93d
00000030: 9b2c 0d3c 2a70 4abd 6388 883d 01f9 1fbe
00000040: 1686 a4bd 7ece b9bc df0e 36be a864 d23d
00000050: c9a1 08bd b9ec 48be 0e41 18be fdc4 a93c
00000060: 308e 163d 7fb3 9cbc 3486 babd 63ee e9bd
00000070: deff 92bd 8381 653d 3db6 b03c 88ab 3a3d
00000080: acac 8cbd 524a 313e b02b 133e 0e5a e73d
00000090: 949d 183e 0ad7 d8bd b27a 81bd a7f0 69bc
0.1432588 -0.004151642 -0.057580665 0.006476976 -0.012309574 0.04004338 -0.051970005 -0.12729679
-0.08757892 -0.02096439 -0.062875606 0.09847372 0.008616592 -0.049423374 0.06666639 -0.15622331
-0.08033387 -0.022681471 -0.1777911 0.10273105 -0.033357415 -0.19621553 -0.14868566 0.020723814
0.036756694 -0.01912856 -0.091076285 -0.11422422 -0.07177709 0.056031715 0.021571273 0.04557374
-0.06868872 0.17313507 0.14372134 0.112964734 0.14903861 -0.105878904 -0.063222304 -0.014278567

critic.mlp.2.weight f4 [1, 40]
00000000: 3956 013e cda2 753d 2d1b 45be 3897 aabd
00000010: b72c 4bbe 3abd b13d 6ed7 97bd 777e 6ebe
00000020: 11c4 a6be e487 abbd 4331 d03d 4bd8 223e
00000030: e809 f2bd 5460 6ebd 8215 d43d 5275 49bd
00000040: 62f5 20be 8893 50bb ccbc 3c3d 28ad 7d3d
00000050: 3706 24bb a689 2cbd d43a d53d 3ec1 67bd
00000060: 3e35 ac3d 6c59 c83c f236 f93d aec6 6136
00000070: 5d2b 38bd 977c 4b3e f219 9d3d 01a9 98bd
00000080: 3882 cdbd f0ca 1c3e 59a6 b93d 8010 36be
00000090: 9e15 ca3d d14b e3bd debb 3ebe 7371 8e3d
0.12630548 0.059969712 -0.19248648 -0.08329624 -0.19841276 0.0867867 -0.07414137 -0.2329043
-0.32571462 -0.083755285 0.10165646 0.15902822 -0.11818296 -0.058197334 0.10355665 -0.04918415
-0.15718606 -0.0031826217 0.04607849 0.061932713 -0.0025028118 -0.04212346 0.10411611 -0.056580774
0.08408593 0.024456702 0.12168683 3.364326e-06 -0.04496323 0.19871746 0.07670964 -0.0745411
-0.10034603 0.1531179 0.090649314 -0.17779732 0.098674044 -0.11098445 -0.18626353 0.069552325
