evaluate_results/agent_logic_paper/checkpoints/step_16001.pth (torch, 12922 bytes, 4 tensors)

actor.im.W f4 [5, 5]
000000 b0 db b6 3f c4 68 70 3d 0f a9 0e be c7 ad 60 be
       1.4285793 0.058693662 -0.13931678 -0.21941291
000010 2d 53 d7 bf 4e 55 e6 3f 43 a3 0f bf 94 67 d5 be
       -1.6822258 1.7994783 -0.5610849 -0.41680586
000020 7d 6d e5 be ee 38 02 c0 ef 0e 4b 3e d6 16 98 3f
       -0.44810095 -2.0347247 0.19829915 1.1881969
000030 a9 2b 82 3f 30 d3 95 bd 2b f1 ba 3f ca 57 87 bf
       1.0169574 -0.073156714 1.4604849 -1.0573666
000040 49 9f 21 3f 3c be 23 3e 84 0d 95 3f e1 46 1e 3e
       0.63133675 0.15990537 1.164475 0.15456726
000050 4b 59 14 40 c1 6f bc bc 33 21 d5 3e 4a aa aa 3f
       2.31795 -0.023002507 0.41626891 1.3333218
000060 9a 5c af 3f
       1.3700135

critic.mlp.0.weight f4 [40, 60]
000000 b1 5f 7d ba 57 d5 8d 3d a9 ef dc bd da e7 c5 bd
       -0.0009665443 0.06925457 -0.10787899 -0.09663363
000010 cc 51 52 bd 9e cc 0d 3d e7 0a 89 bb fa c4 dc 3d
       -0.05134754 0.034618966 -0.004182208 0.10779758
000020 54 ab 3a bc 64 b9 19 3d e9 c7 4b 3c 57 e2 cf bc
       -0.011393387 0.037530318 0.012437799 -0.025376482
000030 0a 97 fc bd c2 1a af bd e1 fa 59 bd e1 b4 9c 3b
       -0.12333496 -0.085500255 -0.053217772 0.0047823046
000040 c1 0c 51 3d b7 a4 9e 3d a3 3e b3 bd db 44 66 bd
       0.051037554 0.077462606 -0.087521814 -0.05621801
000050 e9 10 40 3d 0c 8d db 3d 94 a6 d9 bc b3 d9 c5 3d
       0.046891127 0.10720262 -0.026568688 0.096606635
000060 f8 76 aa bc 77 d0 5f 3c 6b 67 ef 3d a3 45 f5 bd
       -0.020808682 0.013660542 0.11689647 -0.11976173
000070 75 72 a6 bd 20 df 05 bd 72 1f 4e bd 25 70 e4 3d
       -0.081273 -0.03268349 -0.050322957 0.11154202
000080 3a 60 ab bd c0 12 7a bd 24 04 c0 bd 03 f3 fa bd
       -0.08367963 -0.061053038 -0.0937579 -0.12253382
000090 eb b0 f7 bd 24 46 e3 3d d7 f4 6b 3d 34 25 80 3d
       -0.12094291 0.11097363 0.057606544 0.06257096
0000a0 cd 7a de 3b 22 8d 87 bd bd 9e a5 3c b1 6b fe bd
       0.0067895413 -0.06618716 0.020217294 -0.12422884
0000b0 b7 5e c2 bd cc 4d 88 bd 37 d1 a6 3d 52 05 9b 3d
       -0.09490722 -0.066554636 0.08145373 0.07569374
0000c0 2e 84 6a bd f3 a3 98 bb da 18 a9 3d b7 3b fc 3d
       -0.057254963 -0.004658216 0.08256693 0.12316077
0000d0 98 bc 31 3d f1 da 48 3c 10 46 b1 3d 42 ad 9b bd
       0.043392748 0.012259231 0.086559415 -0.07601406
0000e0 ff 12 c5 3c c7 fc cc bd bc 3f b7 bd 1c 95 88 bd
       0.02405691 -0.10009151 -0.08947703 -0.06669065
0000f0 8a 43 6f 3d b0 a8 54 3d e2 38 a6 bd e8 89 0c 3d
       0.05841402 0.051918685 -0.08116318 0.034311205
000100 ff 89 87 3d 3c 7c 85 bc 48 21 7a 39 f1 9b ce 3c
       0.066181175 -0.016294591 0.00023854256 0.025220843
000110 3b 2c 9a 3d 44 2a 03 3e be 44 d7 bd 38 c9 41 bd
       0.075279675 0.12809092 -0.105111584 -0.047311038
000120 fa d1 4f 3d 9b 10 db 3d 3c 14 e6 3d 93 4a e9 3d
       0.05073736 0.106965266 0.11234328 0.11391177
000130 6e 79 d2 3c f4 e9 e5 bd 4f 94 42 3c 47 68 a5 bd
       0.025692668 -0.11226264 0.01187618 -0.0807653
000140 96 67 f6 bd df e9 ea 3d 2c 09 c9 3d fc de 03 be
       -0.12031476 0.114703886 0.098162025 -0.1287803
000150 2e f3 c5 3c 0f 29 b2 bc 7a 09 ae bc d0 0e 72 bd
       0.024163809 -0.021748094 -0.021244753 -0.059096158
000160 97 59 4b 3d 3c 9a 9c bd ae d9 41 3d 00 b5 85 3d
       0.049645986 -0.07646605 0.047326736 0.06528664
000170 f9 45 bd 3d f2 81 32 3d 1b 82 07 be 8b 1e b5 bd
       0.09241862 0.043580957 -0.13233225 -0.08843716
000180 2d 13 72 3d 7d 5a dd 3c 36 40 ce bd 82 3e 98 bd
       0.05910032 0.027020687 -0.10070841 -0.074337974
000190 e3 ba f8 3d 8f 27 b2 3d 9b c7 79 bd 5d 4d 18 bd
       0.12145021 0.086989515 -0.060981374 -0.037183154
0001a0 11 bc 02 be b6 12 18 bb 03 1b c7 bd 80 f1 cb bd
       -0.12767054 -0.0023204512 -0.09721949 -0.09958172
0001b0 ed 16 e9 bb 72 ca 9e 3c 5a 8e 58 bd 9a 47 93 3d
       -0.0071133287 0.019383643 -0.052870132 0.07191391
0001c0 7a 80 aa bd 4d 4c e6 3d b8 30 b5 3d d9 f5 de bd
       -0.08325286 0.11245022 0.08847183 -0.108867355
0001d0 9d 9b 03 bd 34 e2 be 3b 6e 4d 9a 3c d6 d4 fa 3c
       -0.032130826 0.0058253054 0.01883575 0.030619066
0001e0 3e 83 4f 3d c2 65 fd 3b e4 c0 57 bd 14 3d 92 3d
       0.05066227 0.0077330777 -0.05267419 0.07140556
0001f0 e3 7d e8 bd 86 b5 9c bd 07 3a b4 bc 68 20 2f bd
       -0.11352136 -0.0765181 -0.022000326 -0.042755514
000200 2c 1d 13 bd cf 49 a3 bd e4 00 8c bd ab 10 e2 3c
       -0.035916492 -0.07973062 -0.068361074 0.027595839
000210 a6 3e ac bd 0d 19 d9 bb 92 44 bd 3d 84 70 59 bc
       -0.08410387 -0.0066253007 0.092415944 -0.013271455
000220 f9 23 6b 3b 16 79 36 bc f7 08 d6 3c fa 1c a8 3d
       0.0035879596 -0.011137268 0.026127322 0.08208652
000230 a2 72 fa 3d f1 e7 a7 3d 54 05 fb 3d e5 f8 18 bc
       0.12228896 0.08198536 0.12256876 -0.009336685
000240 27 83 ed bd 1c b0 7a bd 44 07 b4 3d 64 62 5b ba
       -0.11597281 -0.061203107 0.08790448 -0.00083688484
000250 ba 6a 83 bd 09 9c ca bd 6b 6f f7 bd f1 26 df bd
       -0.06416841 -0.098930426 -0.12081798 -0.10896099
000260 42 84 d6 bc 25 20 a6 3d 92 ab 9b 3d bb dc e9 bd
       -0.026186112 0.081116 0.07601084 -0.11419054
000270 2c 22 bb 3d 61 e4 ce bd 77 95 df bc 11 69 56 bd
       0.09137377 -0.101021536 -0.02729295 -0.052346293
000280 e2 b4 cb bc 0d a6 cf bc 40 20 d8 bd 6a ee c6 bd
       -0.024866525 -0.025347734 -0.10553026 -0.097134426
000290 be f1 21 bc 61 d4 da 3a 74 37 70 bd fd 31 47 3d
       -0.009884296 0.0016695374 -0.058646634 0.048631657
0002a0 b6 f8 ed bd 26 bf 0e bc c2 83 e8 3d 3f 6e 2d bd
       -0.116197035 -0.0087125655 0.11353256 -0.042341467
0002b0 65 9d 08 3e 46 c3 69 3d 54 9b ee bd 4d 48 a7 3d
       0.13341291 0.057070993 -0.1165072 0.08168087
0002c0 11 14 74 bc 5a 0e 6c bd c4 6c d3 3d 29 a8 d5 bd
       -0.014897362 -0.057630874 0.1032348 -0.10432465
0002d0 b9 f7 62 3c ba 6c dd bc 8a 01 b6 3d 32 01 06 3d
       0.013853007 -0.027029384 0.08887012 0.032715984
0002e0 7e 7b 70 3d 55 bf 3a 3d f9 c3 0c bd 84 ad dd bc
       0.05871152 0.045592625 -0.03436658 -0.027060278
0002f0 f2 5c e0 bd 0f fb 8d 3d c0 a1 7b 3d f5 e7 b4 3d
       -0.10955228 0.06932651 0.061433554 0.08833305
000300 bc 7f ba bd 1b ac bc 3b ab 61 ba bd ae 8b 91 bd
       -0.09106395 0.0057578213 -0.0910066 -0.0710672
000310 97 10 9a bd 39 b6 34 3d 8e 8e 9d bd 87 96 38 bb
       -0.075226955 0.044119094 -0.07693206 -0.0028165893
000320 4a f6 b1 3b 7f 6f aa 3d ab dc c7 bd c7 82 b5 bd
       0.0054309713 0.083220474 -0.09758886 -0.088628344
000330 3e 86 99 bd 32 0f b9 3d fc 14 3e bd c7 03 df 3d
       -0.07496308 0.090361014 -0.04640673 0.10889392
000340 06 37 3f 3d e0 ea 85 3c eb ec 7b ba 88 10 d1 bc
       0.046683334 0.016347349 -0.00096101937 -0.025520578
000350 e7 b0 84 3c f0 59 06 bd 00 d3 80 ba 4b 76 57 3c
       0.016197635 -0.032800615 -0.0009828508 0.013150762
000360 11 fa 8c bd fd 93 8a bd 61 7f d5 3d c6 91 d6 bd
       -0.06883634 -0.06766508 0.10424686 -0.10477023
000370 c8 e1 17 bc 74 c6 02 3e 1b 6a 31 3d 22 35 dc 3b
       -0.009270139 0.12771016 0.04331408 0.006720201
000380 20 ee eb bd cc f9 82 3d ee 52 bc bd de 1a 16 bd
       -0.11520028 0.06395301 -0.09195505 -0.036646716
000390 0a 6b 31 bd 59 9d 9c bc 1c 17 b9 3a 83 2c f1 3d
       -0.04331497 -0.019117998 0.0014121267 0.11776068
0003a0 26 c5 94 3c 32 f5 01 3e ef bb a1 3d 95 27 a7 bd
       0.018160414 0.12691191 0.078971736 -0.081618465
0003b0 42 2a 6d 3d 77 e6 ba bd 74 1d 60 bd 8f 87 1b 3d
       0.05790163 -0.09125989 -0.05471559 0.037971076
0003c0 4b 9a 2e 3d 67 5b c6 3d fa 50 eb bc a6 a8 55 3c
       0.042627614 0.09685402 -0.028725136 0.013040697
0003d0 bc 66 a2 3d ea b1 ff bd e9 6f d9 3d a1 86 b5 bd
       0.07929751 -0.12485106 0.10617048 -0.08863569
0003e0 a2 8a 64 3c 7f b0 2f bd f0 cf ad bd 24 c8 8b 3c
       0.013949068 -0.04289293 -0.084869266 0.017063208
0003f0 3c a2 da 3d 77 93 1a bd 5b f8 9c bd 4c 91 43 bd
       0.10675475 -0.03773829 -0.076645575 -0.047745988

critic.mlp.0.bias f4 [40]
000000 91 29 fc 3d 7f 0a 88 bb 54 e2 89 bd e5 57 91 3d
       0.12312616 -0.004151642 -0.06732622 0.07096843
000010 83 50 66 bc f3 53 07 3c 61 4f 7a bd 8c a3 cb bd
       -0.014057281 0.008259761 -0.061110858 -0.099433035
000020 07 cf c4 bd 83 bd ab bc 35 6c ac bd b5 e8 f8 3d
       -0.096098 -0.02096439 -0.08419076 0.1215376
000030 f1 62 75 3b 2a 70 4a bd ff 7d 58 3d a3 bc e5 bd
       0.0037443007 -0.049423374 0.052854534 -0.1121762
000040 67 7c 84 bd 66 d6 41 3d ce 66 e3 bd 23 71 97 3d
       -0.0646904 0.047323607 -0.11103593 0.07394626
000050 ef 87 87 3c b9 67 e4 bd 47 84 0a be 71 f9 0c 3d
       0.01654431 -0.11152596 -0.13527022 0.034417573
000060 c1 af 5a 3d 10 e6 ce bc 3c bf d0 bd b2 b4 92 bd
       0.05339027 -0.025256187 -0.10192725 -0.07163371
000070 40 ca 26 3c a0 45 99 3b ec 00 d5 3c 8f 49 ab 3c
       0.010180056 0.0046774894 0.026001416 0.020909099
000080 b2 c3 27 bc 2c e5 47 3d d8 09 02 3e 5f 70 f5 3d
       -0.0102395285 0.04880254 0.12699068 0.11984324
000090 bd b9 e3 3d 75 bb 1b bd 8c b0 28 bd a7 f0 69 bc
       0.11119411 -0.03802057 -0.041183993 -0.014278567

critic.mlp.2.weight f4 [1, 40]
000000 17 d8 6f 3d cd a2 75 3d e1 40 01 bd 01 2d d2 bd
       0.05855569 0.059969712 -0.031556014 -0.1026249
000010 3d cd f7 bd a2 c8 15 3e 04 be 20 bd 61 f3 1f bd
       -0.12099693 0.14627317 -0.039243713 -0.039050464
000020 46 90 c4 bd e4 87 ab bd ed a6 e9 3c 61 65 78 3d
       -0.095978305 -0.083755285 0.02852198 0.060643557
000030 dd 2d 86 bd 54 60 6e bd 86 43 f8 3d ac ec 98 bd
       -0.065517165 -0.058197334 0.12122254 -0.074670166
000040 4c 0b ea bd 6f 51 d6 bc 98 d4 16 3e 21 2d 48 3d
       -0.11427936 -0.026161877 0.14729536 0.048871163
000050 dd 67 93 3c c4 84 9c bc 81 83 bb 3d e1 86 9a bd
       0.017993862 -0.019106276 0.09155942 -0.07545257
000060 24 44 b4 3d 4b 88 09 3d 64 3d 8b 3d 13 79 86 3c
       0.08802059 0.033577245 0.06798819 0.016415155
000070 a1 72 cd bd 4c 79 de 3d e0 41 9c 3d 10 24 dc bd
       -0.10031629 0.10862979 0.07629752 -0.10749066
000080 c1 86 18 be 90 7d 16 bc 96 7f d2 3d f7 ba d0 bd
       -0.14895155 -0.00918521 0.10278241 -0.10191911
000090 75 01 10 3e 4e 7d 98 bd a5 9e 0d be 73 71 8e 3d
       0.14063056 -0.07445775 -0.1383005 0.069552325
