evaluate_results/agent_logic_paper/checkpoints/step_254001.pth (torch, 12933 bytes, 4 tensors)

actor.im.W f4 [5, 5]
1.1099708 -0.34505057 0.44673488 0.27218345 -0.8538168 1.0211118 -0.4233435 0.3643703
0.19184572 -1.1232637 1.1896586 0.5758739 1.0003515 0.9774416 1.6469961 0.3794739
0.08787793 0.7085318 0.6025721 1.1461357 2.172291 0.0939282 0.97396946 1.2588124
1.6507362
00000000: 8613 8e3f 78aa b0be 6fba e43e a15b 8b3e
00000010: bd93 5abf cbb3 823f 7bc0 d8be be8e ba3e
00000020: 3473 443e 1bc7 8fbf bc46 983f 796c 133f
00000030: 850b 803f 9d39 7a3f c5d0 d23f 674a c23e
00000040: 58f9 b33d 5762 353f 2a42 1a3f 93b4 923f
00000050: d106 0b40 6e5d c03d 1056 793f c420 a13f
00000060: 534b d33f

critic.mlp.0.weight f4 [40, 60]
-0.0009665443 0.06925457 -0.08836785 -0.07712275 -0.031836268 0.034618966 0.015328773 0.121390924
-0.027957954 0.118951455 -0.03175666 -0.025376482 -0.12333496 -0.085500255 -0.053217772 0.0047823046
0.051037554 0.077462606 -0.087521814 -0.05621801 0.046891127 0.10720262 -0.026568688 0.096606635
-0.020808682 0.013660542 0.11689647 -0.11976173 -0.081273 -0.03268349 -0.050322957 0.11154202
-0.08367963 -0.041541856 -0.045636903 -0.1030226 -0.22233853 0.11097363 0.057606544 0.06257096
0.0067895413 -0.06618716 0.039728325 -0.14648482 -0.07539611 -0.066554636 0.08145373 0.07569374
-0.057254963 -0.004658216 0.08256693 0.2466209 0.071557924 0.13571891 0.086559415 -0.07601406
0.02405691 -0.10009151 -0.08947703 -0.06669065 0.05841402 0.051918685 -0.08116318 0.034311205
0.066181175 -0.016294591 0.00023854256 0.025220843 0.075279675 0.12809092 -0.105111584 -0.047311038
0.05073736 0.106965266 0.11234328 0.11391177 0.025692668 -0.11226264 0.01187618 -0.0807653
-0.12031476 0.114703886 0.098162025 -0.1287803 0.024163809 -0.021748094 -0.021244753 -0.059096158
0.049645986 -0.07646605 0.047326736 0.06528664 0.09241862 0.043580957 -0.13233225 -0.08843716
0.05910032 0.027020687 -0.10070841 -0.074337974 0.12145021 0.086989515 -0.060981374 -0.037183154
-0.12767054 -0.0023204512 -0.09721949 -0.09958172 -0.0071133287 0.019383643 -0.052870132 0.07191391
-0.08325286 0.11245022 0.08847183 -0.108867355 -0.032130826 0.0058253054 0.01883575 0.030619066
0.05066227 0.0077330777 -0.050390936 0.073689006 -0.11123798 -0.0765181 -0.019716958 -0.09622803
-0.0300391 0.025875043 -0.056267075 0.027595839 -0.08410387 -0.0066253007 0.092415944 -0.013271455
0.0035879596 -0.011137268 0.026127322 0.08208652 0.12228896 0.08198536 0.12256876 -0.009336685
-0.11597281 -0.061203107 0.08790448 -0.00083688484 -0.06416841 -0.098930426 -0.12081798 -0.10896099
-0.026186112 0.083399415 0.046626158 -0.1119072 0.2618271 -0.101021536 -0.02729295 -0.052346293
-0.024866525 -0.025347734 -0.10324689 -0.09932788 -0.007600928 0.0016695374 -0.058646634 0.048631657
-0.116197035 -0.0087125655 0.11353256 -0.036001954 0.22080706 0.06341052 -0.1165072 0.08168087
-0.014897362 -0.057630874 0.1032348 -0.10432465 0.013853007 -0.027029384 0.04133927 -0.01481488
0.011180543 0.045592625 -0.08189752 -0.04953417 -0.0830096 0.06444913 0.05444006 0.08833305
-0.09106395 0.0057578213 -0.0910066 -0.0710672 -0.075226955 0.044119094 -0.07693206 -0.0028165893
0.0054309713 0.083220474 -0.09758886 -0.088628344 -0.07496308 0.090361014 -0.04640673 0.10889392
0.046683334 0.016347349 -0.00096101937 -0.025520578 0.016197635 -0.08033163 0.017642451 -0.03438013
-0.11298146 -0.06766508 0.10424686 -0.10477023 -0.009270139 0.12771016 -0.004216761 0.07110212
-0.16273154 0.06395301 -0.09195505 -0.036646716 -0.04331497 -0.019117998 0.0014121267 0.1490953
0.012092546 0.15824671 0.078971736 -0.081618465 0.05790163 -0.09125989 -0.05471559 0.037971076
0.042627614 0.09685402 -0.02541981 0.016346034 0.08260262 -0.12485106 0.10947557 -0.16082807
0.05471304 -0.14145583 -0.10428566 0.017063208 0.10675475 -0.03773829 -0.076645575 -0.047745988
00000000: b15f 7dba 57d5 8d3d 34fa b4bd 88f2 9dbd
00000010: bf66 02bd 9ecc 0d3d 8925 7b3c ce9b f83d
00000020: 1408 e5bc d29c f33d 4613 02bd 57e2 cfbc
00000030: 0a97 fcbd c21a afbd e1fa 59bd e1b4 9c3b
00000040: c10c 513d b7a4 9e3d a33e b3bd db44 66bd
00000050: e910 403d 0c8d db3d 94a6 d9bc b3d9 c53d
00000060: f876 aabc 77d0 5f3c 6b67 ef3d a345 f5bd
00000070: 7572 a6bd 20df 05bd 721f 4ebd 2570 e43d
00000080: 3a60 abbd cb27 2abd c3ed 3abd 83fd d2bd
00000090: b6ac 63be 2446 e33d d7f4 6b3d 3425 803d
000000a0: cd7a de3b 228d 87bd 2bba 223d 1e00 16be
000000b0: 4769 9abd cc4d 88bd 37d1 a63d 5205 9b3d
000000c0: 2e84 6abd f3a3 98bb da18 a93d 308a 7c3e
000000d0: f68c 923d e6f9 0a3e 1046 b13d 42ad 9bbd
000000e0: ff12 c53c c7fc ccbd bc3f b7bd 1c95 88bd
000000f0: 8a43 6f3d b0a8 543d e238 a6bd e889 0c3d
00000100: ff89 873d 3c7c 85bc 4821 7a39 f19b ce3c
00000110: 3b2c 9a3d 442a 033e be44 d7bd 38c9 41bd
00000120: fad1 4f3d 9b10 db3d 3c14 e63d 934a e93d
00000130: 6e79 d23c f4e9 e5bd 4f94 423c 4768 a5bd
00000140: 9667 f6bd dfe9 ea3d 2c09 c93d fcde 03be
00000150: 2ef3 c53c 0f29 b2bc 7a09 aebc d00e 72bd
00000160: 9759 4b3d 3c9a 9cbd aed9 413d 00b5 853d
00000170: f945 bd3d f281 323d 1b82 07be 8b1e b5bd
00000180: 2d13 723d 7d5a dd3c 3640 cebd 823e 98bd
00000190: e3ba f83d 8f27 b23d 9bc7 79bd 5d4d 18bd
000001a0: 11bc 02be b612 18bb 031b c7bd 80f1 cbbd
000001b0: ed16 e9bb 72ca 9e3c 5a8e 58bd 9a47 933d
000001c0: 7a80 aabd 4d4c e63d b830 b53d d9f5 debd
000001d0: 9d9b 03bd 34e2 be3b 6e4d 9a3c d6d4 fa3c
000001e0: 3e83 4f3d c265 fd3b ba66 4ebd 43ea 963d
000001f0: bdd0 e3bd 86b5 9cbd 7585 a1bc 3413 c5bd
00000200: 8f14 f6bc e6f7 d33c 4e78 66bd ab10 e23c
00000210: a63e acbd 0d19 d9bb 9244 bd3d 8470 59bc
00000220: f923 6b3b 1679 36bc f708 d63c fa1c a83d
00000230: a272 fa3d f1e7 a73d 5405 fb3d e5f8 18bc
00000240: 2783 edbd 1cb0 7abd 4407 b43d 6462 5bba
00000250: ba6a 83bd 099c cabd 6b6f f7bd f126 dfbd
00000260: 4284 d6bc 50cd aa3d 12fb 3e3d 9a2f e5bd
00000270: 340e 863e 61e4 cebd 7795 dfbc 1169 56bd
00000280: e2b4 cbbc 0da6 cfbc 1b73 d3bd 6a6c cbbd
00000290: 3511 f9bb 61d4 da3a 7437 70bd fd31 473d
000002a0: b6f8 edbd 26bf 0ebc c283 e83d c976 13bd
000002b0: 3f1b 623e 60dd 813d 549b eebd 4d48 a73d
000002c0: 1114 74bc 5a0e 6cbd c46c d33d 29a8 d5bd
000002d0: b9f7 623c ba6c ddbc 5e53 293d 1cba 72bc
000002e0: 992e 373c 55bf 3a3d e3b9 a7bd 58e4 4abd
000002f0: f000 aabd e8fd 833d 8afc 5e3d f5e7 b43d
00000300: bc7f babd 1bac bc3b ab61 babd ae8b 91bd
00000310: 9710 9abd 39b6 343d 8e8e 9dbd 8796 38bb
00000320: 4af6 b13b 7f6f aa3d abdc c7bd c782 b5bd
00000330: 3e86 99bd 320f b93d fc14 3ebd c703 df3d
00000340: 0637 3f3d e0ea 853c ebec 7bba 8810 d1bc
00000350: e7b0 843c e984 a4bd e786 903c 2ed2 0cbd
00000360: d362 e7bd fd93 8abd 617f d53d c691 d6bd
00000370: c8e1 17bc 74c6 023e c12c 8abb fd9d 913d
00000380: 19a3 26be ccf9 823d ee52 bcbd de1a 16bd
00000390: 0a6b 31bd 599d 9cbc 1c17 b93a 70ac 183e
000003a0: d01f 463c 6d0b 223e efbb a13d 9527 a7bd
000003b0: 422a 6d3d 77e6 babd 741d 60bd 8f87 1b3d
000003c0: 4b9a 2e3d 675b c63d 353d d0bc 1ee8 853c
000003d0: 902b a93d eab1 ffbd ba34 e03d 1db0 24be
000003e0: c81a 603d ccd9 10be b893 d5bd 24c8 8b3c
000003f0: 3ca2 da3d 7793 1abd 5bf8 9cbd 4c91 43bd

critic.mlp.0.bias f4 [40]
0.14263697 -0.004151642 -0.06504281 0.023437552 -0.010751922 0.023785047 -0.047926534 -0.12589093
-0.087031595 -0.02096439 -0.050645817 0.07916458 0.009316315 -0.049423374 0.06169933 -0.13624884
-0.08350616 0.008023812 -0.1542812 0.09784102 0.004092354 -0.17720099 -0.14868566 0.006118854
0.036756694 -0.021353804 -0.08031859 -0.106018126 -0.03205481 0.051279902 0.02363584 0.02248262
-0.030499808 0.1561276 0.1365891 0.10499029 0.13894182 -0.091193266 -0.051297672 -0.014278567
00000000: 6d0f 123e 7f0a 88bb 2a35 85bd 1c00 c03c
00000010: d428 30bc dcd8 c23c 9d4e 44bd 8de9 00be
00000020: 9f3d b2bd 83bd abbc fd71 4fbd 0a21 a23d
00000030: 75a3 183c 2a70 4abd 70b8 7c3d d184 0bbe
00000040: 4705 abbd 4f76 033c e4fb 1dbe df60 c83d
00000050: 2719 863b 2d74 35be 0e41 18be ab80 c83b
00000060: 308e 163d 2cee aebc 137e a4bd 0820 d9bd
00000070: e84b 03bd e00a 523d f39f c13c 792d b83c
00000080: bcda f9bc eadf 1f3e 03de 0b3e 2605 d73d
00000090: c446 0e3e 89c3 babd 821d 52bd a7f0 69bc

critic.mlp.2.weight f4 [1, 40]
0.093199134 0.059969712 -0.17573702 -0.10737078 -0.18929562 0.112268105 -0.08599898 -0.19188535
-0.3286651 -0.083755285 0.06690563 0.16759762 -0.13469552 -0.058197334 0.11163678 -0.06610551
-0.19699273 0.0017590363 0.10110378 0.0644092 -0.0031072332 -0.017913373 0.10411611 -0.09344048
0.08408593 0.035519164 0.1209734 0.0007062269 -0.09902705 0.17680635 0.0770354 -0.10164293
-0.12471403 0.13805419 0.10950204 -0.2142095 0.13224632 -0.11304495 -0.20028168 0.069552325
00000000: 30df be3d cda2 753d 68f4 33be 36e5 dbbd
00000010: b6d6 41be d2ec e53d 3c20 b0bd 987d 44be
00000020: cb46 a8be e487 abbd d205 893d b69e 2b3e
00000030: 9fed 09be 5460 6ebd d3a1 e43d 5362 87bd
00000040: 76b8 49be 778f e63a 800f cf3d f8e8 833d
00000050: b9a2 4bbb 11bf 92bc d43a d53d b95d bfbd
00000060: 3e35 ac3d 8b7c 113d e7c0 f73d 1622 393a
00000070: b2ce cabd b90c 353e bcc4 9d3d 2b2a d0bd
00000080: 126a ffbd 145e 0d3e 9b42 e03d bc59 5bbe
00000090: 946b 073e 1c84 e7bd a416 4dbe 7371 8e3d
