evaluate_results/agent_logic_paper/checkpoints/step_616001.pth (torch, 12933 bytes, 4 tensors)

actor.im.W f4 [5, 5]
000000 ec a3 ee 3e d3 09 70 3d ef e0 e1 3e 7c 64 ca 3e
       0.46609437 0.05860312 0.44116923 0.39529788
000010 1c bf 2b bf d0 fc c6 3e 0e 3d 83 bc d1 e8 b9 3e
       -0.67088485 0.38864756 -0.016020324 0.36310437
000020 ac 00 a3 3e 37 8d 69 bf ac 28 92 3f a1 ac 6b 3f
       0.3183645 -0.912311 1.1418662 0.92060286
000030 5b 32 7e 3f 6e c3 80 3f dc 0c ac 3f 19 5d 45 3e
       0.99295586 1.005964 1.3441424 0.19273795
000040 f4 79 d4 3e bb de 23 3f 18 a8 3d 3f 15 5c 59 3f
       0.41499293 0.64011735 0.74084616 0.8490613
000050 b7 30 d4 3f 27 b0 23 3f 7f 64 cc 3f f2 5c c8 3f
       1.6577367 0.6394066 1.5968169 1.5653365
000060 bc f3 d4 3f
       1.6636882

critic.mlp.0.weight f4 [40, 60]
000000 b1 5f 7d ba 57 d5 8d 3d 18 38 ad bd 75 30 96 bd
       -0.0009665443 0.06925457 -0.08457965 -0.07333461
000010 2f c5 e5 bc 9e cc 0d 3d 02 9b 9c 3c 66 97 f3 3d
       -0.028048126 0.034618966 0.019116882 0.11894111
000020 65 f5 88 bd 78 0f c0 3d 59 49 47 bd 57 e2 cf bc
       -0.0668743 0.093779504 -0.048653934 -0.025376482
000030 0a 97 fc bd c2 1a af bd e1 fa 59 bd e1 b4 9c 3b
       -0.12333496 -0.085500255 -0.053217772 0.0047823046
000040 c1 0c 51 3d b7 a4 9e 3d a3 3e b3 bd db 44 66 bd
       0.051037554 0.077462606 -0.087521814 -0.05621801
000050 e9 10 40 3d 0c 8d db 3d 94 a6 d9 bc b3 d9 c5 3d
       0.046891127 0.10720262 -0.026568688 0.096606635
000060 f8 76 aa bc 77 d0 5f 3c 6b 67 ef 3d a3 45 f5 bd
       -0.020808682 0.013660542 0.11689647 -0.11976173
000070 75 72 a6 bd 20 df 05 bd 72 1f 4e bd 25 70 e4 3d
       -0.081273 -0.03268349 -0.050322957 0.11154202
000080 3a 60 ab bd 7e a3 1a bd d3 96 5a bd 75 3b cb bd
       -0.08367963 -0.037753575 -0.053366493 -0.0992345
000090 4e 2e be be 24 46 e3 3d d7 f4 6b 3d 34 25 80 3d
       -0.37144703 0.11097363 0.057606544 0.06257096
0000a0 cd 7a de 3b 22 8d 87 bd 6d 3e 32 3d b6 de 18 be
       0.0067895413 -0.06618716 0.043516565 -0.14928707
0000b0 33 a7 92 bd cc 4d 88 bd 37 d1 a6 3d 52 05 9b 3d
       -0.07160797 -0.066554636 0.08145373 0.07569374
0000c0 2e 84 6a bd f3 a3 98 bb da 18 a9 3d 04 ed bb 3e
       -0.057254963 -0.004658216 0.08256693 0.36704266
0000d0 bb e6 91 3d cb 24 83 3e 10 46 b1 3d 42 ad 9b bd
       0.071240865 0.25614008 0.086559415 -0.07601406
0000e0 ff 12 c5 3c c7 fc cc bd bc 3f b7 bd 1c 95 88 bd
       0.02405691 -0.10009151 -0.08947703 -0.06669065
0000f0 8a 43 6f 3d b0 a8 54 3d e2 38 a6 bd e8 89 0c 3d
       0.05841402 0.051918685 -0.08116318 0.034311205
000100 ff 89 87 3d 3c 7c 85 bc 48 21 7a 39 f1 9b ce 3c
       0.066181175 -0.016294591 0.00023854256 0.025220843
000110 3b 2c 9a 3d 44 2a 03 3e be 44 d7 bd 38 c9 41 bd
       0.075279675 0.12809092 -0.105111584 -0.047311038
000120 fa d1 4f 3d 9b 10 db 3d 3c 14 e6 3d 93 4a e9 3d
       0.05073736 0.106965266 0.11234328 0.11391177
000130 6e 79 d2 3c f4 e9 e5 bd 4f 94 42 3c 47 68 a5 bd
       0.025692668 -0.11226264 0.01187618 -0.0807653
000140 96 67 f6 bd df e9 ea 3d 2c 09 c9 3d fc de 03 be
       -0.12031476 0.114703886 0.098162025 -0.1287803
000150 2e f3 c5 3c 0f 29 b2 bc 7a 09 ae bc d0 0e 72 bd
       0.024163809 -0.021748094 -0.021244753 -0.059096158
000160 97 59 4b 3d 3c 9a 9c bd ae d9 41 3d 00 b5 85 3d
       0.049645986 -0.07646605 0.047326736 0.06528664
000170 f9 45 bd 3d f2 81 32 3d 1b 82 07 be 8b 1e b5 bd
       0.09241862 0.043580957 -0.13233225 -0.08843716
000180 2d 13 72 3d 7d 5a dd 3c 36 40 ce bd 82 3e 98 bd
       0.05910032 0.027020687 -0.10070841 -0.074337974
000190 e3 ba f8 3d 8f 27 b2 3d 9b c7 79 bd 5d 4d 18 bd
       0.12145021 0.086989515 -0.060981374 -0.037183154
0001a0 11 bc 02 be b6 12 18 bb 03 1b c7 bd 80 f1 cb bd
       -0.12767054 -0.0023204512 -0.09721949 -0.09958172
0001b0 ed 16 e9 bb 72 ca 9e 3c 5a 8e 58 bd 9a 47 93 3d
       -0.0071133287 0.019383643 -0.052870132 0.07191391
0001c0 7a 80 aa bd 4d 4c e6 3d b8 30 b5 3d d9 f5 de bd
       -0.08325286 0.11245022 0.08847183 -0.108867355
0001d0 9d 9b 03 bd 34 e2 be 3b 6e 4d 9a 3c d6 d4 fa 3c
       -0.032130826 0.0058253054 0.01883575 0.030619066
0001e0 3e 83 4f 3d c2 65 fd 3b 29 7b 0f bd 49 60 b6 3d
       0.05066227 0.0077330777 -0.035029564 0.08905084
0001f0 c4 5a c4 bd 86 b5 9c bd 2b ba 8e bb cc d1 c9 bc
       -0.09587625 -0.0765181 -0.004355689 -0.024636172
000200 74 7c 61 bd 82 1e b3 bd 0b b2 67 3c ab 10 e2 3c
       -0.05505033 -0.08746053 0.01414157 0.027595839
000210 a6 3e ac bd 0d 19 d9 bb 92 44 bd 3d 84 70 59 bc
       -0.08410387 -0.0066253007 0.092415944 -0.013271455
000220 f9 23 6b 3b 16 79 36 bc f7 08 d6 3c fa 1c a8 3d
       0.0035879596 -0.011137268 0.026127322 0.08208652
000230 a2 72 fa 3d f1 e7 a7 3d 54 05 fb 3d e5 f8 18 bc
       0.12228896 0.08198536 0.12256876 -0.009336685
000240 27 83 ed bd 1c b0 7a bd 44 07 b4 3d 64 62 5b ba
       -0.11597281 -0.061203107 0.08790448 -0.00083688484
000250 ba 6a 83 bd 09 9c ca bd 6b 6f f7 bd f1 26 df bd
       -0.06416841 -0.098930426 -0.12081798 -0.10896099
000260 42 84 d6 bc 4c 43 ca 3d 16 a3 34 3d 9d b9 c5 bd
       -0.026186112 0.09876117 0.044100843 -0.096545435
000270 20 0c b6 3e 61 e4 ce bd 77 95 df bc 11 69 56 bd
       0.35556126 -0.101021536 -0.02729295 -0.052346293
000280 e2 b4 cb bc 0d a6 cf bc 17 fd b3 bd c6 54 30 be
       -0.024866525 -0.025347734 -0.087885074 -0.17219839
000290 f9 4a fe 3b 61 d4 da 3a 74 37 70 bd fd 31 47 3d
       0.0077604023 0.0016695374 -0.058646634 0.048631657
0002a0 b6 f8 ed bd 26 bf 0e bc c2 83 e8 3d 70 71 a8 bc
       -0.116197035 -0.0087125655 0.11353256 -0.020561904
0002b0 6c 65 73 3e 7d 7c a1 3d 54 9b ee bd 4d 48 a7 3d
       0.23769158 0.078850724 -0.1165072 0.08168087
0002c0 11 14 74 bc 5a 0e 6c bd c4 6c d3 3d 29 a8 d5 bd
       -0.014897362 -0.057630874 0.1032348 -0.10432465
0002d0 b9 f7 62 3c ba 6c dd bc 51 7e ed 3c 7c 85 de bc
       0.013853007 -0.027029384 0.028990896 -0.02716326
0002e0 e0 13 99 ba 55 bf 3a 3d e0 03 c1 bd 60 82 79 bd
       -0.0011678897 0.045592625 -0.09424567 -0.06091535
0002f0 de c9 68 bd df 07 bc 3d 3d 73 d6 3c f5 e7 b4 3d
       -0.05683314 0.09181189 0.026177997 0.08833305
000300 bc 7f ba bd 1b ac bc 3b ab 61 ba bd ae 8b 91 bd
       -0.09106395 0.0057578213 -0.0910066 -0.0710672
000310 97 10 9a bd 39 b6 34 3d 8e 8e 9d bd 87 96 38 bb
       -0.075226955 0.044119094 -0.07693206 -0.0028165893
000320 4a f6 b1 3b 7f 6f aa 3d ab dc c7 bd c7 82 b5 bd
       0.0054309713 0.083220474 -0.09758886 -0.088628344
000330 3e 86 99 bd 32 0f b9 3d fc 14 3e bd c7 03 df 3d
       -0.07496308 0.090361014 -0.04640673 0.10889392
000340 06 37 3f 3d e0 ea 85 3c eb ec 7b ba 88 10 d1 bc
       0.046683334 0.016347349 -0.00096101937 -0.025520578
000350 e7 b0 84 3c df ce bd bd bb b6 7c 3c 6f 66 3f bd
       0.016197635 -0.09267973 0.015424426 -0.046728548
000360 57 1a 57 be fd 93 8a bd 61 7f d5 3d c6 91 d6 bd
       -0.21006142 -0.06766508 0.10424686 -0.10477023
000370 c8 e1 17 bc 74 c6 02 3e a8 b3 87 bc f6 47 b5 3d
       -0.009270139 0.12771016 -0.016565159 0.08851616
000380 25 48 33 be cc f9 82 3d ee 52 bc bd de 1a 16 bd
       -0.1750799 0.06395301 -0.09195505 -0.036646716
000390 0a 6b 31 bd 59 9d 9c bc 1c 17 b9 3a 90 f3 3d 3e
       -0.04331497 -0.019117998 0.0014121267 0.18549943
0003a0 67 98 08 3c 8a 52 47 3e ef bb a1 3d 95 27 a7 bd
       0.008337117 0.1946508 0.078971736 -0.081618465
0003b0 42 2a 6d 3d 77 e6 ba bd 74 1d 60 bd 8f 87 1b 3d
       0.05790163 -0.09125989 -0.05471559 0.037971076
0003c0 4b 9a 2e 3d 67 5b c6 3d 89 65 b2 bc b8 bf a3 3c
       0.042627614 0.09685402 -0.021776931 0.01998888
0003d0 87 a1 b0 3d ea b1 ff bd ac aa e7 3d 6a 82 36 be
       0.08624559 -0.12485106 0.1131185 -0.17823187
0003e0 ca 51 25 3d 8a a1 ac bd 3a 75 8d bd 24 c8 8b 3c
       0.040361203 -0.08429249 -0.06907125 0.017063208
0003f0 3c a2 da 3d 77 93 1a bd 5b f8 9c bd 4c 91 43 bd
       0.10675475 -0.03773829 -0.076645575 -0.047745988

critic.mlp.0.bias f4 [40]
000000 50 f0 15 3e 7f 0a 88 bb da 7e 4b bd 0c af 35 3c
       0.14642453 -0.004151642 -0.049681522 0.011089098
000010 59 f3 e8 bb f9 6b 16 3d 6f c4 5a bd 72 9f fc bd
       -0.0071090874 0.036724064 -0.05340999 -0.12335099
000020 0c 92 ae bd 83 bd ab bc 97 3f 5d bd b5 5b a8 3d
       -0.0852395 -0.02096439 -0.054015722 0.08220617
000030 52 3a b5 3b 2a 70 4a bd 8e cd 7f 3d 89 4e 14 be
       0.005530634 -0.049423374 0.06245189 -0.14483084
000040 05 e8 9b bd 5c d3 b9 bc 28 08 2e be 48 a8 c8 3d
       -0.076126136 -0.022683792 -0.16995299 0.09797722
000050 c9 a1 08 bd 8b a8 47 be 0e 41 18 be 06 cb 9b 3b
       -0.033357415 -0.19497888 -0.14868566 0.004754427
000060 30 8e 16 3d 48 1f aa bc bd fe c5 bd ee ed e9 bd
       0.036756694 -0.02076687 -0.09667728 -0.114223346
000070 7e 7a 6f bd 42 a2 56 3d 3d b6 b0 3c 4f fe 07 3d
       -0.058466427 0.052400835 0.021571273 0.033201512
000080 62 27 84 bd b6 c1 2f 3e 31 e8 0e 3e e2 93 ef 3d
       -0.06452824 0.17163739 0.13955761 0.11698128
000090 67 6d 13 3e b8 b4 d4 bd c0 0a 72 bd a7 f0 69 bc
       0.14397202 -0.10386032 -0.059092283 -0.014278567

critic.mlp.2.weight f4 [1, 40]
000000 2b be f3 3d cd a2 75 3d 3b b0 43 be 96 c6 b1 bd
       0.11901506 0.059969712 -0.19110195 -0.086804554
000010 a9 6c 4f be 12 84 b1 3d 78 d3 a1 bd e6 36 77 be
       -0.20256294 0.086677685 -0.079016626 -0.24142036
000020 fe 66 ac be e4 87 ab bd 7f c4 cc 3d 2b 93 20 3e
       -0.33672327 -0.083755285 0.09998416 0.1568114
000030 63 4c fb bd 54 60 6e bd c4 e7 d4 3d ea e5 43 bd
       -0.12270429 -0.058197334 0.10395768 -0.047826685
000040 b2 00 32 be b5 2a 51 bb 85 e1 44 3d 02 47 83 3d
       -0.17383078 -0.0031916325 0.048066635 0.06410028
000050 37 06 24 bb 4f e0 05 bd d4 3a d5 3d 73 9a 72 bd
       -0.0025028118 -0.03268462 0.10411611 -0.059229326
000060 3e 35 ac 3d 99 61 e0 3c ac 05 e5 3d 90 ac d3 b2
       0.08408593 0.027390288 0.111827224 -2.4642105e-08
000070 0f 5d 5a bd a4 6a 4c 3e f2 19 9d 3d f1 0f 6a bd
       -0.053311404 0.19962555 0.07670964 -0.05714411
000080 f7 83 c6 bd bd 35 0e 3e da 5d c5 3d ae 1b 38 be
       -0.09693139 0.13887687 0.096370414 -0.17979309
000090 c8 c0 d6 3d d6 3b e5 bd 08 9a 4c be 73 71 8e 3d
       0.10485989 -0.111930534 -0.19980633 0.069552325
