evaluate_results/agent_logic_paper/checkpoints/step_218001.pth (torch, 12933 bytes, 4 tensors)

actor.im.W f4 [5, 5]
000000 b1 ab 9c 3f c4 8b a1 be 81 6f 9c 3e e2 6c 91 3e
       1.2239896 -0.31551945 0.3055382 0.28403383
000010 bb a4 73 bf e0 9c 91 3f 39 45 ca be 43 b6 67 3e
       -0.95173234 1.1376 -0.39505938 0.22628121
000020 92 4f 4f 3e 3b b2 9c bf a6 6b 96 3f 45 ba 1a 3f
       0.20245197 -1.2241892 1.1751602 0.60440475
000030 8b 8b 7b 3f 60 a1 73 3f bf 72 d0 3f 29 25 d2 3e
       0.982598 0.95168114 1.6285018 0.41043976
000040 4b a4 fc 3d 13 ce 29 3f d2 ed 1a 3f 42 33 93 3f
       0.12336024 0.6633007 0.60519135 1.1500018
000050 79 f0 0f 40 c2 d9 29 3c 61 9f 40 3f 98 50 a2 3f
       2.2490523 0.010366859 0.7524319 1.2680845
000060 9e c9 c4 3f
       1.5374029

critic.mlp.0.weight f4 [40, 60]
000000 b1 5f 7d ba 57 d5 8d 3d 60 cd c1 bd b2 c5 aa bd
       -0.0009665443 0.06925457 -0.09463 -0.08338489
000010 0f 0d 1c bd 9e cc 0d 3d 3d 8c 14 3c e6 c4 f6 3d
       -0.03809839 0.034618966 0.009066639 0.12049274
000020 a9 ad 8c bc 6f cf ce 3d 82 25 5a bd 57 e2 cf bc
       -0.017172651 0.100981586 -0.053258426 -0.025376482
000030 0a 97 fc bd c2 1a af bd e1 fa 59 bd e1 b4 9c 3b
       -0.12333496 -0.085500255 -0.053217772 0.0047823046
000040 c1 0c 51 3d b7 a4 9e 3d a3 3e b3 bd db 44 66 bd
       0.051037554 0.077462606 -0.087521814 -0.05621801
000050 e9 10 40 3d 0c 8d db 3d 94 a6 d9 bc b3 d9 c5 3d
       0.046891127 0.10720262 -0.026568688 0.096606635
000060 f8 76 aa bc 77 d0 5f 3c 6b 67 ef 3d a3 45 f5 bd
       -0.020808682 0.013660542 0.11689647 -0.11976173
000070 75 72 a6 bd 20 df 05 bd 72 1f 4e bd 25 70 e4 3d
       -0.081273 -0.03268349 -0.050322957 0.11154202
000080 3a 60 ab bd 1a ce 43 bd 75 ea 5b bd b0 d0 df bd
       -0.08367963 -0.047803976 -0.053690393 -0.10928476
000090 79 ac 26 be 24 46 e3 3d d7 f4 6b 3d 34 25 80 3d
       -0.1627673 0.11097363 0.057606544 0.06257096
0000a0 cd 7a de 3b 22 8d 87 bd df 13 09 3d cc 76 30 be
       0.0067895413 -0.06618716 0.033466216 -0.17232817
0000b0 74 3c a7 bd cc 4d 88 bd 37 d1 a6 3d 52 05 9b 3d
       -0.081658274 -0.066554636 0.08145373 0.07569374
0000c0 2e 84 6a bd f3 a3 98 bb da 18 a9 3d 17 ae 4f 3e
       -0.057254963 -0.004658216 0.08256693 0.20281254
0000d0 62 b9 7f 3d ae 3b bc 3d 10 46 b1 3d 42 ad 9b bd
       0.062432654 0.091910705 0.086559415 -0.07601406
0000e0 ff 12 c5 3c c7 fc cc bd bc 3f b7 bd 1c 95 88 bd
       0.02405691 -0.10009151 -0.08947703 -0.06669065
0000f0 8a 43 6f 3d b0 a8 54 3d e2 38 a6 bd e8 89 0c 3d
       0.05841402 0.051918685 -0.08116318 0.034311205
000100 ff 89 87 3d 3c 7c 85 bc 48 21 7a 39 f1 9b ce 3c
       0.066181175 -0.016294591 0.00023854256 0.025220843
000110 3b 2c 9a 3d 44 2a 03 3e be 44 d7 bd 38 c9 41 bd
       0.075279675 0.12809092 -0.105111584 -0.047311038
000120 fa d1 4f 3d 9b 10 db 3d 3c 14 e6 3d 93 4a e9 3d
       0.05073736 0.106965266 0.11234328 0.11391177
000130 6e 79 d2 3c f4 e9 e5 bd 4f 94 42 3c 47 68 a5 bd
       0.025692668 -0.11226264 0.01187618 -0.0807653
000140 96 67 f6 bd df e9 ea 3d 2c 09 c9 3d fc de 03 be
       -0.12031476 0.114703886 0.098162025 -0.1287803
000150 2e f3 c5 3c 0f 29 b2 bc 7a 09 ae bc d0 0e 72 bd
       0.024163809 -0.021748094 -0.021244753 -0.059096158
000160 97 59 4b 3d 3c 9a 9c bd ae d9 41 3d 00 b5 85 3d
       0.049645986 -0.07646605 0.047326736 0.06528664
000170 f9 45 bd 3d f2 81 32 3d 1b 82 07 be 8b 1e b5 bd
       0.09241862 0.043580957 -0.13233225 -0.08843716
000180 2d 13 72 3d 7d 5a dd 3c 36 40 ce bd 82 3e 98 bd
       0.05910032 0.027020687 -0.10070841 -0.074337974
000190 e3 ba f8 3d 8f 27 b2 3d 9b c7 79 bd 5d 4d 18 bd
       0.12145021 0.086989515 -0.060981374 -0.037183154
0001a0 11 bc 02 be b6 12 18 bb 03 1b c7 bd 80 f1 cb bd
       -0.12767054 -0.0023204512 -0.09721949 -0.09958172
0001b0 ed 16 e9 bb 72 ca 9e 3c 5a 8e 58 bd 9a 47 93 3d
       -0.0071133287 0.019383643 -0.052870132 0.07191391
0001c0 7a 80 aa bd 4d 4c e6 3d b8 30 b5 3d d9 f5 de bd
       -0.08325286 0.11245022 0.08847183 -0.108867355
0001d0 9d 9b 03 bd 34 e2 be 3b 6e 4d 9a 3c d6 d4 fa 3c
       -0.032130826 0.0058253054 0.01883575 0.030619066
0001e0 3e 83 4f 3d c2 65 fd 3b 47 d8 40 bd 7b b1 9d 3d
       0.05066227 0.0077330777 -0.04708126 0.07699867
0001f0 82 09 dd bd 86 b5 9c bd 99 68 86 bc 13 e7 bb bd
       -0.10792829 -0.0765181 -0.016407298 -0.09174933
000200 a9 2b 07 bd 91 e1 83 3d a6 50 58 bd ab 10 e2 3c
       -0.033000622 0.06439508 -0.052811287 0.027595839
000210 a6 3e ac bd 0d 19 d9 bb 92 44 bd 3d 84 70 59 bc
       -0.08410387 -0.0066253007 0.092415944 -0.013271455
000220 f9 23 6b 3b 16 79 36 bc f7 08 d6 3c fa 1c a8 3d
       0.0035879596 -0.011137268 0.026127322 0.08208652
000230 a2 72 fa 3d f1 e7 a7 3d 54 05 fb 3d e5 f8 18 bc
       0.12228896 0.08198536 0.12256876 -0.009336685
000240 27 83 ed bd 1c b0 7a bd 44 07 b4 3d 64 62 5b ba
       -0.11597281 -0.061203107 0.08790448 -0.00083688484
000250 ba 6a 83 bd 09 9c ca bd 6b 6f f7 bd f1 26 df bd
       -0.06416841 -0.098930426 -0.12081798 -0.10896099
000260 42 84 d6 bc 8b 94 b1 3d fe c0 5d 3d 5f 68 de bd
       -0.026186112 0.086709104 0.05413913 -0.10859751
000270 a3 61 6c 3e 61 e4 ce bd 77 95 df bc 11 69 56 bd
       0.2308412 -0.101021536 -0.02729295 -0.052346293
000280 e2 b4 cb bc 0d a6 cf bc e4 ab cc bd 25 d3 be bd
       -0.024866525 -0.025347734 -0.09993723 -0.093176164
000290 8d 9d 8c bb 61 d4 da 3a 74 37 70 bd fd 31 47 3d
       -0.0042912425 0.0016695374 -0.058646634 0.048631657
0002a0 b6 f8 ed bd 26 bf 0e bc c2 83 e8 3d 9a 95 05 bd
       -0.116197035 -0.0087125655 0.11353256 -0.032613374
0002b0 57 1f 63 3e fb cd 88 3d 54 9b ee bd 4d 48 a7 3d
       0.22179924 0.06679913 -0.1165072 0.08168087
0002c0 11 14 74 bc 5a 0e 6c bd c4 6c d3 3d 29 a8 d5 bd
       -0.014897362 -0.057630874 0.1032348 -0.10432465
0002d0 b9 f7 62 3c ba 6c dd bc 2c f4 18 3d 53 1b 9a bc
       0.013853007 -0.027029384 0.037342235 -0.018811857
0002e0 f1 63 eb 3b 55 bf 3a 3d 72 e9 af bd 4c d4 62 bd
       0.007183545 0.045592625 -0.08589448 -0.055378243
0002f0 b1 20 d2 bd ff 91 9b 3d bc bd 58 3d f5 e7 b4 3d
       -0.10260142 0.07596206 0.05291532 0.08833305
000300 bc 7f ba bd 1b ac bc 3b ab 61 ba bd ae 8b 91 bd
       -0.09106395 0.0057578213 -0.0910066 -0.0710672
000310 97 10 9a bd 39 b6 34 3d 8e 8e 9d bd 87 96 38 bb
       -0.075226955 0.044119094 -0.07693206 -0.0028165893
000320 4a f6 b1 3b 7f 6f aa 3d ab dc c7 bd c7 82 b5 bd
       0.0054309713 0.083220474 -0.09758886 -0.088628344
000330 3e 86 99 bd 32 0f b9 3d fc 14 3e bd c7 03 df 3d
       -0.07496308 0.090361014 -0.04640673 0.10889392
000340 06 37 3f 3d e0 ea 85 3c eb ec 7b ba 88 10 d1 bc
       0.046683334 0.016347349 -0.00096101937 -0.025520578
000350 e7 b0 84 3c 7c b4 ac bd 03 6e e0 3b 5f 31 1d bd
       0.016197635 -0.08432862 0.006849052 -0.038377162
000360 a4 2b 13 be fd 93 8a bd 61 7f d5 3d c6 91 d6 bd
       -0.14372116 -0.06766508 0.10424686 -0.10477023
000370 c8 e1 17 bc 74 c6 02 3e 00 93 06 bc 58 e8 77 3d
       -0.009270139 0.12771016 -0.0082137585 0.060524315
000380 d9 ba 2a be cc f9 82 3d ee 52 bc bd de 1a 16 bd
       -0.16672839 0.06395301 -0.09195505 -0.036646716
000390 0a 6b 31 bd 59 9d 9c bc 1c 17 b9 3a ae 9c 13 3e
       -0.04331497 -0.019117998 0.0014121267 0.14415237
0003a0 d5 64 89 3b ac fb 1c 3e ef bb a1 3d 95 27 a7 bd
       0.0041929283 0.1533038 0.078971736 -0.081618465
0003b0 42 2a 6d 3d 77 e6 ba bd 74 1d 60 bd 8f 87 1b 3d
       0.05790163 -0.09125989 -0.05471559 0.037971076
0003c0 4b 9a 2e 3d 67 5b c6 3d b7 57 db bc 31 9b 75 3c
       0.042627614 0.09685402 -0.026775224 0.014990614
0003d0 f8 64 a6 3d ea b1 ff bd 21 6e dd 3d ed 12 1e be
       0.08124727 -0.12485106 0.10812021 -0.15436907
0003e0 ba 7a 4c 3d 9b 1e 02 be 53 4a cc bd 24 c8 8b 3c
       0.04992173 -0.12706988 -0.09975114 0.017063208
0003f0 3c a2 da 3d 77 93 1a bd 5b f8 9c bd 4c 91 43 bd
       0.10675475 -0.03773829 -0.076645575 -0.047745988

critic.mlp.0.bias f4 [40]
000000 d8 a5 0b 3e 7f 0a 88 bb ea db 7c bd d3 41 9f 3c
       0.13637483 -0.004151642 -0.061733164 0.019440567
000010 cc 5d 46 bc 88 b3 94 3c 2b af 49 bd 64 61 ff bd
       -0.012107324 0.018152013 -0.04923932 -0.12469748
000020 79 07 ae bd 83 bd ab bc cd b7 22 bd 15 e9 9c 3d
       -0.08497519 -0.02096439 -0.039726067 0.07661644
000030 d1 db d8 3b 2a 70 4a bd f0 ff 7a 3d 90 59 04 be
       0.006618001 -0.049423374 0.061279237 -0.1292479
000040 1e aa a2 bd 1a 37 55 3c db 2b 1b be ac 1f aa 3d
       -0.079426035 0.0130136255 -0.15153448 0.08306822
000050 b9 d9 94 3c 0c 6b 2a be 0e 41 18 be a3 40 97 bb
       0.018170225 -0.16642398 -0.14868566 -0.0046158596
000060 be 4d 30 3d 10 13 b2 bc 1a 6e 8c bd c3 14 ce bd
       0.04304289 -0.021737605 -0.06856938 -0.10062554
000070 9d 51 b1 bc 26 ec 5e 3d f7 5a bf 3c 88 8f 77 3b
       -0.021645362 0.054424427 0.023358805 0.003777476
000080 20 ad cc bc 2d 0a 1b 3e 3c 06 0b 3e b0 c9 da 3d
       -0.024984896 0.151406 0.13576597 0.10683
000090 15 24 0b 3e 51 75 c1 bd bf 32 5a bd a7 f0 69 bc
       0.13587983 -0.094462045 -0.05327105 -0.014278567

critic.mlp.2.weight f4 [1, 40]
000000 59 00 d0 3d cd a2 75 3d 89 f5 34 be 89 91 d9 bd
       0.10156316 0.059969712 -0.17671789 -0.10623462
000010 c8 8e 3a be a0 3c ec 3d 82 40 a5 bd 0b 0d 33 be
       -0.18218529 0.11535001 -0.080689445 -0.17485444
000020 c0 04 a8 be e4 87 ab bd 80 7d 8f 3d 78 49 24 3e
       -0.32816124 -0.083755285 0.07006359 0.16043651
000030 af 98 04 be 54 60 6e bd be 35 e5 3d b3 54 89 bd
       -0.12948869 -0.058197334 0.11191891 -0.06705608
000040 51 ee 4c be e4 ab 49 bb 20 c7 d1 3d 30 88 3a 3d
       -0.20012785 -0.003077262 0.10243058 0.045540035
000050 aa 9d 22 3b eb 0e 80 bc d4 3a d5 3d a0 97 c3 bd
       0.0024813213 -0.015632113 0.10411611 -0.095504045
000060 62 49 af 3d 51 bb 16 3d 7c 18 04 3e 97 ea f2 ba
       0.085589185 0.036799733 0.12899965 -0.0018533048
000070 3e fd c6 bd 9d 20 34 3e d8 be 9d 3d 47 4d b2 bd
       -0.09716271 0.17590566 0.07702416 -0.08706146
000080 36 e0 fc bd 2f b0 11 3e 68 5d e5 3d d9 85 51 be
       -0.12347452 0.14227365 0.111994565 -0.20461215
000090 94 b1 0c 3e 78 f7 da bd 11 1e 4f be 73 71 8e 3d
       0.13739616 -0.10691732 -0.20226313 0.069552325
