evaluate_results/agent_logic_paper/checkpoints/step_102001.pth (torch, 12933 bytes, 4 tensors)

actor.im.W f4 [5, 5]
000000 aa 64 07 40 bd c7 14 bf 8f ba 52 bf b6 a8 54 bf
       2.115519 -0.58117276 -0.82315916 -0.8306993
000010 1e 00 13 c0 10 ae 07 40 13 68 66 bf 75 cf 3d bf
       -2.2968822 2.119999 -0.90002555 -0.7414468
000020 3b 14 3e bf b4 bb 16 c0 c3 a1 88 3f 94 4c 46 3f
       -0.7424962 -2.3552065 1.0674366 0.774606
000030 62 28 5d 3f 80 cf 4c 3f f5 14 cd 3f 0c 9a b9 3e
       0.86389744 0.8000412 1.602202 0.3625034
000040 9e a9 a8 3e a8 82 e6 3e fb 4e 1d 3f 70 32 99 3f
       0.32941908 0.45021558 0.6144864 1.1968517
000050 b9 c0 48 40 69 47 3b bf 2a d6 af be 10 c7 1c 3f
       3.1367629 -0.7315584 -0.34343082 0.61241245
000060 1a 12 23 3f
       0.63699496

critic.mlp.0.weight f4 [40, 60]
000000 b1 5f 7d ba 57 d5 8d 3d 6e a1 fe bd a7 99 e7 bd
       -0.0009665443 0.06925457 -0.12433134 -0.11308604
000010 ae da 8a bd 9e cc 0d 3d cc 09 a9 bc fb 5f b0 3d
       -0.06779991 0.034618966 -0.020634554 0.08612057
000020 45 93 d4 bc 8d 9e 34 3e 51 51 3e bd 57 e2 cf bc
       -0.02594913 0.17638607 -0.046464268 -0.025376482
000030 0a 97 fc bd c2 1a af bd e1 fa 59 bd e1 b4 9c 3b
       -0.12333496 -0.085500255 -0.053217772 0.0047823046
000040 c1 0c 51 3d b7 a4 9e 3d a3 3e b3 bd db 44 66 bd
       0.051037554 0.077462606 -0.087521814 -0.05621801
000050 e9 10 40 3d 0c 8d db 3d 94 a6 d9 bc b3 d9 c5 3d
       0.046891127 0.10720262 -0.026568688 0.096606635
000060 f8 76 aa bc 77 d0 5f 3c 6b 67 ef 3d a3 45 f5 bd
       -0.020808682 0.013660542 0.11689647 -0.11976173
000070 75 72 a6 bd 20 df 05 bd 72 1f 4e bd 25 70 e4 3d
       -0.081273 -0.03268349 -0.050322957 0.11154202
000080 3a 60 ab bd 1f bb 9e bd ea 60 b3 bd 5f 52 0e be
       -0.08367963 -0.07750534 -0.08758719 -0.1389861
000090 f9 02 05 be 24 46 e3 3d d7 f4 6b 3d 34 25 80 3d
       -0.12989415 0.11097363 0.057606544 0.06257096
0000a0 cd 7a de 3b 22 8d 87 bd 92 bc 76 3b 86 b0 18 be
       0.0067895413 -0.06618716 0.0037649018 -0.14911088
0000b0 81 10 e4 bd cc 4d 88 bd 37 d1 a6 3d 52 05 9b 3d
       -0.1113596 -0.066554636 0.08145373 0.07569374
0000c0 2e 84 6a bd f3 a3 98 bb da 18 a9 3d 9b ca d8 3d
       -0.057254963 -0.004658216 0.08256693 0.10585519
0000d0 28 66 35 3d b3 5b a5 bb 10 46 b1 3d 42 ad 9b bd
       0.044286877 -0.005046332 0.086559415 -0.07601406
0000e0 ff 12 c5 3c c7 fc cc bd bc 3f b7 bd 1c 95 88 bd
       0.02405691 -0.10009151 -0.08947703 -0.06669065
0000f0 8a 43 6f 3d b0 a8 54 3d e2 38 a6 bd e8 89 0c 3d
       0.05841402 0.051918685 -0.08116318 0.034311205
000100 ff 89 87 3d 3c 7c 85 bc 48 21 7a 39 f1 9b ce 3c
       0.066181175 -0.016294591 0.00023854256 0.025220843
000110 3b 2c 9a 3d 44 2a 03 3e be 44 d7 bd 38 c9 41 bd
       0.075279675 0.12809092 -0.105111584 -0.047311038
000120 fa d1 4f 3d 9b 10 db 3d 3c 14 e6 3d 93 4a e9 3d
       0.05073736 0.106965266 0.11234328 0.11391177
000130 6e 79 d2 3c f4 e9 e5 bd 4f 94 42 3c 47 68 a5 bd
       0.025692668 -0.11226264 0.01187618 -0.0807653
000140 96 67 f6 bd df e9 ea 3d 2c 09 c9 3d fc de 03 be
       -0.12031476 0.114703886 0.098162025 -0.1287803
000150 2e f3 c5 3c 0f 29 b2 bc 7a 09 ae bc d0 0e 72 bd
       0.024163809 -0.021748094 -0.021244753 -0.059096158
000160 97 59 4b 3d 3c 9a 9c bd ae d9 41 3d 00 b5 85 3d
       0.049645986 -0.07646605 0.047326736 0.06528664
000170 f9 45 bd 3d f2 81 32 3d 1b 82 07 be 8b 1e b5 bd
       0.09241862 0.043580957 -0.13233225 -0.08843716
000180 2d 13 72 3d 7d 5a dd 3c 36 40 ce bd 82 3e 98 bd
       0.05910032 0.027020687 -0.10070841 -0.074337974
000190 e3 ba f8 3d 8f 27 b2 3d 9b c7 79 bd 5d 4d 18 bd
       0.12145021 0.086989515 -0.060981374 -0.037183154
0001a0 11 bc 02 be b6 12 18 bb 03 1b c7 bd 80 f1 cb bd
       -0.12767054 -0.0023204512 -0.09721949 -0.09958172
0001b0 ed 16 e9 bb 72 ca 9e 3c 5a 8e 58 bd 9a 47 93 3d
       -0.0071133287 0.019383643 -0.052870132 0.07191391
0001c0 7a 80 aa bd 4d 4c e6 3d b8 30 b5 3d d9 f5 de bd
       -0.08325286 0.11245022 0.08847183 -0.108867355
0001d0 9d 9b 03 bd 34 e2 be 3b 6e 4d 9a 3c d6 d4 fa 3c
       -0.032130826 0.0058253054 0.01883575 0.030619066
0001e0 3e 83 4f 3d c2 65 fd 3b 99 1f 5e bd bc 0d 8f 3d
       0.05066227 0.0077330777 -0.054229353 0.069850415
0001f0 41 ad eb bd 86 b5 9c bd 58 f7 c0 bc 19 8f 97 bd
       -0.11507655 -0.0765181 -0.023555443 -0.074003406
000200 49 d4 11 bd 84 ed 32 3d f4 9c 12 bd ab 10 e2 3c
       -0.03560284 0.043683544 -0.035794213 0.027595839
000210 a6 3e ac bd 0d 19 d9 bb 92 44 bd 3d 84 70 59 bc
       -0.08410387 -0.0066253007 0.092415944 -0.013271455
000220 f9 23 6b 3b 16 79 36 bc f7 08 d6 3c fa 1c a8 3d
       0.0035879596 -0.011137268 0.026127322 0.08208652
000230 a2 72 fa 3d f1 e7 a7 3d 54 05 fb 3d e5 f8 18 bc
       0.12228896 0.08198536 0.12256876 -0.009336685
000240 27 83 ed bd 1c b0 7a bd 44 07 b4 3d 64 62 5b ba
       -0.11597281 -0.061203107 0.08790448 -0.00083688484
000250 ba 6a 83 bd 09 9c ca bd 6b 6f f7 bd f1 26 df bd
       -0.06416841 -0.098930426 -0.12081798 -0.10896099
000260 42 84 d6 bc cf f0 a2 3d e3 04 54 3d 21 0c ed bd
       -0.026186112 0.07956087 0.051762473 -0.11574579
000270 8a 9a 75 3e 61 e4 ce bd 77 95 df bc 11 69 56 bd
       0.23984733 -0.101021536 -0.02729295 -0.052346293
000280 e2 b4 cb bc 0d a6 cf bc 9b 4f db bd 4a 65 b5 bd
       -0.024866525 -0.025347734 -0.10708543 -0.0885721
000290 6a 6c 3b bc 61 d4 da 3a 74 37 70 bd fd 31 47 3d
       -0.011439422 0.0016695374 -0.058646634 0.048631657
0002a0 b6 f8 ed bd 26 bf 0e bc c2 83 e8 3d 18 df 22 bd
       -0.116197035 -0.0087125655 0.11353256 -0.03976354
0002b0 ce 4c 48 3e 6b 52 74 3d 54 9b ee bd 4d 48 a7 3d
       0.19560549 0.059648912 -0.1165072 0.08168087
0002c0 11 14 74 bc 5a 0e 6c bd c4 6c d3 3d 29 a8 d5 bd
       -0.014897362 -0.057630874 0.1032348 -0.10432465
0002d0 b9 f7 62 3c ba 6c dd bc dc 47 80 3d 6d 6e d4 3b
       0.013853007 -0.027029384 0.06263706 0.0064828903
0002e0 0a 08 05 3d 55 bf 3a 3d 5f 37 78 bd 8e 8f 0f bd
       0.03247837 0.045592625 -0.06059968 -0.035049014
0002f0 ea ca ed bd bd 66 a4 3d fc 8b 8c 3d f5 e7 b4 3d
       -0.116109684 0.08027408 0.068626374 0.08833305
000300 bc 7f ba bd 1b ac bc 3b ab 61 ba bd ae 8b 91 bd
       -0.09106395 0.0057578213 -0.0910066 -0.0710672
000310 97 10 9a bd 39 b6 34 3d 8e 8e 9d bd 87 96 38 bb
       -0.075226955 0.044119094 -0.07693206 -0.0028165893
000320 4a f6 b1 3b 7f 6f aa 3d ab dc c7 bd c7 82 b5 bd
       0.0054309713 0.083220474 -0.09758886 -0.088628344
000330 3e 86 99 bd 32 0f b9 3d fc 14 3e bd c7 03 df 3d
       -0.07496308 0.090361014 -0.04640673 0.10889392
000340 06 37 3f 3d e0 ea 85 3c eb ec 7b ba 88 10 d1 bc
       0.046683334 0.016347349 -0.00096101937 -0.025520578
000350 e7 b0 84 3c 5d cd 71 bd d6 27 1f b9 71 57 56 bc
       0.016197635 -0.05903374 -0.00015178262 -0.013082371
000360 82 ee 10 be fd 93 8a bd 61 7f d5 3d c6 91 d6 bd
       -0.14153484 -0.06766508 0.10424686 -0.10477023
000370 c8 e1 17 bc 74 c6 02 3e 74 ed 8b 3c 0d fd 1a 3d
       -0.009270139 0.12771016 0.017081 0.037838984
000380 f4 d3 10 be cc f9 82 3d ee 52 bc bd de 1a 16 bd
       -0.14143354 0.06395301 -0.09195505 -0.036646716
000390 0a 6b 31 bd 59 9d 9c bc 1c 17 b9 3a 60 dd 10 3e
       -0.04331497 -0.019117998 0.0014121267 0.14146948
0003a0 3d e0 f6 3b 5e 3c 1a 3e ef bb a1 3d 95 27 a7 bd
       0.0075340555 0.15062091 0.078971736 -0.081618465
0003b0 42 2a 6d 3d 77 e6 ba bd 74 1d 60 bd 8f 87 1b 3d
       0.05790163 -0.09125989 -0.05471559 0.037971076
0003c0 4b 9a 2e 3d 67 5b c6 3d b8 b9 ce bc a9 6b 87 3c
       0.042627614 0.09685402 -0.025235042 0.016530829
0003d0 81 8c a9 3d ea b1 ff bd a8 95 e0 3d 3f fb 09 be
       0.08278752 -0.12485106 0.10966045 -0.13474749
0003e0 4c ee ff 3c 26 a6 a8 bd 68 40 51 bd 24 c8 8b 3c
       0.031241558 -0.08234815 -0.051086813 0.017063208
0003f0 3c a2 da 3d 77 93 1a bd 5b f8 9c bd 4c 91 43 bd
       0.10675475 -0.03773829 -0.076645575 -0.047745988

critic.mlp.0.bias f4 [40]
000000 c6 77 da 3d 7f 0a 88 bb ae 11 8d bd 5f 3c 37 3d
       0.10667376 -0.004151642 -0.06888138 0.04473531
000010 b8 21 2d bc 30 2f 4d 3c c6 20 2b bd 29 bf e8 bd
       -0.010567121 0.012523457 -0.041779302 -0.11364586
000020 54 93 bc bd 83 bd ab bc 0c c0 91 bd ab 90 bf 3d
       -0.09207788 -0.02096439 -0.07116708 0.09353765
000030 af 7a 41 3c 2a 70 4a bd a9 75 74 3d cb 21 02 be
       0.011809035 -0.049423374 0.059682522 -0.12708203
000040 43 80 a9 bd f6 89 12 3d 3f 85 0b be 45 7d 6e 3d
       -0.08276417 0.0357761 -0.13625048 0.058224935
000050 28 35 24 3d 57 58 00 be 19 f1 14 be b1 e0 4b bb
       0.040089756 -0.12533699 -0.14545096 -0.0031109268
000060 d6 06 42 3d a7 7e ac bc 1c 35 8a bd 95 d7 97 bd
       0.0473698 -0.021056486 -0.06748411 -0.07414166
000070 27 a2 c1 b9 80 89 2f 3d a0 d5 c5 3c 3f e4 36 3c
       -0.00036932642 0.04285574 0.024149716 0.011162817
000080 a3 90 96 bc e7 33 05 3e 4a 7e 09 3e 3d 6b cf 3d
       -0.018379515 0.1300808 0.13427082 0.10127876
000090 c7 0a fb 3d 5d 76 91 bd 77 26 4b bd a7 f0 69 bc
       0.12257915 -0.07102654 -0.04959723 -0.014278567

critic.mlp.2.weight f4 [1, 40]
000000 63 e7 3f 3d cd a2 75 3d b3 a2 03 be c7 20 d0 bd
       0.046851527 0.059969712 -0.12855034 -0.10162502
000010 05 e2 25 be f7 d7 05 3e 3f 4f 77 bd f0 6a d1 bd
       -0.16199501 0.13070665 -0.06037831 -0.10225475
000020 a7 8b 77 be e4 87 ab bd 28 24 1e 3d f7 b6 cb 3d
       -0.24174367 -0.083755285 0.0386087 0.09947007
000030 68 f2 db bd 54 60 6e bd 6e 16 eb 3d de d6 84 bd
       -0.10739595 -0.058197334 0.114788875 -0.06486295
000040 64 80 21 be f8 f6 84 bc 4d 1f eb 3d c5 11 1f 3d
       -0.15771633 -0.016231045 0.114805795 0.038835306
000050 f8 cc 22 3c ca 6e 4f bc 87 59 d6 3d 3b b8 9a bd
       0.009936564 -0.0126606915 0.10466295 -0.075546704
000060 9e 21 a9 3d 64 14 04 3d 2a b4 cb 3d 60 fd 5b 3b
       0.08258365 0.03224601 0.09946473 0.0033567771
000070 6d 87 c4 bd 52 d8 f5 3d a9 da 9b 3d ba eb b5 bd
       -0.09596143 0.120041505 0.076100655 -0.08882852
000080 98 f1 0d be 43 ac bd 3d 60 29 d8 3d 0d 29 1d be
       -0.13861692 0.09261372 0.10554767 -0.15347691
000090 69 5a 0b 3e 43 75 b3 bd 37 0f 1f be 73 71 8e 3d
       0.13608707 -0.087626 -0.15533148 0.069552325
