evaluate_results/agent_logic_paper/checkpoints/step_606001.pth (torch, 12933 bytes, 4 tensors)

actor.im.W f4 [5, 5]
000000 84 61 f5 3e aa bc 51 3d b1 fc e6 3e 47 8e c4 3e
       0.4792596 0.051205315 0.45114663 0.383898
000010 09 48 2e bf 9c c3 cd 3e b9 8b bf bc a0 e8 be 3e
       -0.68078667 0.401883 -0.023382055 0.37286854
000020 f1 20 9d 3e 44 32 6c bf 11 02 92 3f 0f c8 69 3f
       0.30689195 -0.922642 1.1406881 0.9132089
000030 77 e2 7d 3f 6d 7f 80 3f 06 d0 ac 3f 66 4f 46 3e
       0.9917368 1.0038887 1.3500984 0.19366226
000040 98 61 d1 3e 98 2e 24 3f fd 44 3b 3f 39 33 5b 3f
       0.4089477 0.64133596 0.7315214 0.85625035
000050 08 e2 d6 3f 93 d8 1f 3f 40 09 cd 3f 21 88 c5 3f
       1.6787729 0.6243984 1.6018448 1.5432168
000060 11 1a d5 3f
       1.664858

critic.mlp.0.weight f4 [40, 60]
000000 b1 5f 7d ba 57 d5 8d 3d 66 8e a2 bd c4 86 8b bd
       -0.0009665443 0.06925457 -0.079373166 -0.06812814
000010 85 1e bb bc 9e cc 0d 3d b0 41 c7 3c 6e 39 fc 3d
       -0.022841701 0.034618966 0.024323314 0.12315641
000020 eb 0a 7f bd ee 20 af 3d be 24 e9 bc 57 e2 cf bc
       -0.06226627 0.08551203 -0.028459903 -0.025376482
000030 0a 97 fc bd c2 1a af bd e1 fa 59 bd e1 b4 9c 3b
       -0.12333496 -0.085500255 -0.053217772 0.0047823046
000040 c1 0c 51 3d b7 a4 9e 3d a3 3e b3 bd db 44 66 bd
       0.051037554 0.077462606 -0.087521814 -0.05621801
000050 e9 10 40 3d 0c 8d db 3d 94 a6 d9 bc b3 d9 c5 3d
       0.046891127 0.10720262 -0.026568688 0.096606635
000060 f8 76 aa bc 77 d0 5f 3c 6b 67 ef 3d a3 45 f5 bd
       -0.020808682 0.013660542 0.11689647 -0.11976173
000070 75 72 a6 bd 20 df 05 bd 72 1f 4e bd 25 70 e4 3d
       -0.081273 -0.03268349 -0.050322957 0.11154202
000080 3a 60 ab bd 2d 50 05 bd 13 ae 4a bd c5 91 c0 bd
       -0.08367963 -0.032547165 -0.049482416 -0.09402803
000090 6d dd b9 be 24 46 e3 3d d7 f4 6b 3d 34 25 80 3d
       -0.36301747 0.11097363 0.057606544 0.06257096
0000a0 cd 7a de 3b 22 8d 87 bd bf 91 47 3d ff 09 1a be
       0.0067895413 -0.06618716 0.04872298 -0.15042876
0000b0 83 fd 87 bd cc 4d 88 bd 37 d1 a6 3d 52 05 9b 3d
       -0.066401504 -0.066554636 0.08145373 0.07569374
0000c0 2e 84 6a bd f3 a3 98 bb da 18 a9 3d b4 64 be 3e
       -0.057254963 -0.004658216 0.08256693 0.37186205
0000d0 66 59 91 3d 7a 9c 85 3e 10 46 b1 3d 42 ad 9b bd
       0.070971295 0.26095945 0.086559415 -0.07601406
0000e0 ff 12 c5 3c c7 fc cc bd bc 3f b7 bd 1c 95 88 bd
       0.02405691 -0.10009151 -0.08947703 -0.06669065
0000f0 8a 43 6f 3d b0 a8 54 3d e2 38 a6 bd e8 89 0c 3d
       0.05841402 0.051918685 -0.08116318 0.034311205
000100 ff 89 87 3d 3c 7c 85 bc 48 21 7a 39 f1 9b ce 3c
       0.066181175 -0.016294591 0.00023854256 0.025220843
000110 3b 2c 9a 3d 44 2a 03 3e be 44 d7 bd 38 c9 41 bd
       0.075279675 0.12809092 -0.105111584 -0.047311038
000120 fa d1 4f 3d 9b 10 db 3d 3c 14 e6 3d 93 4a e9 3d
       0.05073736 0.106965266 0.11234328 0.11391177
000130 6e 79 d2 3c f4 e9 e5 bd 4f 94 42 3c 47 68 a5 bd
       0.025692668 -0.11226264 0.01187618 -0.0807653
000140 96 67 f6 bd df e9 ea 3d 2c 09 c9 3d fc de 03 be
       -0.12031476 0.114703886 0.098162025 -0.1287803
000150 2e f3 c5 3c 0f 29 b2 bc 7a 09 ae bc d0 0e 72 bd
       0.024163809 -0.021748094 -0.021244753 -0.059096158
000160 97 59 4b 3d 3c 9a 9c bd ae d9 41 3d 00 b5 85 3d
       0.049645986 -0.07646605 0.047326736 0.06528664
000170 f9 45 bd 3d f2 81 32 3d 1b 82 07 be 8b 1e b5 bd
       0.09241862 0.043580957 -0.13233225 -0.08843716
000180 2d 13 72 3d 7d 5a dd 3c 36 40 ce bd 82 3e 98 bd
       0.05910032 0.027020687 -0.10070841 -0.074337974
000190 e3 ba f8 3d 8f 27 b2 3d 9b c7 79 bd 5d 4d 18 bd
       0.12145021 0.086989515 -0.060981374 -0.037183154
0001a0 11 bc 02 be b6 12 18 bb 03 1b c7 bd 80 f1 cb bd
       -0.12767054 -0.0023204512 -0.09721949 -0.09958172
0001b0 ed 16 e9 bb 72 ca 9e 3c 5a 8e 58 bd 9a 47 93 3d
       -0.0071133287 0.019383643 -0.052870132 0.07191391
0001c0 7a 80 aa bd 4d 4c e6 3d b8 30 b5 3d d9 f5 de bd
       -0.08325286 0.11245022 0.08847183 -0.108867355
0001d0 9d 9b 03 bd 34 e2 be 3b 6e 4d 9a 3c d6 d4 fa 3c
       -0.032130826 0.0058253054 0.01883575 0.030619066
0001e0 3e 83 4f 3d c2 65 fd 3b d0 46 3b bd 71 7a a0 3d
       0.05066227 0.0077330777 -0.04572183 0.07835854
0001f0 9d 40 da bd 86 b5 9c bd cb 8b 76 bc 12 66 16 bd
       -0.10656855 -0.0765181 -0.015047978 -0.036718436
000200 70 0f 87 bd 8d 97 ae bd 77 5b 51 bb ab 10 e2 3c
       -0.06594741 -0.08525 -0.0031945386 0.027595839
000210 a6 3e ac bd 0d 19 d9 bb 92 44 bd 3d 84 70 59 bc
       -0.08410387 -0.0066253007 0.092415944 -0.013271455
000220 f9 23 6b 3b 16 79 36 bc f7 08 d6 3c fa 1c a8 3d
       0.0035879596 -0.011137268 0.026127322 0.08208652
000230 a2 72 fa 3d f1 e7 a7 3d 54 05 fb 3d e5 f8 18 bc
       0.12228896 0.08198536 0.12256876 -0.009336685
000240 27 83 ed bd 1c b0 7a bd 44 07 b4 3d 64 62 5b ba
       -0.11597281 -0.061203107 0.08790448 -0.00083688484
000250 ba 6a 83 bd 09 9c ca bd 6b 6f f7 bd f1 26 df bd
       -0.06416841 -0.098930426 -0.12081798 -0.10896099
000260 42 84 d6 bc 72 5d b4 3d 7b 2a fc 3c 77 9f db bd
       -0.026186112 0.08806886 0.030781975 -0.10723775
000270 02 dd ae 3e 61 e4 ce bd 77 95 df bc 11 69 56 bd
       0.3415299 -0.101021536 -0.02729295 -0.052346293
000280 e2 b4 cb bc 0d a6 cf bc f1 e2 c9 bd 10 1f 33 be
       -0.024866525 -0.025347734 -0.09857739 -0.17492318
000290 ff 24 40 bb 61 d4 da 3a 74 37 70 bd fd 31 47 3d
       -0.0029318926 0.0016695374 -0.058646634 0.048631657
0002a0 b6 f8 ed bd 26 bf 0e bc c2 83 e8 3d e8 04 00 bd
       -0.116197035 -0.0087125655 0.11353256 -0.03125468
0002b0 00 64 6c 3e 63 96 8b 3d 54 9b ee bd 4d 48 a7 3d
       0.23085022 0.06815793 -0.1165072 0.08168087
0002c0 11 14 74 bc 5a 0e 6c bd c4 6c d3 3d 29 a8 d5 bd
       -0.014897362 -0.057630874 0.1032348 -0.10432465
0002d0 b9 f7 62 3c ba 6c dd bc 30 98 f9 3c a1 6b d2 bc
       0.013853007 -0.027029384 0.030468076 -0.025686087
0002e0 aa 28 a2 39 55 bf 3a 3d 66 fd bd bd a4 84 75 bd
       0.00030929345 0.045592625 -0.092768475 -0.05994095
0002f0 21 ac 58 bd ec 84 b9 3d 3d 42 d6 3a f5 e7 b4 3d
       -0.05289853 0.09058556 0.0016346645 0.08833305
000300 bc 7f ba bd 1b ac bc 3b ab 61 ba bd ae 8b 91 bd
       -0.09106395 0.0057578213 -0.0910066 -0.0710672
000310 97 10 9a bd 39 b6 34 3d 8e 8e 9d bd 87 96 38 bb
       -0.075226955 0.044119094 -0.07693206 -0.0028165893
000320 4a f6 b1 3b 7f 6f aa 3d ab dc c7 bd c7 82 b5 bd
       0.0054309713 0.083220474 -0.09758886 -0.088628344
000330 3e 86 99 bd 32 0f b9 3d fc 14 3e bd c7 03 df 3d
       -0.07496308 0.090361014 -0.04640673 0.10889392
000340 06 37 3f 3d e0 ea 85 3c eb ec 7b ba 88 10 d1 bc
       0.046683334 0.016347349 -0.00096101937 -0.025520578
000350 e7 b0 84 3c 65 c8 ba bd 35 3c 9f 3c 7c 59 39 bd
       0.016197635 -0.091202535 0.019437889 -0.045251355
000360 a4 bc 5a be fd 93 8a bd 61 7f d5 3d c6 91 d6 bd
       -0.21361023 -0.06766508 0.10424686 -0.10477023
000370 c8 e1 17 bc 74 c6 02 3e 91 33 77 bc 49 05 ba 3d
       -0.009270139 0.12771016 -0.015087978 0.09083039
000380 f1 c4 31 be cc f9 82 3d ee 52 bc bd de 1a 16 bd
       -0.17360283 0.06395301 -0.09195505 -0.036646716
000390 0a 6b 31 bd 59 9d 9c bc 1c 17 b9 3a eb b2 3d 3e
       -0.04331497 -0.019117998 0.0014121267 0.18525283
0003a0 c9 71 e8 3b e5 11 47 3e ef bb a1 3d 95 27 a7 bd
       0.0070936424 0.1944042 0.078971736 -0.081618465
0003b0 42 2a 6d 3d 77 e6 ba bd 74 1d 60 bd 8f 87 1b 3d
       0.05790163 -0.09125989 -0.05471559 0.037971076
0003c0 4b 9a 2e 3d 67 5b c6 3d 8e 67 bf bc b1 bd 96 3c
       0.042627614 0.09685402 -0.023364808 0.018400999
0003d0 03 61 ad 3d ea b1 ff bd 29 6a e4 3d 6d b3 36 be
       0.08465769 -0.12485106 0.11153061 -0.17841883
0003e0 e9 2f 20 3d 7a c6 a8 bd e2 8e ed bd 24 c8 8b 3c
       0.03910819 -0.082409814 -0.11599518 0.017063208
0003f0 3c a2 da 3d 77 93 1a bd 5b f8 9c bd 4c 91 43 bd
       0.10675475 -0.03773829 -0.076645575 -0.047745988

critic.mlp.0.bias f4 [40]
000000 22 45 1b 3e 7f 0a 88 bb 80 4a 77 bd ca e2 4d 3c
       0.15163091 -0.004151642 -0.060373783 0.012566278
000010 c2 7d 0e bc 1a 3f 1e 3d 26 a2 5b bd 35 76 fb bd
       -0.008696975 0.038634397 -0.053621434 -0.122784056
000020 d5 4b a9 bd 83 bd ab bc 65 51 7c bd 2c ed af 3d
       -0.08266417 -0.02096439 -0.06160106 0.08590159
000030 9c a6 ad 3b 2a 70 4a bd 80 1a 84 3d bb 03 19 be
       0.0052994024 -0.049423374 0.06450367 -0.1494283
000040 12 33 a4 bd ea ae ae bc 20 e7 29 be bc 83 c5 3d
       -0.080175534 -0.02132364 -0.16592073 0.09644267
000050 c9 a1 08 bd a0 2a 46 be 0e 41 18 be 29 df 01 bb
       -0.033357415 -0.19352198 -0.14868566 -0.0019816852
000060 30 8e 16 3d 78 3b 9c bc 76 e3 d4 bd ae ec e9 bd
       0.036756694 -0.019071326 -0.10394947 -0.11422096
000070 4a 5b 6f bd bb f9 5e 3d 3d b6 b0 3c e8 7e 0e 3d
       -0.05843667 0.05443738 0.021571273 0.034788996
000080 59 83 81 bd e0 8e 33 3e c5 34 11 3e 42 3f df 3d
       -0.06323881 0.17534971 0.14180286 0.10900737
000090 aa 7f 15 3e a0 8c d3 bd f6 97 79 bd a7 f0 69 bc
       0.14599481 -0.103295565 -0.060935937 -0.014278567

critic.mlp.2.weight f4 [1, 40]
000000 13 f9 00 3e cd a2 75 3d ab c7 3b be 27 a3 b8 bd
       0.12595014 0.059969712 -0.18337886 -0.09015494
000010 33 f9 50 be bb 6b b2 3d 37 5b a6 bd a4 bc 6f be
       -0.20407562 0.08711954 -0.081228666 -0.23411804
000020 ae 02 ab be e4 87 ab bd 9c 48 ce 3d ac 27 1e 3e
       -0.33400482 -0.083755285 0.10072443 0.15444821
000030 18 45 00 be 54 60 6e bd 35 b0 d4 3d 2e 91 4b bd
       -0.12526357 -0.058197334 0.10385171 -0.049699
000040 dd 05 29 be b5 d1 58 bb d4 f4 4b 3d 4b de 87 3d
       -0.16506143 -0.003308398 0.049794033 0.06634196
000050 37 06 24 bb 72 83 0d bd d4 3a d5 3d 7b fe 4b bd
       -0.0025028118 -0.034549184 0.10411611 -0.04980324
000060 3e 35 ac 3d fa 26 dc 3c 18 e2 e0 3d 82 d7 bb b6
       0.08408593 0.026874054 0.10980624 -5.5981227e-06
000070 ea 74 4e bd 3f 47 4d 3e f2 19 9d 3d 65 87 87 bd
       -0.050404467 0.2004671 0.07670964 -0.06617621
000080 93 56 cf bd 0d 92 17 3e 97 0f c5 3d dc 4f 38 be
       -0.101239346 0.14801808 0.09622114 -0.17999214
000090 af ad d5 3d ce 67 ea bd a3 e9 49 be 73 71 8e 3d
       0.10433518 -0.114455804 -0.19718032 0.069552325
