evaluate_results/agent_logic_paper/checkpoints/step_770001.pth (torch, 12933 bytes, 4 tensors)

actor.im.W f4 [5, 5]
000000 5e 45 c6 3e a1 f2 48 3e e1 81 bf 3e 33 72 bf 3e
       0.38724798 0.19623806 0.37403777 0.37391815
000010 21 00 37 bf 17 b9 9f 3e fb 68 f7 3d b0 c8 97 3e
       -0.7148457 0.311959 0.1208057 0.296453
000020 a0 76 98 3e fc 03 74 bf 34 46 8c 3f 29 50 8a 3f
       0.29778004 -0.9531858 1.0958924 1.0805713
000030 b2 9d 76 3f 34 8f 7a 3f f8 cc a2 3f 9d 58 0b 3e
       0.96334374 0.9787476 1.2718801 0.13608022
000040 19 3f 0e 3f 96 8d 1a 3f ed 0e 40 3f f6 fe 48 3f
       0.5556503 0.60372293 0.75022775 0.7851404
000050 11 56 d2 3f 63 3c 48 3f 16 f5 ce 3f 9b 6a cc 3f
       1.6432515 0.7821714 1.6168544 1.5970033
000060 1c 63 d2 3f
       1.6436496

critic.mlp.0.weight f4 [40, 60]
000000 b1 5f 7d ba 57 d5 8d 3d ce 6b 9b bd 23 64 84 bd
       -0.0009665443 0.06925457 -0.075889215 -0.06464412
000010 0a 94 9e bc 9e cc 0d 3d f0 cb e3 3c c1 c9 ee 3d
       -0.0193577 0.034618966 0.027807206 0.11659575
000020 70 03 b1 bd 88 15 a5 3d 1a 3c 98 bd 57 e2 cf bc
       -0.08643234 0.080607474 -0.074333385 -0.025376482
000030 0a 97 fc bd c2 1a af bd e1 fa 59 bd e1 b4 9c 3b
       -0.12333496 -0.085500255 -0.053217772 0.0047823046
000040 c1 0c 51 3d b7 a4 9e 3d a3 3e b3 bd db 44 66 bd
       0.051037554 0.077462606 -0.087521814 -0.05621801
000050 e9 10 40 3d 0c 8d db 3d 94 a6 d9 bc b3 d9 c5 3d
       0.046891127 0.10720262 -0.026568688 0.096606635
000060 f8 76 aa bc 77 d0 5f 3c 6b 67 ef 3d a3 45 f5 bd
       -0.020808682 0.013660542 0.11689647 -0.11976173
000070 75 72 a6 bd 20 df 05 bd 72 1f 4e bd 25 70 e4 3d
       -0.081273 -0.03268349 -0.050322957 0.11154202
000080 3a 60 ab bd ed 15 ee bc dd 01 43 bd 2a 6f b9 bd
       -0.08367963 -0.02906319 -0.0476092 -0.09054406
000090 05 84 d3 be 24 46 e3 3d d7 f4 6b 3d 34 25 80 3d
       -0.4131166 0.11097363 0.057606544 0.06257096
0000a0 cd 7a de 3b 22 8d 87 bd f7 d6 55 3d f1 98 2e be
       0.0067895413 -0.06618716 0.05220696 -0.1705053
0000b0 e8 da 80 bd cc 4d 88 bd 37 d1 a6 3d 52 05 9b 3d
       -0.06291753 -0.066554636 0.08145373 0.07569374
0000c0 2e 84 6a bd f3 a3 98 bb da 18 a9 3d e3 de ce 3e
       -0.057254963 -0.004658216 0.08256693 0.40404424
0000d0 09 60 95 3d a8 16 96 3e 10 46 b1 3d 42 ad 9b bd
       0.07293708 0.2931416 0.086559415 -0.07601406
0000e0 ff 12 c5 3c c7 fc cc bd bc 3f b7 bd 1c 95 88 bd
       0.02405691 -0.10009151 -0.08947703 -0.06669065
0000f0 8a 43 6f 3d b0 a8 54 3d 3a ba b9 bd 9b 70 cb 3c
       0.05841402 0.051918685 -0.09068723 0.024833968
000100 e9 11 68 3d 3c 7c 85 bc e8 5d 17 bc da 8d 80 3c
       0.056657705 -0.016294591 -0.009238698 0.01569264
000110 18 b3 86 3d a3 07 f3 3d 5d ec c3 bd 38 c9 41 bd
       0.06577128 0.11866691 -0.09566567 -0.047311038
000120 fa d1 4f 3d 9b 10 db 3d 3c 14 e6 3d 93 4a e9 3d
       0.05073736 0.106965266 0.11234328 0.11391177
000130 6e 79 d2 3c f4 e9 e5 bd 4f 94 42 3c 47 68 a5 bd
       0.025692668 -0.11226264 0.01187618 -0.0807653
000140 96 67 f6 bd df e9 ea 3d 2c 09 c9 3d fc de 03 be
       -0.12031476 0.114703886 0.098162025 -0.1287803
000150 2e f3 c5 3c 0f 29 b2 bc 7a 09 ae bc d0 0e 72 bd
       0.024163809 -0.021748094 -0.021244753 -0.059096158
000160 97 59 4b 3d 3c 9a 9c bd ae d9 41 3d 00 b5 85 3d
       0.049645986 -0.07646605 0.047326736 0.06528664
000170 f9 45 bd 3d b3 84 0b 3d 33 40 11 be f0 94 c8 bd
       0.09241862 0.0340621 -0.14184646 -0.097940326
000180 5e 79 4b 3d 7d 5a dd 3c 36 40 ce bd 82 3e 98 bd
       0.04967629 0.027020687 -0.10070841 -0.074337974
000190 e3 ba f8 3d 8f 27 b2 3d 54 63 90 bd bf 43 3f bd
       0.12145021 0.086989515 -0.07050195 -0.046695467
0001a0 45 77 0c be b6 12 18 bb 03 1b c7 bd 80 f1 cb bd
       -0.13717373 -0.0023204512 -0.09721949 -0.09958172
0001b0 ed 16 e9 bb 72 ca 9e 3c 5a 8e 58 bd 9a 47 93 3d
       -0.0071133287 0.019383643 -0.052870132 0.07191391
0001c0 7a 80 aa bd 4d 4c e6 3d b8 30 b5 3d d9 f5 de bd
       -0.08325286 0.11245022 0.08847183 -0.108867355
0001d0 9d 9b 03 bd 34 e2 be 3b 6e 4d 9a 3c d6 d4 fa 3c
       -0.032130826 0.0058253054 0.01883575 0.030619066
0001e0 3e 83 4f 3d c2 65 fd 3b 89 74 39 bd ab 63 a1 3d
       0.05066227 0.0077330777 -0.045277152 0.07880338
0001f0 67 57 d9 bd 86 b5 9c bd 3e 42 6f bc 87 8b af bc
       -0.10612374 -0.0765181 -0.014603196 -0.021428837
000200 e6 e3 80 bd 16 f4 54 bd e9 d9 20 bc ab 10 e2 3c
       -0.06293468 -0.05199059 -0.009817579 0.027595839
000210 a6 3e ac bd 0d 19 d9 bb 92 44 bd 3d 84 70 59 bc
       -0.08410387 -0.0066253007 0.092415944 -0.013271455
000220 f9 23 6b 3b 16 79 36 bc f7 08 d6 3c fa 1c a8 3d
       0.0035879596 -0.011137268 0.026127322 0.08208652
000230 a2 72 fa 3d f1 e7 a7 3d 54 05 fb 3d e5 f8 18 bc
       0.12228896 0.08198536 0.12256876 -0.009336685
000240 27 83 ed bd 1c b0 7a bd 44 07 b4 3d 64 62 5b ba
       -0.11597281 -0.061203107 0.08790448 -0.00083688484
000250 ba 6a 83 bd 09 9c ca bd 6b 6f f7 bd f1 26 df bd
       -0.06416841 -0.098930426 -0.12081798 -0.10896099
000260 42 84 d6 bc a6 46 b5 3d fa e1 12 3d 38 b6 da bd
       -0.026186112 0.08851366 0.03586004 -0.10679287
000270 89 c2 c8 3e 61 e4 ce bd 77 95 df bc 11 69 56 bd
       0.3921092 -0.101021536 -0.02729295 -0.052346293
000280 e2 b4 cb bc 0d a6 cf bc c1 f9 c8 bd 90 42 30 be
       -0.024866525 -0.025347734 -0.09813262 -0.17212892
000290 8d fe 22 bb 61 d4 da 3a 74 37 70 bd fd 31 47 3d
       -0.0024870962 0.0016695374 -0.058646634 0.048631657
0002a0 b6 f8 ed bd 26 bf 0e bc c2 83 e8 3d 65 64 fc bc
       -0.116197035 -0.0087125655 0.11353256 -0.03080959
0002b0 e9 63 79 3e bb 7f 8c 3d 54 9b ee bd 4d 48 a7 3d
       0.24354519 0.068603 -0.1165072 0.08168087
0002c0 11 14 74 bc 5a 0e 6c bd c4 6c d3 3d 29 a8 d5 bd
       -0.014897362 -0.057630874 0.1032348 -0.10432465
0002d0 b9 f7 62 3c ba 6c dd bc 9b 8b ab 3c 29 3c 10 bd
       0.013853007 -0.027029384 0.020940593 -0.035213623
0002e0 ec 07 17 bc 55 bf 3a 3d b3 80 d1 bd e7 55 80 bd
       -0.009218197 0.045592625 -0.102296256 -0.062663846
0002f0 fa 83 73 bd 0b 59 b1 3d 29 ca 00 bd f5 e7 b4 3d
       -0.059452035 0.08659562 -0.031442795 0.08833305
000300 bc 7f ba bd 1b ac bc 3b ab 61 ba bd ae 8b 91 bd
       -0.09106395 0.0057578213 -0.0910066 -0.0710672
000310 97 10 9a bd 39 b6 34 3d 8e 8e 9d bd 87 96 38 bb
       -0.075226955 0.044119094 -0.07693206 -0.0028165893
000320 4a f6 b1 3b 7f 6f aa 3d ab dc c7 bd c7 82 b5 bd
       0.0054309713 0.083220474 -0.09758886 -0.088628344
000330 3e 86 99 bd 32 0f b9 3d fc 14 3e bd c7 03 df 3d
       -0.07496308 0.090361014 -0.04640673 0.10889392
000340 06 37 3f 3d e0 ea 85 3c eb ec 7b ba 88 10 d1 bc
       0.046683334 0.016347349 -0.00096101937 -0.025520578
000350 e7 b0 84 3c ad 4b ce bd 9d 6a 0e 3d dc 5f 60 bd
       0.016197635 -0.10073028 0.034769643 -0.05477892
000360 97 e9 25 be fd 93 8a bd 61 7f d5 3d c6 91 d6 bd
       -0.16202389 -0.06766508 0.10424686 -0.10477023
000370 c8 e1 17 bc 74 c6 02 3e 5a a6 c9 bc ab 40 ca 3d
       -0.009270139 0.12771016 -0.024615455 0.09875616
000380 6a 86 3b be cc f9 82 3d ee 52 bc bd de 1a 16 bd
       -0.18312994 0.06395301 -0.09195505 -0.036646716
000390 0a 6b 31 bd 59 9d 9c bc 1c 17 b9 3a d1 cf 42 3e
       -0.04331497 -0.019117998 0.0014121267 0.19024588
0003a0 69 38 19 3c ce 2e 4c 3e ef bb a1 3d 95 27 a7 bd
       0.009351828 0.1993973 0.078971736 -0.081618465
0003b0 42 2a 6d 3d 77 e6 ba bd 74 1d 60 bd 8f 87 1b 3d
       0.05790163 -0.09125989 -0.05471559 0.037971076
0003c0 4b 9a 2e 3d 67 5b c6 3d f2 97 ac bc 44 8d a9 3c
       0.042627614 0.09685402 -0.021068547 0.020697244
0003d0 d6 14 b2 3d ea b1 ff bd 02 1e e9 3d a5 52 3b be
       0.086953804 -0.12485106 0.11382677 -0.18293245
0003e0 66 d8 83 3c be 8f c9 bd 4b 82 84 bd 24 c8 8b 3c
       0.016094398 -0.0984187 -0.06470164 0.017063208
0003f0 3c a2 da 3d 77 93 1a bd 5b f8 9c bd 4c 91 43 bd
       0.10675475 -0.03773829 -0.076645575 -0.047745988

critic.mlp.0.bias f4 [40]
000000 51 d6 1e 3e ad 4b 5f bc 37 78 75 bd 34 26 47 3b
       0.15511443 -0.013628882 -0.0599291 0.003038776
000010 07 bd d1 bb 02 ee 2c 3d c2 0a 78 bd dd 13 fe bd
       -0.0064007076 0.04221917 -0.060557134 -0.12406132
000020 11 56 bb bd 83 bd ab bc e0 0c 4f bd 4b d4 a3 3d
       -0.09147275 -0.02096439 -0.050549388 0.07999476
000030 1d 80 4d bb 2a 70 4a bd 6e 7e 8c 3d e6 a8 2a be
       -0.003135688 -0.049423374 0.06860052 -0.16665992
000040 c9 84 97 bd 44 df b0 bc b0 d8 29 be 88 f0 c9 3d
       -0.07398374 -0.021590836 -0.16586566 0.09860331
000050 64 f8 08 bd f3 99 4a be 0e 41 18 be 8d 0b 32 bb
       -0.03344001 -0.1978529 -0.14868566 -0.002716753
000060 30 8e 16 3d 21 6f a8 bc e4 a2 bd bd 49 cc e9 bd
       0.036756694 -0.020560803 -0.092595845 -0.114159174
000070 ed 21 a7 bd 70 34 5c 3d 3d b6 b0 3c e6 61 14 3d
       -0.08160768 0.053760946 0.021571273 0.036226176
000080 10 c0 ac bd 7a 0c 3c 3e 25 a0 15 3e de aa eb 3d
       -0.084350705 0.18364134 0.14611872 0.115072
000090 e5 b3 19 3e 71 42 e9 bd 7c fc 8d bd a7 f0 69 bc
       0.1501003 -0.11389626 -0.06932923 -0.014278567

critic.mlp.2.weight f4 [1, 40]
000000 95 f1 07 3e af cc 4e 3d d7 55 3a be 92 ef a1 bd
       0.1327575 0.05048817 -0.18196808 -0.079070225
000010 b6 87 54 be dc a8 a2 3d 1f 29 9b bd 1a be 6f be
       -0.20754895 0.079423636 -0.075762026 -0.23412362
000020 cd 75 a5 be e4 87 ab bd 4f 2a cf 3d a1 22 17 3e
       -0.32316437 -0.083755285 0.101154916 0.14759304
000030 40 fd ef bd 54 60 6e bd 1b b7 cb 3d 9b 47 29 bd
       -0.117182255 -0.058197334 0.09947034 -0.041328054
000040 24 74 19 be 70 e1 fa b9 d1 e9 55 3d b7 0f 8f 3d
       -0.1498571 -0.0004785168 0.052224938 0.06985419
000050 08 f7 23 bb b8 4f 0c bd d4 3a d5 3d f9 05 4b bd
       -0.0025019068 -0.034255713 0.10411611 -0.049566243
000060 3e 35 ac 3d 04 7f a6 3c 85 85 cc 3d b3 a4 01 39
       0.08408593 0.020324238 0.09986404 0.00012363754
000070 c3 dd 50 bd cb 6a 56 3e f2 19 9d 3d 15 78 83 bd
       -0.05099274 0.20939176 0.07670964 -0.06419388
000080 6c 2e c0 bd 10 9a 0f 3e 2e 0d af 3d 7d 7b 1c be
       -0.09383854 0.14023614 0.08547436 -0.15281482
000090 58 ed b8 3d f4 fd e1 bd 02 59 3a be 73 71 8e 3d
       0.09029645 -0.11034766 -0.18198016 0.069552325
