evaluate_results/agent_logic_paper/checkpoints/step_640001.pth (torch, 12933 bytes, 4 tensors)

actor.im.W f4 [5, 5]
00000000: 6546 f83e 2771 d53d 3fe5 d43e 3cc9 b73e
00000010: 4ac9 2abf 8531 d13e b2da f33c 3114 ad3e
00000020: 6c96 903e a669 68bf 154e 8e3f ec5a 743f
00000030: 0dd6 763f 3322 7a3f 966b ac3f 369d 2d3e
00000040: b3df e63e b656 1e3f 78f2 333f 4b75 5b3f
00000050: 2920 d53f 647f 2a3f 3ee7 c93f 7db1 c33f
00000060: ad0c d83f
0.48491207 0.10421973 0.4158115 0.35895717 -0.6671339 0.40858093 0.029767368 0.33804467
0.28239763 -0.90786207 1.1117579 0.95451236 0.96420366 0.97708434 1.3470333 0.16954502
0.45092544 0.6185106 0.7029185 0.8572585 1.665044 0.6660063 1.5773695 1.528854
1.6878868

critic.mlp.0.weight f4 [40, 60]
00000000: b15f 7dba 57d5 8d3d a311 afbd 010a 98bd
00000010: 132b edbc 9ecc 0d3d fc34 953c 2419 f83d
00000020: 1440 95bd 6079 d43d 1f43 90bd 57e2 cfbc
00000030: 0a97 fcbd c21a afbd e1fa 59bd e1b4 9c3b
00000040: c10c 513d b7a4 9e3d a33e b3bd db44 66bd
00000050: e910 403d 0c8d db3d 94a6 d9bc b3d9 c53d
00000060: f876 aabc 77d0 5f3c 6b67 ef3d a345 f5bd
00000070: 7572 a6bd 20df 05bd 721f 4ebd 2570 e43d
00000080: 3a60 abbd 7556 1ebd ccf3 63bd ff14 cdbd
00000090: 1710 c8be 2446 e33d d7f4 6b3d 3425 803d
000000a0: cd7a de3b 228d 87bd 738b 2e3d a56c 1dbe
000000b0: bd80 94bd cc4d 88bd 37d1 a63d 5205 9b3d
000000c0: 2e84 6abd f3a3 98bb da18 a93d ef49 bf3e
000000d0: 75fd 8d3d b681 863e 1046 b13d 42ad 9bbd
000000e0: ff12 c53c c7fc ccbd bc3f b7bd 1c95 88bd
000000f0: 8a43 6f3d b0a8 543d e238 a6bd e889 0c3d
00000100: ff89 873d 3c7c 85bc 4821 7a39 f19b ce3c
00000110: 3b2c 9a3d 442a 033e be44 d7bd 38c9 41bd
00000120: fad1 4f3d 9b10 db3d 3c14 e63d 934a e93d
00000130: 6e79 d23c f4e9 e5bd 4f94 423c 4768 a5bd
00000140: 9667 f6bd dfe9 ea3d 2c09 c93d fcde 03be
00000150: 2ef3 c53c 0f29 b2bc 7a09 aebc d00e 72bd
00000160: 9759 4b3d 3c9a 9cbd aed9 413d 00b5 853d
00000170: f945 bd3d f281 323d 1b82 07be 8b1e b5bd
00000180: 2d13 723d 7d5a dd3c 3640 cebd 823e 98bd
00000190: e3ba f83d 8f27 b23d 9bc7 79bd 5d4d 18bd
000001a0: 11bc 02be b612 18bb 031b c7bd 80f1 cbbd
000001b0: ed16 e9bb 72ca 9e3c 5a8e 58bd 9a47 933d
000001c0: 7a80 aabd 4d4c e63d b830 b53d d9f5 debd
000001d0: 9d9b 03bd 34e2 be3b 6e4d 9a3c d6d4 fa3c
000001e0: 3e83 4f3d c265 fd3b a9d4 2cbd 8cb3 a73d
000001f0: 8107 d3bd 86b5 9cbd 1ec3 3cbc fc25 c3bc
00000200: 78c8 67bd ada4 d9bd ad5e 4fbb ab10 e23c
00000210: a63e acbd 0d19 d9bb 9244 bd3d 8470 59bc
00000220: f923 6b3b 1679 36bc f708 d63c fa1c a83d
00000230: a272 fa3d f1e7 a73d 5405 fb3d e5f8 18bc
00000240: 2783 edbd 1cb0 7abd 4407 b43d 6462 5bba
00000250: ba6a 83bd 099c cabd 6b6f f7bd f126 dfbd
00000260: 4284 d6bc 8d96 bb3d 7946 373d 5866 d4bd
00000270: 86ec c23e 61e4 cebd 7795 dfbc 1169 56bd
00000280: e2b4 cbbc 0da6 cfbc d6a9 c2bd 434d 39be
00000290: 60f7 1b3a 61d4 da3a 7437 70bd fd31 473d
000002a0: b6f8 edbd 26bf 0ebc c283 e83d fc24 e3bc
000002b0: 3dac 6c3e 98cf 923d 549b eebd 4d48 a73d
000002c0: 1114 74bc 5a0e 6cbd c46c d33d 29a8 d5bd
000002d0: b9f7 623c ba6c ddbc 8f59 e33c 3faa e8bc
000002e0: 07b0 1dbb 55bf 3a3d 138d c3bd 681d 7cbd
000002f0: e639 61bd 0a05 ba3d 9640 4f3c f5e7 b43d
00000300: bc7f babd 1bac bc3b ab61 babd ae8b 91bd
00000310: 9710 9abd 39b6 343d 8e8e 9dbd 8796 38bb
00000320: 4af6 b13b 7f6f aa3d abdc c7bd c782 b5bd
00000330: 3e86 99bd 320f b93d fc14 3ebd c703 df3d
00000340: 0637 3f3d e0ea 853c ebec 7bba 8810 d1bc
00000350: e7b0 843c 1058 c0bd a935 983c cb78 44bd
00000360: 34f2 3fbe fd93 8abd 617f d53d c691 d6bd
00000370: c8e1 17bc 74c6 023e 70d8 91bc 08f5 b43d
00000380: b28c 34be ccf9 823d ee52 bcbd de1a 16bd
00000390: 0a6b 31bd 599d 9cbc 1c17 b93a 76a7 433e
000003a0: 126d 7e3c 7006 4d3e efbb a13d 9527 a7bd
000003b0: 422a 6d3d 77e6 babd 741d 60bd 8f87 1b3d
000003c0: 4b9a 2e3d 675b c63d 6b26 b9bc d5fe 9c3c
000003d0: 4cf1 ae3d eab1 ffbd 74fa e53d 4f06 3dbe
000003e0: 8fbf 223d 771b a5bd 4db1 9dbd 24c8 8b3c
000003f0: 3ca2 da3d 7793 1abd 5bf8 9cbd 4c91 43bd
-0.0009665443 0.06925457 -0.08548286 -0.07423783 -0.028951203 0.034618966 0.018213741 0.1211417
-0.072876126 0.10374713 -0.07044052 -0.025376482 -0.12333496 -0.085500255 -0.053217772 0.0047823046
0.051037554 0.077462606 -0.087521814 -0.05621801 0.046891127 0.10720262 -0.026568688 0.096606635
-0.020808682 0.013660542 0.11689647 -0.11976173 -0.081273 -0.03268349 -0.050322957 0.11154202
-0.08367963 -0.03865667 -0.055652425 -0.1001377 -0.39074776 0.11097363 0.057606544 0.06257096
0.0067895413 -0.06618716 0.042613458 -0.15373476 -0.072511174 -0.066554636 0.08145373 0.07569374
-0.057254963 -0.004658216 0.08256693 0.37361094 0.06933109 0.26270837 0.086559415 -0.07601406
0.02405691 -0.10009151 -0.08947703 -0.06669065 0.05841402 0.051918685 -0.08116318 0.034311205
0.066181175 -0.016294591 0.00023854256 0.025220843 0.075279675 0.12809092 -0.105111584 -0.047311038
0.05073736 0.106965266 0.11234328 0.11391177 0.025692668 -0.11226264 0.01187618 -0.0807653
-0.12031476 0.114703886 0.098162025 -0.1287803 0.024163809 -0.021748094 -0.021244753 -0.059096158
0.049645986 -0.07646605 0.047326736 0.06528664 0.09241862 0.043580957 -0.13233225 -0.08843716
0.05910032 0.027020687 -0.10070841 -0.074337974 0.12145021 0.086989515 -0.060981374 -0.037183154
-0.12767054 -0.0023204512 -0.09721949 -0.09958172 -0.0071133287 0.019383643 -0.052870132 0.07191391
-0.08325286 0.11245022 0.08847183 -0.108867355 -0.032130826 0.0058253054 0.01883575 0.030619066
0.05066227 0.0077330777 -0.042194996 0.08188543 -0.10304166 -0.0765181 -0.011521129 -0.023821823
-0.056587666 -0.106271125 -0.0031642125 0.027595839 -0.08410387 -0.0066253007 0.092415944 -0.013271455
0.0035879596 -0.011137268 0.026127322 0.08208652 0.12228896 0.08198536 0.12256876 -0.009336685
-0.11597281 -0.061203107 0.08790448 -0.00083688484 -0.06416841 -0.098930426 -0.12081798 -0.10896099
-0.026186112 0.09159575 0.044744942 -0.10371083 0.38071078 -0.101021536 -0.02729295 -0.052346293
-0.024866525 -0.025347734 -0.0950505 -0.1809588 0.00059496425 0.0016695374 -0.058646634 0.048631657
-0.116197035 -0.0087125655 0.11353256 -0.027727596 0.23112579 0.071685016 -0.1165072 0.08168087
-0.014897362 -0.057630874 0.1032348 -0.10432465 0.013853007 -0.027029384 0.027752666 -0.028401492
-0.002406122 0.045592625 -0.09548392 -0.06155148 -0.054986857 0.090829924 0.012649676 0.08833305
-0.09106395 0.0057578213 -0.0910066 -0.0710672 -0.075226955 0.044119094 -0.07693206 -0.0028165893
0.0054309713 0.083220474 -0.09758886 -0.088628344 -0.07496308 0.090361014 -0.04640673 0.10889392
0.046683334 0.016347349 -0.00096101937 -0.025520578 0.016197635 -0.093917966 0.018580275 -0.04796676
-0.18744737 -0.06766508 0.10424686 -0.10477023 -0.009270139 0.12771016 -0.0178034 0.088357985
-0.17631796 0.06395301 -0.09195505 -0.036646716 -0.04331497 -0.019117998 0.0014121267 0.1910685
0.015528934 0.20021987 0.078971736 -0.081618465 0.05790163 -0.09125989 -0.05471559 0.037971076
0.042627614 0.09685402 -0.022601327 0.019164482 0.085421175 -0.12485106 0.11229411 -0.18459438
0.039733466 -0.08061879 -0.07699833 0.017063208 0.10675475 -0.03773829 -0.076645575 -0.047745988

critic.mlp.0.bias f4 [40]
00000000: 8c03 153e 7f0a 88bb 5bd8 68bd 8765 213c
00000010: 6bfb 01bc f263 133d dd33 5dbd f39b f6bd
00000020: 08c8 adbd 83bd abbc bbae 60bd 536d b53d
00000030: ef75 0c3c 2a70 4abd 17a3 7e3d afe4 17be
00000040: 50d8 91bd e830 bbbc 4062 36be e9d3 c13d
00000050: c9a1 08bd 1b51 47be 0e41 18be fb4c 2d3c
00000060: 308e 163d 7fdc b6bc e8c5 bebd 63ee e9bd
00000070: 5046 9fbd c8e7 4a3d 3db6 b03c 54c7 0b3d
00000080: 44a9 98bd f60b 353e 05cf 0e3e 8a41 db3d
00000090: b48e 143e c6a6 d2bd 6d69 7ebd a7f0 69bc
0.14552134 -0.004151642 -0.056846958 0.009850866 -0.007933478 0.035983987 -0.05400454 -0.12041464
-0.084854186 -0.02096439 -0.054854136 0.088587426 0.008573039 -0.049423374 0.062167253 -0.1483333
-0.071213365 -0.022850469 -0.17810917 0.09464247 -0.033357415 -0.19464533 -0.14868566 0.010577436
0.036756694 -0.022321938 -0.09315091 -0.11422422 -0.07777083 0.04953745 0.021571273 0.03412564
-0.0745416 0.17680344 0.13946159 0.1070586 0.14507562 -0.10285716 -0.06211226 -0.014278567

critic.mlp.2.weight f4 [1, 40]
00000000: 8757 003e cda2 753d 9351 3fbe 052f aebd
00000010: 9cb1 52be c328 ad3d ee31 a1bd 1384 79be
00000020: 6d75 a7be e487 abbd b733 c43d d888 1b3e
00000030: a1cc f8bd 5460 6ebd d7d7 d13d 0500 3cbd
00000040: 4fc0 2bbe 976c 50bb e9c2 3b3d b2dd 743d
00000050: 3706 24bb 6275 00bd d43a d53d 3736 77bd
00000060: 3e35 ac3d 25e8 ca3c 698f f33d aec6 6136
00000070: 2193 34bd c116 483e f219 9d3d c135 60bd
00000080: 0ddf cabd 9a30 103e adf6 ba3d b0f6 2dbe
00000090: 9804 ce3d 6b80 e7bd 54ca 44be 7371 8e3d
0.12533389 0.059969712 -0.18683462 -0.08505062 -0.20575565 0.0845504 -0.078708515 -0.24366789
-0.32706776 -0.083755285 0.09580176 0.1518892 -0.12148405 -0.058197334 0.10246246 -0.045898456
-0.16772579 -0.0031803006 0.045840178 0.059781738 -0.0025028118 -0.031361945 0.10411611 -0.060354438
0.08408593 0.024768898 0.11892588 3.364326e-06 -0.044085626 0.1953993 0.07670964 -0.054738764
-0.09905825 0.1408104 0.09129081 -0.16988635 0.1005947 -0.11303791 -0.19217807 0.069552325
