evaluate_results/agent_logic_paper/checkpoints/step_110001.pth (torch, 12933 bytes, 4 tensors)

actor.im.W f4 [5, 5]
0	0x40071afb	2.1110218
1	0xbf180495	-0.5938199
2	0xbf4d6ec4	-0.8024714
3	0xbf5106d2	-0.8165103
4	0xc0130239	-2.2970107
5	0x4006e405	2.1076672
6	0xbf661588	-0.89876604
7	0xbf38bfb5	-0.7216752
8	0xbf3a0a29	-0.72671753
9	0xc0163908	-2.347231
10	0x3f8e4c81	1.1117097
11	0x3f34b6d5	0.7059148
12	0x3f6574b3	0.89631194
13	0x3f5883ba	0.84576
14	0x3fd0b20d	1.6304337
15	0x3ecc3d3d	0.3989047
16	0x3e71114f	0.23541759
17	0x3f00ca21	0.50308424
18	0x3f1f5f7e	0.62255085
19	0x3f99e007	1.2021493
20	0x404991b7	3.1495187
21	0xbf422b57	-0.7584738
22	0xbeae1272	-0.33998448
23	0x3f1c1f98	0.6098571
24	0x3f1de0c1	0.6167107

critic.mlp.0.weight f4 [40, 60]
0	0xba7d5fb1	-0.0009665443
1	0x3d8dd557	0.06925457
2	0xbe01d469	-0.12678684
3	0xbdeca10f	-0.11554157
4	0xbd8fe217	-0.07025545
5	0x3d0dcc9e	0.034618966
6	0xbcbd2769	-0.023090081
7	0x3dac0478	0.0839929
8	0xbce8c7ff	-0.028415678
9	0x3e32b224	0.17450768
10	0xbd52d8ed	-0.051476408
11	0xbccfe257	-0.025376482
12	0xbdfc970a	-0.12333496
13	0xbdaf1ac2	-0.085500255
14	0xbd59fae1	-0.053217772
15	0x3b9cb4e1	0.0047823046
16	0x3d510cc1	0.051037554
17	0x3d9ea4b7	0.077462606
18	0xbdb33ea3	-0.087521814
19	0xbd6644db	-0.05621801
20	0x3d4010e9	0.046891127
21	0x3ddb8d0c	0.10720262
22	0xbcd9a694	-0.026568688
23	0x3dc5d9b3	0.096606635
24	0xbcaa76f8	-0.020808682
25	0x3c5fd077	0.013660542
26	0x3def676b	0.11689647
27	0xbdf545a3	-0.11976173
28	0xbda67275	-0.081273
29	0xbd05df20	-0.03268349
30	0xbd4e1f72	-0.050322957
31	0x3de47025	0.11154202
32	0xbdab603a	-0.08367963
33	0xbda3c288	-0.07996088
34	0xbdb704d5	-0.089364685
35	0xbe10d613	-0.14144163
36	0xbdf7dc22	-0.12102534
37	0x3de34624	0.11097363
38	0x3d6bf4d7	0.057606544
39	0x3d802534	0.06257096
40	0x3bde7acd	0.0067895413
41	0xbd878d22	-0.06618716
42	0x3aab9ef2	0.0013093634
43	0xbe19786a	-0.1498734
44	0xbde917e8	-0.11381513
45	0xbd884dcc	-0.066554636
46	0x3da6d137	0.08145373
47	0x3d9b0552	0.07569374
48	0xbd6a842e	-0.057254963
49	0xbb98a3f3	-0.004658216
50	0x3da918da	0.08256693
51	0x3dd3d9d6	0.10344283
52	0x3d289110	0.041153967
53	0xbbf467f7	-0.0074586826
54	0x3db14610	0.086559415
55	0xbd9bad42	-0.07601406
56	0x3cc512ff	0.02405691
57	0xbdccfcc7	-0.10009151
58	0xbdb73fbc	-0.08947703
59	0xbd88951c	-0.06669065
60	0x3d6f438a	0.05841402
61	0x3d54a8b0	0.051918685
62	0xbda638e2	-0.08116318
63	0x3d0c89e8	0.034311205
64	0x3d8789ff	0.066181175
65	0xbc857c3c	-0.016294591
66	0x397a2148	0.00023854256
67	0x3cce9bf1	0.025220843
68	0x3d9a2c3b	0.075279675
69	0x3e032a44	0.12809092
70	0xbdd744be	-0.105111584
71	0xbd41c938	-0.047311038
72	0x3d4fd1fa	0.05073736
73	0x3ddb109b	0.106965266
74	0x3de6143c	0.11234328
75	0x3de94a93	0.11391177
76	0x3cd2796e	0.025692668
77	0xbde5e9f4	-0.11226264
78	0x3c42944f	0.01187618
79	0xbda56847	-0.0807653
80	0xbdf66796	-0.12031476
81	0x3deae9df	0.114703886
82	0x3dc9092c	0.098162025
83	0xbe03defc	-0.1287803
84	0x3cc5f32e	0.024163809
85	0xbcb2290f	-0.021748094
86	0xbcae097a	-0.021244753
87	0xbd720ed0	-0.059096158
88	0x3d4b5997	0.049645986
89	0xbd9c9a3c	-0.07646605
90	0x3d41d9ae	0.047326736
91	0x3d85b500	0.06528664
92	0x3dbd45f9	0.09241862
93	0x3d3281f2	0.043580957
94	0xbe07821b	-0.13233225
95	0xbdb51e8b	-0.08843716
96	0x3d72132d	0.05910032
97	0x3cdd5a7d	0.027020687
98	0xbdce4036	-0.10070841
99	0xbd983e82	-0.074337974
100	0x3df8bae3	0.12145021
101	0x3db2278f	0.086989515
102	0xbd79c79b	-0.060981374
103	0xbd184d5d	-0.037183154
104	0xbe02bc11	-0.12767054
105	0xbb1812b6	-0.0023204512
106	0xbdc71b03	-0.09721949
107	0xbdcbf180	-0.09958172
108	0xbbe916ed	-0.0071133287
109	0x3c9eca72	0.019383643
110	0xbd588e5a	-0.052870132
111	0x3d93479a	0.07191391
112	0xbdaa807a	-0.08325286
113	0x3de64c4d	0.11245022
114	0x3db530b8	0.08847183
115	0xbddef5d9	-0.108867355
116	0xbd039b9d	-0.032130826
117	0x3bbee234	0.0058253054
118	0x3c9a4d6e	0.01883575
119	0x3cfad4d6	0.030619066
120	0x3d4f833e	0.05066227
121	0x3bfd65c2	0.0077330777
122	0xbd547857	-0.051872578
123	0x3d93e161	0.07220722
124	0xbde6d99b	-0.11271974
125	0xbd9cb586	-0.0765181
126	0xbcada8d8	-0.021198675
127	0xbd963c75	-0.0733575
128	0xbd0b773b	-0.034049254
129	0x3d3ddb0d	0.04635148
130	0xbc901d21	-0.017592015
131	0x3ce210ab	0.027595839
132	0xbdac3ea6	-0.08410387
133	0xbbd9190d	-0.0066253007
134	0x3dbd4492	0.092415944
135	0xbc597084	-0.013271455
136	0x3b6b23f9	0.0035879596
137	0xbc367916	-0.011137268
138	0x3cd608f7	0.026127322
139	0x3da81cfa	0.08208652
140	0x3dfa72a2	0.12228896
141	0x3da7e7f1	0.08198536
142	0x3dfb0554	0.12256876
143	0xbc18f8e5	-0.009336685
144	0xbded8327	-0.11597281
145	0xbd7ab01c	-0.061203107
146	0x3db40744	0.08790448
147	0xba5b6264	-0.00083688484
148	0xbd836aba	-0.06416841
149	0xbdca9c09	-0.098930426
150	0xbdf76f6b	-0.12081798
151	0xbddf26f1	-0.10896099
152	0xbcd68442	-0.026186112
153	0x3da7c475	0.08191768
154	0x3d61298b	0.05497126
155	0xbde8387b	-0.11338898
156	0x3e7497ab	0.23885982
157	0xbdcee461	-0.101021536
158	0xbcdf9577	-0.02729295
159	0xbd566911	-0.052346293
160	0xbccbb4e2	-0.024866525
161	0xbccfa60d	-0.025347734
162	0xbdd67bf5	-0.10472862
163	0xbdb15f6e	-0.0866078
164	0xbc14cf65	-0.00908265
165	0x3adad461	0.0016695374
166	0xbd703774	-0.058646634
167	0x3d4731fd	0.048631657
168	0xbdedf8b6	-0.116197035
169	0xbc0ebf26	-0.0087125655
170	0x3de883c2	0.11353256
171	0xbd193567	-0.037404444
172	0x3e502438	0.20326316
173	0x3d7dfc1e	0.062008016
174	0xbdee9b54	-0.1165072
175	0x3da7484d	0.08168087
176	0xbc741411	-0.014897362
177	0xbd6c0e5a	-0.057630874
178	0x3dd36cc4	0.1032348
179	0xbdd5a829	-0.10432465
180	0x3c62f7b9	0.013853007
181	0xbcdd6cba	-0.027029384
182	0x3d72c37a	0.059268452
183	0x3b4c199d	0.0031143196
184	0x3cee77ad	0.0291098
185	0x3d3abf55	0.045592625
186	0xbd8301c9	-0.06396825
187	0xbd1f35d6	-0.0388697
188	0xbdf1e95a	-0.118120864
189	0x3d882228	0.0664714
190	0x3d8d873f	0.06910562
191	0x3db4e7f5	0.08833305
192	0xbdba7fbc	-0.09106395
193	0x3bbcac1b	0.0057578213
194	0xbdba61ab	-0.0910066
195	0xbd918bae	-0.0710672
196	0xbd9a1097	-0.075226955
197	0x3d34b639	0.044119094
198	0xbd9d8e8e	-0.07693206
199	0xbb389687	-0.0028165893
200	0x3bb1f64a	0.0054309713
201	0x3daa6f7f	0.083220474
202	0xbdc7dcab	-0.09758886
203	0xbdb582c7	-0.088628344
204	0xbd99863e	-0.07496308
205	0x3db90f32	0.090361014
206	0xbd3e14fc	-0.04640673
207	0x3ddf03c7	0.10889392
208	0x3d3f3706	0.046683334
209	0x3c85eae0	0.016347349
210	0xba7beceb	-0.00096101937
211	0xbcd11088	-0.025520578
212	0x3c84b0e7	0.016197635
213	0xbd7f9992	-0.062402315
214	0xbb043f5f	-0.0020179374
215	0xbc86c422	-0.016450945
216	0xbe0f58c0	-0.13998699
217	0xbd8a93fd	-0.06766508
218	0x3dd57f61	0.10424686
219	0xbdd691c6	-0.10477023
220	0xbc17e1c8	-0.009270139
221	0x3e02c674	0.12771016
222	0x3c60aa1b	0.013712431
223	0x3d0e6878	0.034767598
224	0xbe144701	-0.14480211
225	0x3d82f9cc	0.06395301
226	0xbdbc52ee	-0.09195505
227	0xbd161ade	-0.036646716
228	0xbd316b0a	-0.04331497
229	0xbc9c9d59	-0.019117998
230	0x3ab9171c	0.0014121267
231	0x3e16497d	0.14676471
232	0x3bf427f8	0.0074510537
233	0x3e1fa87b	0.15591614
234	0x3da1bbef	0.078971736
235	0xbda72795	-0.081618465
236	0x3d6d2a42	0.05790163
237	0xbdbae677	-0.09125989
238	0xbd601d74	-0.05471559
239	0x3d1b878f	0.037971076
240	0x3d2e9a4b	0.042627614
241	0x3dc65b67	0.09685402
242	0xbcfc19b6	-0.030773979
243	0x3c341763	0.010991904
244	0x3d9e3482	0.07724859
245	0xbdffb1ea	-0.12485106
246	0x3dd53da6	0.10412149
247	0xbe1308cd	-0.14358826
248	0x3cdb5aad	0.026776636
249	0xbdcc498a	-0.09974964
250	0xbd368178	-0.044557065
251	0x3c8bc824	0.017063208
252	0x3ddaa23c	0.10675475
253	0xbd1a9377	-0.03773829
254	0xbd9cf85b	-0.076645575
255	0xbd43914c	-0.047745988

critic.mlp.0.bias f4 [40]
0	0x3dd5705e	0.10421823
1	0xbb880a7f	-0.004151642
2	0xbd883e09	-0.06652457
3	0x3d297029	0.04136673
4	0xbc83f0d7	-0.016106052
5	0x3c6a2bae	0.014292641
6	0xbd39f911	-0.045403544
7	0xbde857cb	-0.1134487
8	0xbdae1897	-0.08500784
9	0xbcabbd83	-0.02096439
10	0xbd883ddb	-0.06652423
11	0x3db8589d	0.09001277
12	0x3bb71e71	0.0055883457
13	0xbd4a702a	-0.049423374
14	0x3d6de37a	0.058078267
15	0xbe0191bb	-0.12653248
16	0xbda4f95a	-0.080553725
17	0x3d08b55c	0.033376083
18	0xbe06a834	-0.13150102
19	0x3d6f77da	0.05846391
20	0x3d18838b	0.037234824
21	0xbe01b320	-0.12665987
22	0xbe14f119	-0.14545096
23	0x3a10defc	0.00055263913
24	0x3d34d173	0.04414506
25	0xbcbd1141	-0.023079516
26	0xbd83a5ef	-0.06428134
27	0xbd9cd117	-0.07657068
28	0x3b0cc71b	0.002148098
29	0x3d2a2c6c	0.04154627
30	0x3cc5d5a0	0.024149716
31	0x3c163813	0.009168643
32	0xbc9e4292	-0.019318853
33	0x3e096d40	0.13420582
34	0x3e07f75e	0.13277957
35	0x3dd49c41	0.103813656
36	0x3e002d7e	0.12517354
37	0xbd9ec126	-0.07751684
38	0xbd48c62c	-0.049017116
39	0xbc69f0a7	-0.014278567

critic.mlp.2.weight f4 [1, 40]
0	0x3d375bf9	0.044765446
1	0x3d75a2cd	0.059969712
2	0xbe12e24f	-0.14344142
3	0xbdd12170	-0.10211456
4	0xbe264e87	-0.16240893
5	0x3e0431da	0.12909642
6	0xbd6f0d82	-0.05836249
7	0xbde74eea	-0.112943485
8	0xbe8b8ad7	-0.27254364
9	0xbdab87e4	-0.083755285
10	0x3d18e642	0.037328966
11	0x3dd29dd7	0.10284012
12	0xbddad55f	-0.106852286
13	0xbd6e6054	-0.058197334
14	0x3de8871f	0.11353897
15	0xbd83b14d	-0.06430302
16	0xbe2ec689	-0.17067923
17	0xbc596bb0	-0.013270304
18	0x3df24aa9	0.118306465
19	0x3d1f1b5d	0.038844455
20	0x3adcbf12	0.0016841611
21	0xbc526e71	-0.012843714
22	0x3dd65987	0.10466295
23	0xbda532f6	-0.08066361
24	0x3da37fa4	0.0798333
25	0x3d04650c	0.03232293
26	0x3dbb6ffa	0.09152217
27	0x3b157f56	0.0022811494
28	0xbdcd913e	-0.100374684
29	0x3df7b1a0	0.12094426
30	0x3d9bdaa9	0.076100655
31	0xbdb4b4e0	-0.08823562
32	0xbe09faba	-0.13474551
33	0x3dbaa5e8	0.09113675
34	0x3ddce660	0.10786128
35	0xbe26e40d	-0.16297932
36	0x3e0cb6a5	0.13741548
37	0xbdb0ba15	-0.08629242
38	0xbe2781a3	-0.16358046
39	0x3d8e7173	0.069552325
