evaluate_results/agent_logic_rf10_paper/checkpoints/step_494001.pth (torch, 13829 bytes, 4 tensors)

actor.im.W f4 [5, 50]
000000 58 d0 b9 3f b0 b5 21 3f a1 a0 e6 3e a5 6a 29 3e
       1.4516706 0.6316786 0.45044425 0.16544588
000010 ab 5a d0 bf f6 41 a8 3f 73 c2 4b be 14 7d ff be
       -1.627767 1.314513 -0.19898395 -0.49900115
000020 db e6 b9 3f 68 20 cc bf 82 40 8b 3e 5d 20 dc 3f
       1.4523576 -1.594739 0.27197653 1.7197376
000030 cf 34 bd 3f d0 63 41 bc b7 01 d4 3f 54 23 7d bf
       1.4781741 -0.011803582 1.6563023 -0.9888203
000040 c9 eb 44 3f 7d 9a 5e 3e 2c ed e1 3f 1f d4 6f 3e
       0.7692228 0.2173862 1.7650504 0.23420762
000050 33 af 98 3f db ba 89 be 67 11 41 3f f1 39 b1 3f
       1.1928467 -0.26900372 0.7541718 1.3845807
000060 61 83 c1 3f d8 2b 3f 3e 44 86 de bd f1 9d 86 bf
       1.5118219 0.18669069 -0.10865453 -1.051695
000070 8f ed 17 3f 09 fc 9e bf 4e 46 26 bf 34 f8 5a bc
       0.5934686 -1.2420665 -0.64951026 -0.01336484
000080 20 cb 0c bf 7a 1d 28 bf 80 a0 fd bd 2f 1e 7f bf
       -0.54997444 -0.6566998 -0.123841286 -0.9965543
000090 1f 32 59 3e 9d ba 9d 3f 45 2a 92 3f 3a 50 0f 3f
       0.21210526 1.2322575 1.141915 0.5598179
0000a0 29 cc 37 bf a5 fe 0e bf 7f 5e 83 3e 2e cc 28 3e
       -0.717959 -0.55857307 0.25658032 0.16484138
0000b0 b6 b5 d6 bf f4 d8 6a 3f c6 d8 6b 3e 2c fb 61 bf
       -1.6774204 0.91737294 0.23031911 -0.8827388
0000c0 13 12 c6 be 17 ef ae 3f 31 e4 20 c0 b4 0e 61 3f
       -0.38685665 1.3666714 -2.5139277 0.8791306
0000d0 86 92 03 40 8c a1 75 bf 28 82 9d 3f e7 f0 99 bf
       2.055818 -0.95949626 1.2305346 -1.2026643
0000e0 8f d0 13 3f 8e 01 ab bf 09 53 eb 3f 20 aa 86 3e
       0.5774011 -1.335985 1.8384715 0.2630167
0000f0 3f e2 6f 3e 57 33 a2 3f 39 7c 0d 3e 8f 77 ef be
       0.2342615 1.2671918 0.13816918 -0.46770903
000100 c7 95 83 3e aa ce bf be 6a e6 3f 3e 88 ac 77 3e
       0.2570021 -0.3746236 0.1874024 0.24186909
000110 24 56 f9 3f 7d ca 57 be 2a 22 d7 3e 73 e9 ac bf
       1.9479413 -0.21073337 0.42018253 -1.3508743
000120 11 0a 83 3e 0e 5b 9b 3f 90 cf 59 3d 52 53 c5 be
       0.25593618 1.2137163 0.053176463 -0.3854013
000130 60 6e 84 3f 05 50 35 3f da 38 1e bf 6e 93 b1 bf
       1.0346184 0.70825225 -0.618055 -1.3873117
000140 19 40 f4 bf 08 9e de 3e 9e f1 41 bf 95 fc 86 bf
       -1.9082061 0.43479943 -0.75759304 -1.0545832
000150 77 8b 05 40 39 a4 74 3f 83 9c 79 be e6 e5 b5 bf
       2.0866373 0.95563084 -0.2437611 -1.4210784
000160 6e 19 5e be 36 e5 ed 3f 7e 6e cf 3e 50 a7 df 3d
       -0.21689388 1.8585575 0.40513986 0.10920584
000170 7b 7d b7 be 5c bb a2 3d 6b a5 b6 3e e7 02 96 bd
       -0.35837922 0.07945892 0.3567308 -0.07324772
000180 d3 91 8d 3e b1 d2 33 bf 94 a9 b9 3f ba a9 82 bf
       0.27650318 -0.70243365 1.4504876 -1.0208046
000190 86 d9 52 be a0 2a f8 be 9e ec 2c 3f 03 c4 dd bd
       -0.20590791 -0.4847002 0.6754855 -0.10828402
0001a0 0b 6a b0 3b 5a ce d2 3f e8 19 8d bf c8 fc 0a c0
       0.005383735 1.6469223 -1.1023531 -2.1716785
0001b0 53 54 51 bf 96 a5 c1 3f 42 6f 55 40 ad 55 4c 40
       -0.81769294 1.5128658 3.3349156 3.1927292
0001c0 f2 c1 27 40 08 a9 db 3c df 8b 9c 3f f8 6a b3 be
       2.6212125 0.026813999 1.2230185 -0.35042548
0001d0 91 63 24 40 57 37 49 be e5 3b e3 bf d6 7d ea 3e
       2.568577 -0.19650017 -1.7752653 0.4579913
0001e0 12 f8 dc bf bb cf cd 3f 5d 23 aa 3e 22 d3 4e bf
       -1.7263205 1.6079019 0.33230105 -0.80790913
0001f0 47 30 98 3f 9e d6 ed 3e d8 d6 32 bf 61 4a 8e bb
       1.1889733 0.46452802 -0.69859076 -0.0043423628
000200 2a e0 e3 3e ea 29 93 3d 17 e7 f9 be 8b 36 c1 3e
       0.4450696 0.07185729 -0.4880912 0.37736925
000210 a3 61 08 bf f9 0a a5 bf 6a 20 0b 3f ef 79 1f 3e
       -0.5327398 -1.2893974 0.54346335 0.15573858
000220 bb 91 04 bf 19 e9 bc 3f b0 d7 bd bf a5 29 ff 3d
       -0.5178487 1.4758636 -1.4831448 0.12459115
000230 93 bb 07 40 76 2f 87 3f f1 83 21 40 ff 2c c3 be
       2.1208236 1.0561359 2.523678 -0.38120267
000240 0c f6 1d 3f 52 4d 87 3f 6c 42 c1 3f 4d 53 ee be
       0.6170356 1.0570471 1.5098395 -0.46547928
000250 0d 15 ca bf 1d 34 82 bf 31 e2 94 3f 0c 06 62 bf
       -1.5787674 -1.0172154 1.1631528 -0.88290477
000260 f4 e9 2e 3f d5 78 2c 3f b4 a2 91 3e 40 fd 3c 3f
       0.68325734 0.67371875 0.28444445 0.7382393
000270 9b 70 0f bf ea f8 18 bf a6 3b 81 3f f8 cd a8 bf
       -0.560312 -0.5975481 1.0096328 -1.3187857
000280 0a 32 45 3f 42 83 7a 3e 9c 6f 93 be 8b 09 0c 3f
       0.7702948 0.24464133 -0.2879609 0.5470206
000290 6f 25 93 3e fb f1 db be ce 3f 0c 3f 0f 2a fb 3f
       0.28739497 -0.42958054 0.5478486 1.962221
0002a0 05 32 33 3f 51 7e c6 3e b5 03 0c 40 d9 06 9e bf
       0.699982 0.38768247 2.1877263 -1.234584
0002b0 31 9e 0f 40 d1 a7 81 3f 25 b6 05 c0 ec 78 10 c0
       2.2440302 1.0129339 -2.0892422 -2.2573805
0002c0 88 d0 08 be a4 1e 8e 3d 45 1e 4d be 2b aa d8 bd
       -0.13360798 0.06939438 -0.20031078 -0.10579332
0002d0 23 3d 01 3d fd 35 dd bf 0d 1f a2 3f 21 53 c6 be
       0.031552445 -1.7282101 1.2665726 -0.38735297
0002e0 19 7c 13 be 36 2a 0d 40 03 58 c2 3f 2e df 33 bd
       -0.14402808 2.2057014 1.5183109 -0.043914013
0002f0 b5 5d 32 3f 94 ec 85 bd f9 a1 ee 3e db b0 d8 be
       0.69674236 -0.06539264 0.4660795 -0.4232243
000300 01 99 be 3f ab c7 12 bf 44 b8 36 3f 63 94 f3 be
       1.4890443 -0.5733592 0.7137492 -0.47574148
000310 29 3d 71 bf ea 3b 61 3e 34 1c ec 3d 08 63 4a bf
       -0.9423395 0.21995512 0.11528817 -0.7905736
000320 03 01 93 be 0a b2 50 3d d3 ae f6 bf 42 69 d1 bf
       -0.2871171 0.05095104 -1.9272102 -1.6360247
000330 d5 f4 9e bf be 58 6f 3f cc ef c0 bf b5 08 e4 be
       -1.2418467 0.93494785 -1.507318 -0.44537893
000340 6b eb 7f bf 90 6d 47 bf 1e 1b cb be 2c 2d f3 bf
       -0.99968594 -0.77901554 -0.39669126 -1.899816
000350 6f 96 e3 bf c3 ec 01 c0 c3 ee bc bf c3 e1 56 bf
       -1.7780284 -2.0300758 -1.4760364 -0.83938235
000360 ac 5e 9a bf 00 09 76 bf 0a d1 f4 bf dd 48 bf be
       -1.2060142 -0.9610748 -1.9126294 -0.37360278
000370 11 89 c4 3f 0b 49 4a bf d7 17 36 bf 9f 11 5e 3d
       1.5354329 -0.79017705 -0.71130127 0.054216024
000380 56 86 64 bf 69 46 2e c0 2f 01 a2 bf ab 93 ca 3e
       -0.8926748 -2.7230475 -1.2656611 0.39565787
000390 dd 20 62 bf bd 53 70 3f 56 09 06 40 08 a1 be 40
       -0.88331395 0.93877774 2.0943198 5.957157
0003a0 0e 32 6d 40 ee 5e 17 40 b1 cb 2e bf 92 8e 41 40
       3.70618 2.365169 -0.6827956 3.0243268
0003b0 81 10 33 c0 66 01 4b c0 bd bf e2 3f 2a 75 3d 3e
       -2.7978823 -3.1719604 1.7714764 0.18501726
0003c0 34 c9 83 3e f8 96 42 c0 49 d3 1e 3d ee dc df bf
       0.25739443 -3.0404644 0.038775716 -1.7489297
0003d0 48 b5 37 c0 6c b7 0d c0 88 d4 26 c0 74 4d eb bf
       -2.8704395 -2.2143202 -2.6067219 -1.8383012
0003e0 59 f3 33 bf e3 66 53 bf
       -0.70293194 -0.8257887

critic.mlp.0.weight f4 [40, 60]
000000 b1 5f 7d ba 57 d5 8d 3d 24 79 b5 bd 5d 71 9e bd
       -0.0009665443 0.06925457 -0.08860996 -0.07736466
000010 b8 64 03 bd 9e cc 0d 3d a6 2d 77 3c e7 35 fe 3d
       -0.032078475 0.034618966 0.015086567 0.12412625
000020 50 c1 87 bb 01 45 02 be 60 ca c7 3c 57 e2 cf bc
       -0.0041429177 -0.12721635 0.024388492 -0.025376482
000030 0a 97 fc bd c2 1a af bd e1 fa 59 bd e1 b4 9c 3b
       -0.12333496 -0.085500255 -0.053217772 0.0047823046
000040 c1 0c 51 3d b7 a4 9e 3d a3 3e b3 bd db 44 66 bd
       0.051037554 0.077462606 -0.087521814 -0.05621801
000050 e9 10 40 3d 0c 8d db 3d 94 a6 d9 bc b3 d9 c5 3d
       0.046891127 0.10720262 -0.026568688 0.096606635
000060 f8 76 aa bc 77 d0 5f 3c 6b 67 ef 3d a3 45 f5 bd
       -0.020808682 0.013660542 0.11689647 -0.11976173
000070 75 72 a6 bd 20 df 05 bd 72 1f 4e bd 25 70 e4 3d
       -0.081273 -0.03268349 -0.050322957 0.11154202
000080 3a 60 ab bd b9 25 2b bd 58 95 e8 bc 50 7c d3 bd
       -0.08367963 -0.041784022 -0.028391525 -0.10326445
000090 ac b5 4a be 24 46 e3 3d d7 f4 6b 3d 34 25 80 3d
       -0.19795865 0.11097363 0.057606544 0.06257096
0000a0 cd 7a de 3b 22 8d 87 bd 6a bc 21 3d 18 53 7b be
       0.0067895413 -0.06618716 0.039486326 -0.24543417
0000b0 34 e8 9a bd cc 4d 88 bd 37 d1 a6 3d 52 05 9b 3d
       -0.075638205 -0.066554636 0.08145373 0.07569374
0000c0 2e 84 6a bd f3 a3 98 bb da 18 a9 3d c2 d4 4f 3e
       -0.057254963 -0.004658216 0.08256693 0.20296004
0000d0 25 92 29 bd 1f 89 bc 3d 10 46 b1 3d 42 ad 9b bd
       -0.04139914 0.09205841 0.086559415 -0.07601406
0000e0 ff 12 c5 3c c7 fc cc bd bc 3f b7 bd 1c 95 88 bd
       0.02405691 -0.10009151 -0.08947703 -0.06669065
0000f0 8a 43 6f 3d b0 a8 54 3d 6d ae b0 bd 9f 3f ef 3c
       0.05841402 0.051918685 -0.08627019 0.029205142
000100 e7 28 7a 3d 3c 7c 85 bc b6 7f 9f bb dd 47 a2 3c
       0.061074164 -0.016294591 -0.0048675193 0.019809658
000110 7d df 8e 3d e0 e6 eb 3d 9f 9d ff bd 38 c9 41 bd
       0.06976221 0.11518645 -0.12481236 -0.047311038
000120 fa d1 4f 3d 9b 10 db 3d 3c 14 e6 3d 93 4a e9 3d
       0.05073736 0.106965266 0.11234328 0.11391177
000130 6e 79 d2 3c f4 e9 e5 bd 4f 94 42 3c 47 68 a5 bd
       0.025692668 -0.11226264 0.01187618 -0.0807653
000140 96 67 f6 bd df e9 ea 3d 2c 09 c9 3d fc de 03 be
       -0.12031476 0.114703886 0.098162025 -0.1287803
000150 2e f3 c5 3c 0f 29 b2 bc 7a 09 ae bc d0 0e 72 bd
       0.024163809 -0.021748094 -0.021244753 -0.059096158
000160 97 59 4b 3d 3c 9a 9c bd ae d9 41 3d 00 b5 85 3d
       0.049645986 -0.07646605 0.047326736 0.06528664
000170 f9 45 bd 3d e8 96 1d 3d d0 39 0c be de 93 bf bd
       0.09241862 0.038473994 -0.13693929 -0.09354375
000180 f5 1a 3d 3d 7d 5a dd 3c 36 40 ce bd 82 3e 98 bd
       0.046168286 0.027020687 -0.10070841 -0.074337974
000190 e3 ba f8 3d 8f 27 b2 3d 57 59 87 bd 4e b6 36 bd
       0.12145021 0.086989515 -0.06608837 -0.044607453
0001a0 b4 f6 07 be b6 12 18 bb 03 1b c7 bd 80 f1 cb bd
       -0.13277704 -0.0023204512 -0.09721949 -0.09958172
0001b0 ed 16 e9 bb 72 ca 9e 3c 5a 8e 58 bd 19 19 92 3d
       -0.0071133287 0.019383643 -0.052870132 0.07133693
0001c0 8c 1a aa bd ce 1d e5 3d b8 30 b5 3d d9 f5 de bd
       -0.08305845 0.111873254 0.08847183 -0.108867355
0001d0 9d 9b 03 bd 34 e2 be 3b 6e 4d 9a 3c d6 d4 fa 3c
       -0.032130826 0.0058253054 0.01883575 0.030619066
0001e0 3e 83 4f 3d c2 65 fd 3b 46 ed 7c bd af 4d 7f 3d
       0.05066227 0.0077330777 -0.06174972 0.062329944
0001f0 1e 14 fb bd 86 b5 9c bd 50 93 fe bc 71 4b 7b 3c
       -0.122596964 -0.0765181 -0.031076103 0.015337811
000200 da ca de bc 5f 09 0c bd 7d c9 da 3d ab 10 e2 3c
       -0.027196337 -0.034188624 0.10682962 0.027595839
000210 a6 3e ac bd 0d 19 d9 bb 92 44 bd 3d 84 70 59 bc
       -0.08410387 -0.0066253007 0.092415944 -0.013271455
000220 f9 23 6b 3b 16 79 36 bc f7 08 d6 3c fa 1c a8 3d
       0.0035879596 -0.011137268 0.026127322 0.08208652
000230 a2 72 fa 3d f1 e7 a7 3d 54 05 fb 3d e5 f8 18 bc
       0.12228896 0.08198536 0.12256876 -0.009336685
000240 27 83 ed bd 1c b0 7a bd 44 07 b4 3d 64 62 5b ba
       -0.11597281 -0.061203107 0.08790448 -0.00083688484
000250 ba 6a 83 bd 09 9c ca bd 6b 6f f7 bd f1 26 df bd
       -0.06416841 -0.098930426 -0.12081798 -0.10896099
000260 42 84 d6 bc 11 8a 93 3d 50 db 7d 3d f8 72 fc bd
       -0.026186112 0.072040685 0.06197673 -0.12326616
000270 bd 65 1c 3e 61 e4 ce bd 77 95 df bc 11 69 56 bd
       0.15273185 -0.101021536 -0.02729295 -0.052346293
000280 e2 b4 cb bc 0d a6 cf bc 6f b6 ea bd c4 ef 2e be
       -0.024866525 -0.025347734 -0.11460578 -0.17083651
000290 f6 51 9b bc 61 d4 da 3a 74 37 70 bd fd 31 47 3d
       -0.01895998 0.0016695374 -0.058646634 0.048631657
0002a0 b6 f8 ed bd 26 bf 0e bc c2 83 e8 3d af 80 8f bd
       -0.116197035 -0.0087125655 0.11353256 -0.07006966
0002b0 f2 9b 52 3e f0 5f f0 3c 54 9b ee bd 4d 48 a7 3d
       0.20567301 0.029342622 -0.1165072 0.08168087
0002c0 11 14 74 bc 5a 0e 6c bd c4 6c d3 3d 29 a8 d5 bd
       -0.014897362 -0.057630874 0.1032348 -0.10432465
0002d0 b9 f7 62 3c ba 6c dd bc 3b 77 25 3d 25 15 81 bc
       0.013853007 -0.027029384 0.04039691 -0.015757153
0002e0 9b be 27 3c 55 bf 3a 3d e3 a7 a9 bd d0 04 87 bd
       0.010238315 0.045592625 -0.08283975 -0.06592715
0002f0 5b 37 ab bd 95 b5 2f 3e 53 a6 8c 3d f5 e7 b4 3d
       -0.083601676 0.17159112 0.06867661 0.08833305
000300 bc 7f ba bd 1b ac bc 3b ab 61 ba bd ae 8b 91 bd
       -0.09106395 0.0057578213 -0.0910066 -0.0710672
000310 97 10 9a bd 39 b6 34 3d 8e 8e 9d bd 87 96 38 bb
       -0.075226955 0.044119094 -0.07693206 -0.0028165893
000320 4a f6 b1 3b 7f 6f aa 3d ab dc c7 bd c7 82 b5 bd
       0.0054309713 0.083220474 -0.09758886 -0.088628344
000330 3e 86 99 bd 32 0f b9 3d fc 14 3e bd c7 03 df 3d
       -0.07496308 0.090361014 -0.04640673 0.10889392
000340 06 37 3f 3d e0 ea 85 3c eb ec 7b ba 88 10 d1 bc
       0.046683334 0.016347349 -0.00096101937 -0.025520578
000350 e7 b0 84 3c d4 72 a6 bd 49 2b d5 3c 39 ae 10 bd
       0.016197635 -0.081273705 0.026021617 -0.0353224
000360 1a ec 49 bd fd 93 8a bd 61 7f d5 3d c6 91 d6 bd
       -0.04929743 -0.06766508 0.10424686 -0.10477023
000370 c8 e1 17 bc 74 c6 02 3e 9e 0d a9 bb ea 0c 8e 3d
       -0.009270139 0.12771016 -0.005159094 0.06936057
000380 14 9a 27 be cc f9 82 3d ee 52 bc bd de 1a 16 bd
       -0.1636737 0.06395301 -0.09195505 -0.036646716
000390 0a 6b 31 bd 59 9d 9c bc 1c 17 b9 3a 7a dc 10 3e
       -0.04331497 -0.019117998 0.0014121267 0.14146605
0003a0 87 08 ff bc 7e 3b 1a 3e ef bb a1 3d 95 27 a7 bd
       -0.031131996 0.15061757 0.078971736 -0.081618465
0003b0 42 2a 6d 3d 77 e6 ba bd 74 1d 60 bd 8f 87 1b 3d
       0.05790163 -0.09125989 -0.05471559 0.037971076
0003c0 4b 9a 2e 3d 67 5b c6 3d 3a a8 15 bd c4 53 ab 3b
       0.042627614 0.09685402 -0.036537386 0.0052284915
0003d0 ac 66 92 3d ea b1 ff bd b7 6f c9 3d ed 09 f3 bd
       0.07148489 -0.12485106 0.09835761 -0.118671276
0003e0 9c 57 74 3d 66 61 ff bb 07 4f ab 3b 24 c8 8b 3c
       0.059653863 -0.007793593 0.0052279267 0.017063208
0003f0 3c a2 da 3d 77 93 1a bd 5b f8 9c bd 4c 91 43 bd
       0.10675475 -0.03773829 -0.076645575 -0.047745988

critic.mlp.0.bias f4 [40]
000000 18 d0 11 3e 9b ad 17 bc 8a 78 9c bd 45 48 b8 3c
       0.14239538 -0.009257699 -0.076401785 0.022495398
000010 8d 27 b3 bc 51 76 a4 bc 61 d9 56 bd 7f 94 07 be
       -0.021869445 -0.020075949 -0.052453402 -0.1324024
000020 bf a1 fb bd f5 64 11 3c c7 cf af bd 72 6f a7 3d
       -0.1228671 0.008874168 -0.08584552 0.081755534
000030 99 e4 f9 3c 0c 08 70 bd e1 67 8b 3d 27 d1 1a be
       0.030504512 -0.058601424 0.06806923 -0.15118848
000040 87 73 be bd a9 5b 9e bc bf a1 9d bd 71 fe 5d 3d
       -0.09299379 -0.019330816 -0.07696866 0.054197732
000050 ff 4f 1f bd d6 54 54 be 08 17 1a be 63 b9 c2 bb
       -0.03889465 -0.20735487 -0.15047848 -0.00594251
000060 df 02 cc 3d fe 4c 7f bd 6e 5a 62 bd a1 7a 0a be
       0.09961485 -0.062329285 -0.05526202 -0.13523342
000070 0c d4 a3 bc 39 02 2a 3d dc 9a 5b 3c 40 15 96 3c
       -0.019998573 0.041506026 0.013403621 0.01832068
000080 d5 7f b6 bc 0c 33 d3 3d 4e f0 13 3e 6b 76 aa 3d
       -0.022277752 0.10312471 0.14447138 0.08323368
000090 32 31 84 3d a3 08 99 bd 4a d4 2e bd a7 f0 69 bc
       0.06454696 -0.074723504 -0.042682923 -0.014278567

critic.mlp.2.weight f4 [1, 40]
000000 41 79 8e 3d 00 2a 71 3d 59 14 e6 bd 13 94 3a bd
       0.06956721 0.058877945 -0.1123435 -0.04555137
000010 17 ab cb bd 61 c7 74 3c 1b 2c 18 bd 2c 06 6a be
       -0.09944742 0.014940114 -0.037151437 -0.22853917
000020 a3 63 5f be 60 75 06 be 3b 31 a5 3d 99 70 33 3e
       -0.21815352 -0.13130713 0.080660306 0.17523421
000030 54 e9 0f be 1a 44 4c bd ce bb a1 3d 73 5b 2c bd
       -0.14053851 -0.049869634 0.07897149 -0.0420794
000040 2a 8a 2d bd 60 5b b6 3b f5 9e 88 3d cb 9b 11 3d
       -0.04236809 0.005565092 0.06670944 0.035548966
000050 d6 6d b8 bc 23 17 0a bd ce 77 a6 3d 7c 80 ca bc
       -0.022513311 -0.03371347 0.0812832 -0.02471947
000060 96 7f 46 3d 13 4c 8d 3a e0 61 0b 3e a5 cb a3 bb
       0.04846152 0.0010780118 0.13611555 -0.0049986416
000070 02 23 af bd 01 78 0d 3e 62 b4 b2 3d 0c 28 88 bd
       -0.08551599 0.13815309 0.087258115 -0.06648263
000080 db dd af bd 61 e2 51 3d f4 b8 99 3d 45 44 66 be
       -0.085872374 0.051241282 0.0750598 -0.2248698
000090 35 e2 ec 3d 84 8a 69 bd e3 32 94 be 73 71 8e 3d
       0.11566583 -0.057016864 -0.28945073 0.069552325
