evaluate_results/agent_logic_rf10_paper/checkpoints/step_32001.pth (torch, 13818 bytes, 4 tensors)

actor.im.W f4 [5, 50]
0.9770863 0.15710363 -0.044232897 -0.077318974 -1.5779827 1.3643314 -0.44174722 -0.28897423
0.33984327 -1.8814783 -0.22663529 1.2304884 0.98892367 -0.49701828 1.1069345 -1.527599
0.2808539 -0.27097374 1.2262237 -0.30952638 1.8112451 0.015297847 0.19383772 1.2100866
1.3759317 0.39655486 0.10120969 -1.1875794 0.69881034 -1.0155003 -0.63560784 -0.49538302
-1.0319799 -0.6333781 -0.66494465 -1.4838353 -0.1160828 0.9040619 0.65459573 0.22582905
-1.1745021 0.33429623 1.149463 -0.7205561 -1.7553202 0.83947396 0.05187199 -0.36614692
0.12974314 0.83485657 -1.8208183 1.5724384 2.4179726 -0.59331995 1.1899775 -1.2432373
0.943594 -0.76630044 0.6135829 0.3429193 -0.12140743 0.92927045 -0.19974375 -0.81345445
-0.16123044 -0.56037194 -0.1629068 -0.10844099 1.7621878 -0.39573154 0.20621803 -1.5636132
-0.14703193 0.9449704 -0.34736124 -0.33885214 1.0811639 0.3077063 -0.5694073 -1.6241091
-1.3532408 0.06683486 -1.1255378 -0.48974255 1.6337929 0.42135233 -0.5423924 -1.7196966
-0.75115716 1.391894 0.15114135 0.667784 0.20019332 0.6384142 0.26381987 -0.16615702
0.19643027 -0.30405152 1.8488693 -0.6758875 -0.38174465 -0.6605293 0.52593917 0.49105886
0.30612636 1.9476645 -0.503022 -1.6184239 -0.63840216 2.0303063 2.1702335 0.19888051
-0.37258583 -1.1272188 0.9740511 0.70062447 1.1666697 -1.5982593 -0.72431165 -0.33649355
-1.9067899 1.8794612 0.15166983 -0.5348651 1.3417963 0.26801774 -0.8950753 0.14847563
0.61653405 0.3744691 -0.6354818 0.1740152 -0.73607576 -1.4303639 0.30046725 -0.053153563
-0.59577173 1.3979366 -1.69196 0.045306124 0.01981359 0.026926473 1.4944426 0.33521923
0.40537524 0.84538275 1.6365947 0.86910665 -0.24421099 0.36456388 1.2120378 -0.83402526
0.7250161 0.89806324 0.3859494 0.83974683 -0.3359756 -0.35518587 0.75874114 -1.1067805
0.8087294 0.28953317 -0.24306966 0.5900266 0.30822226 -0.37724382 0.5056744 1.9200515
0.75232524 0.3439875 2.3305788 0.06791585 1.5358702 0.76345015 -2.1391058 -1.4137031
0.710135 0.019527609 0.5507555 1.0409575 0.5138005 -1.6973898 1.2974031 0.09901091
-0.13916218 1.9538876 1.6156372 0.05340439 0.4449279 -0.24829146 0.5260775 0.23804714
2.150325 0.0797276 0.796421 -0.39307103 -0.8624277 0.917006 0.81233776 -0.18365929
1.1216122 1.4597386 -0.49607822 -0.25614843 -0.34048706 1.8364444 -0.1273582 0.47751755
0.042532682 0.5322457 1.0054458 -0.4951697 -0.37326562 -0.6204722 -0.12893686 0.47383085
0.07002499 0.31506965 -0.60007125 0.8500357 2.5812283 0.27173144 0.5604139 1.0884879
-0.36697212 -1.2561605 0.20258293 0.92146623 -0.2587331 1.608416 0.30527323 2.1914482
-0.058999497 0.7510561 0.68107784 0.7868892 -1.2163057 -1.5913601 -0.46579462 -1.2857842
1.734106 -1.6391784 1.4430866 -0.30311728 -1.4730575 -0.8156517 -1.2942022 -0.5064678
0.629516 0.25364318
00000000: 5422 7a3f c6df 203e 8e2d 35bd 6959 9ebd
00000010: 56fb c9bf 69a2 ae3f b12c e2be 6ef4 93be
00000020: f0ff ad3e 48d4 f0bf 1513 68be a580 9d3f
00000030: 1a2a 7d3f 2e79 febe 08b0 8d3f 5d88 c3bf
00000040: 15cc 8f3e 12bd 8abe e6f4 9c3f 3e7a 9ebe
00000050: e1d6 e73f d2a3 7a3c 657d 463e 1ee4 9a3f
00000060: 881e b03f 3d09 cb3e 0747 cf3d 9a02 98bf
00000070: 3ce5 323f eafb 81bf 32b7 22bf d8a2 fdbe
00000080: eb17 84bf 1125 22bf d039 2abf 51ee bdbf
00000090: d2bc edbd 9a70 673f 9693 273f bb3f 673e
000000a0: 1656 96bf e028 ab3e 9b21 933f 5d76 38bf
000000b0: 55ae e0bf c4e7 563f b977 543d 9c77 bbbe
000000c0: 63db 043e 29b9 553f 9310 e9bf a945 c93f
000000d0: 10c0 1a40 d1e3 17bf 2f51 983f 6622 9fbf
000000e0: 608f 713f 442c 44bf c513 1d3f 1e93 af3e
000000f0: 75a4 f8bd abe4 6d3f a089 4cbe 8d3e 50bf
00000100: 9819 25be 8974 0fbf 0ad1 26be 4f16 debd
00000110: 5f8f e13f 539d cabe d22a 533e 7a24 c8bf
00000120: 8a8f 16be 95e9 713f 55d9 b1be 077e adbe
00000130: 9463 8a3f ae8b 9d3e adc4 11bf cfe2 cfbf
00000140: ff36 adbf b7e0 883d 9f11 90bf 89bf fabe
00000150: 2020 d13f 7ebb d73e 3ada 0abf 051f dcbf
00000160: d64b 40bf 9529 b23f ccc4 1a3e e4f3 2a3f
00000170: 7aff 4c3e 1d6f 233f 6613 873e 1125 2abe
00000180: 0425 493e a4ac 9bbe c0a7 ec3f f706 2dbf
00000190: 0974 c3be 7318 29bf f3a3 063f 116c fb3e
000001a0: 98bc 9c3e 124d f93f 0dc6 00bf 8428 cfbf
000001b0: 536e 23bf 8af0 0140 1be5 0a40 55a7 4b3e
000001c0: 92c3 bebe b548 90bf 6a5b 793f 205c 333f
000001d0: 6f55 953f c393 ccbf 7d6c 39bf e248 acbe
000001e0: b111 f4bf 2f92 f03f 564f 1b3e ebec 08bf
000001f0: fbbf ab3f 9f39 893e a823 65bf ff09 183e
00000200: 2dd5 1d3f 6aba bf3e efae 22bf 0a31 323e
00000210: 766f 3cbf 2a16 b7bf d8d6 993e 8db7 59bd
00000220: 7f84 18bf 96ef b23f 2592 d8bf ea92 393d
00000230: 1c50 a23c e894 dc3c e549 bf3f dba1 ab3e
00000240: 588d cf3e 016b 583f ef7b d13f c67d 5e3f
00000250: 7212 7abe 1ea8 ba3e 0e24 9b3f ae82 55bf
00000260: a89a 393f 79e7 653f 299b c53e a6f9 563f
00000270: fe04 acbe ecda b5be dc3c 423f fcaa 8dbf
00000280: e408 4f3f b13d 943e 41e7 78be fc0b 173f
00000290: 4fcf 9d3e 1a26 c1be e173 013f 3fc4 f53f
000002a0: 6398 403f 211f b03e 3428 1540 7717 8b3d
000002b0: 6597 c43f 7871 433f 1ce7 08c0 39f4 b4bf
000002c0: 68cb 353f 5df8 9f3c 50fe 0c3f 183e 853f
000002d0: 6e88 033f 1244 d9bf 4e11 a63f 3bc6 ca3d
000002e0: 8880 0ebe fd18 fa3f 33cd ce3f 90be 5a3d
000002f0: 97cd e33e 1e40 7ebe 04ad 063f a1c2 733e
00000300: ed9e 0940 3948 a33d 3fe2 4b3f 9b40 c9be
00000310: 10c8 5cbf e8c0 6a3f 5ef5 4f3f 2e11 3cbe
00000320: fd90 8f3f b7d8 ba3f f7fd fdbe e325 83be
00000330: 5254 aebe 9c10 eb3f 306a 02be 2e7d f43e
00000340: c036 2e3d 4141 083f 73b2 803f e286 fdbe
00000350: ac1c bfbe 44d7 1ebf 0608 04be f599 f23e
00000360: 4369 8f3d cf50 a13e 459e 19bf f19b 593f
00000370: d832 2540 6220 8b3e 4977 0f3f 9253 8b3f
00000380: c5e3 bbbe dec9 a0bf e671 4f3e 36e5 6b3f
00000390: aa78 84be 93e0 cd3f c64c 9c3e b040 0c40
000003a0: 75a9 71bd 3645 403f 1e5b 2e3f 9271 493f
000003b0: e8af 9bbf b0b1 cbbf a27c eebe 9494 a4bf
000003c0: 2ff7 dd3f 99d0 d1bf 10b7 b83f 3032 9bbe
000003d0: 268d bcbf 8dce 50bf 6ba8 a5bf e0a7 01bf
000003e0: f627 213f 85dd 813e

critic.mlp.0.weight f4 [40, 60]
-0.0009665443 0.06925457 -0.105179965 -0.09393462 -0.048648532 0.034618966 -0.0014831792 0.10682382
-0.012910858 0.0029570682 -0.044091962 -0.025376482 -0.12333496 -0.085500255 -0.053217772 0.0047823046
0.051037554 0.077462606 -0.087521814 -0.05621801 0.046891127 0.10720262 -0.026568688 0.096606635
-0.020808682 0.013660542 0.11689647 -0.11976173 -0.081273 -0.03268349 -0.050322957 0.11154202
-0.08367963 -0.058354024 -0.080344506 -0.11983474 -0.18416625 0.11097363 0.057606544 0.06257096
0.0067895413 -0.06618716 0.022916365 -0.13733111 -0.092208214 -0.066554636 0.08145373 0.07569374
-0.057254963 -0.004658216 0.08256693 0.12549916 0.05097028 0.014597497 0.086559415 -0.07601406
0.02405691 -0.10009151 -0.08947703 -0.06669065 0.05841402 0.051918685 -0.085990675 0.02948462
0.061353706 -0.016294591 -0.0045880415 0.020109735 0.07008784 0.11531053 -0.12405742 -0.047311038
0.05073736 0.106965266 0.11234328 0.11391177 0.025692668 -0.11226264 0.01187618 -0.0807653
-0.12031476 0.114703886 0.098162025 -0.1287803 0.024163809 -0.021748094 -0.021244753 -0.059096158
0.049645986 -0.07646605 0.047326736 0.06528664 0.09241862 0.038753524 -0.13668825 -0.093264274
0.04671619 0.027020687 -0.10070841 -0.074337974 0.12145021 0.086989515 -0.06580886 -0.044342704
-0.13249761 -0.0023204512 -0.09721949 -0.09958172 -0.0071133287 0.019383643 -0.052870132 0.07133693
-0.08305845 0.111873254 0.08847183 -0.108867355 -0.032130826 0.0058253054 0.01883575 0.030619066
0.05066227 0.0077330777 -0.068956904 0.055122893 -0.12980412 -0.0765181 -0.038282968 -0.052362792
-0.052094482 -0.09173374 -0.038983297 0.027595839 -0.08410387 -0.0066253007 0.092415944 -0.013271455
0.0035879596 -0.011137268 0.026127322 0.08208652 0.12228896 0.08198536 0.12256876 -0.009336685
-0.11597281 -0.061203107 0.08790448 -0.00083688484 -0.06416841 -0.098930426 -0.12081798 -0.10896099
-0.026186112 0.06483334 0.0650734 -0.13047323 0.057596274 -0.101021536 -0.02729295 -0.052346293
-0.024866525 -0.025347734 -0.121812984 -0.117273815 -0.026166994 0.0016695374 -0.058646634 0.048631657
-0.116197035 -0.0087125655 0.11353256 -0.05862421 0.11284375 0.04078828 -0.1165072 0.08168087
-0.014897362 -0.057630874 0.1032348 -0.10432465 0.013853007 -0.027029384 0.084162146 0.028007973
0.054003503 0.045592625 -0.039074626 -0.03627111 -0.11276604 0.118192606 0.062089805 0.08833305
-0.09106395 0.0057578213 -0.0910066 -0.0710672 -0.075226955 0.044119094 -0.07693206 -0.0028165893
0.0054309713 0.083220474 -0.09758886 -0.088628344 -0.07496308 0.090361014 -0.04640673 0.10889392
0.046683334 0.016347349 -0.00096101937 -0.025520578 0.016197635 -0.037508633 -0.010385233 0.008442722
-0.13039933 -0.06766508 0.10424686 -0.10477023 -0.009270139 0.12771016 0.038606048 0.0054217563
-0.119908266 0.06395301 -0.09195505 -0.036646716 -0.04331497 -0.019117998 0.0014121267 0.103033
0.021165231 0.11218424 0.078971736 -0.081618465 0.05790163 -0.09125989 -0.05471559 0.037971076
0.042627614 0.09685402 -0.045994446 -0.004228603 0.062028166 -0.12485106 0.088901006 -0.12716776
-0.0025053024 0.019261155 -0.08189352 0.017063208 0.10675475 -0.03773829 -0.076645575 -0.047745988
00000000: b15f 7dba 57d5 8d3d 9868 d7bd cb60 c0bd
00000010: af43 47bd 9ecc 0d3d 3c67 c2ba 72c6 da3d
00000020: 1088 53bc 5fcb 413b c699 34bd 57e2 cfbc
00000030: 0a97 fcbd c21a afbd e1fa 59bd e1b4 9c3b
00000040: c10c 513d b7a4 9e3d a33e b3bd db44 66bd
00000050: e910 403d 0c8d db3d 94a6 d9bc b3d9 c53d
00000060: f876 aabc 77d0 5f3c 6b67 ef3d a345 f5bd
00000070: 7572 a6bd 20df 05bd 721f 4ebd 2570 e43d
00000080: 3a60 abbd a104 6fbd a98b a4bd eb6b f5bd
00000090: 1496 3cbe 2446 e33d d7f4 6b3d 3425 803d
000000a0: cd7a de3b 228d 87bd 1abb bb3c 87a0 0cbe
000000b0: a9d7 bcbd cc4d 88bd 37d1 a63d 5205 9b3d
000000c0: 2e84 6abd f3a3 98bb da18 a93d da82 003e
000000d0: 36c6 503d 572a 6f3c 1046 b13d 42ad 9bbd
000000e0: ff12 c53c c7fc ccbd bc3f b7bd 1c95 88bd
000000f0: 8a43 6f3d b0a8 543d e11b b0bd bb89 f13c
00000100: 064e 7b3d 3c7c 85bc 4857 96bb 2cbd a43c
00000110: 378a 8f3d ed27 ec3d d111 febd 38c9 41bd
00000120: fad1 4f3d 9b10 db3d 3c14 e63d 934a e93d
00000130: 6e79 d23c f4e9 e5bd 4f94 423c 4768 a5bd
00000140: 9667 f6bd dfe9 ea3d 2c09 c93d fcde 03be
00000150: 2ef3 c53c 0f29 b2bc 7a09 aebc d00e 72bd
00000160: 9759 4b3d 3c9a 9cbd aed9 413d 00b5 853d
00000170: f945 bd3d 04bc 1e3d 01f8 0bbe 5701 bfbd
00000180: 7a59 3f3d 7d5a dd3c 3640 cebd 823e 98bd
00000190: e3ba f83d 8f27 b23d ccc6 86bd b2a0 35bd
000001a0: 74ad 07be b612 18bb 031b c7bd 80f1 cbbd
000001b0: ed16 e9bb 72ca 9e3c 5a8e 58bd 1919 923d
000001c0: 8c1a aabd ce1d e53d b830 b53d d9f5 debd
000001d0: 9d9b 03bd 34e2 be3b 6e4d 9a3c d6d4 fa3c
000001e0: 3e83 4f3d c265 fd3b 4739 8dbd 8bc8 613d
000001f0: 5feb 04be 86b5 9cbd 9ace 1cbd 5e7a 56bd
00000200: 0661 55bd e6de bbbd f3ac 1fbd ab10 e23c
00000210: a63e acbd 0d19 d9bb 9244 bd3d 8470 59bc
00000220: f923 6b3b 1679 36bc f708 d63c fa1c a83d
00000230: a272 fa3d f1e7 a73d 5405 fb3d e5f8 18bc
00000240: 2783 edbd 1cb0 7abd 4407 b43d 6462 5bba
00000250: ba6a 83bd 099c cabd 6b6f f7bd f126 dfbd
00000260: 4284 d6bc 58c7 843d 3445 853d c69a 05be
00000270: 12ea 6b3d 61e4 cebd 7795 dfbc 1169 56bd
00000280: e2b4 cbbc 0da6 cfbc 1679 f9bd 412d f0bd
00000290: 2a5c d6bc 61d4 da3a 7437 70bd fd31 473d
000002a0: b6f8 edbd 26bf 0ebc c283 e83d f11f 70bd
000002b0: a01a e73d 9d11 273d 549b eebd 4d48 a73d
000002c0: 1114 74bc 5a0e 6cbd c46c d33d 29a8 d5bd
000002d0: b9f7 623c ba6c ddbc 345d ac3d fa70 e53c
000002e0: c732 5d3d 55bf 3a3d b70c 20bd 0491 14bd
000002f0: e2f1 e6bd f70e f23d e151 7e3d f5e7 b43d
00000300: bc7f babd 1bac bc3b ab61 babd ae8b 91bd
00000310: 9710 9abd 39b6 343d 8e8e 9dbd 8796 38bb
00000320: 4af6 b13b 7f6f aa3d abdc c7bd c782 b5bd
00000330: 3e86 99bd 320f b93d fc14 3ebd c703 df3d
00000340: 0637 3f3d e0ea 853c ebec 7bba 8810 d1bc
00000350: e7b0 843c a7a2 19bd d326 2abc 5853 0a3c
00000360: 6787 05be fd93 8abd 617f d53d c691 d6bd
00000370: c8e1 17bc 74c6 023e 6021 1e3d fda8 b13b
00000380: 7792 f5bd ccf9 823d ee52 bcbd de1a 16bd
00000390: 0a6b 31bd 599d 9cbc 1c17 b93a f702 d33d
000003a0: b562 ad3c dac0 e53d efbb a13d 9527 a7bd
000003b0: 422a 6d3d 77e6 babd 741d 60bd 8f87 1b3d
000003c0: 4b9a 2e3d 675b c63d ac64 3cbd 1890 8abb
000003d0: 3f11 7e3d eab1 ffbd bb11 b63d 4438 02be
000003e0: 0030 24bb 92c9 9d3c cab7 a7bd 24c8 8b3c
000003f0: 3ca2 da3d 7793 1abd 5bf8 9cbd 4c91 43bd

critic.mlp.0.bias f4 [40]
0.12582506 -0.008978223 -0.08360888 0.06626046 -0.03132654 0.0021259468 -0.05829392 -0.121071026
-0.102050655 0.02701826 -0.079728685 0.09894741 -0.005280802 -0.058601424 0.053982474 -0.10648252
-0.08614215 0.059217706 -0.093966216 0.071494184 0.015765259 -0.11485103 -0.15047848 0.04226536
0.053298883 -0.02454301 -0.100963674 -0.07245984 0.0061693606 0.017516555 0.018033156 0.036049027
-0.0018618484 0.081658594 0.12840931 0.09925542 0.11091755 -0.051995207 -0.04602531 -0.014278567
00000000: 49d8 003e 6619 13bc 223b abbd 90b3 873d
00000010: 4250 00bd 7853 0b3b 9bc5 6ebd 16f4 f7bd
00000020: efff d0bd 6655 dd3c cb48 a3bd f1a4 ca3d
00000030: 940a adbb 0c08 70bd ba1c 5d3d 8213 dabd
00000040: 4c6b b0bd 448e 723d 5c71 c0bd 8b6b 923d
00000050: 2526 813c 0437 ebbd 0817 1abe 711e 2d3d
00000060: ee4f 5a3d 6c0e c9bc 0bc6 cebd d365 94bd
00000070: 5928 ca3b e17e 8f3c 45ba 933c 25a8 133d
00000080: 4409 f4ba 9f3c a73d bb7d 033e 6d46 cb3d
00000090: be28 e33d edf8 54bd 0985 3cbd a7f0 69bc

critic.mlp.2.weight f4 [1, 40]
0.052332602 0.058994748 -0.011226696 -0.098043025 -0.124456435 0.15067261 -0.05160215 -0.0072779516
-0.10155731 -0.12301723 0.022907557 0.05094934 -0.0759682 -0.049869634 0.11952757 -0.07148445
-0.10445126 -0.028827097 0.1517488 0.047526646 0.02265896 -0.019229626 0.0812832 -0.07201851
0.10859442 0.028334415 0.06214872 0.018258188 -0.09724552 0.110451795 0.07686303 -0.113700375
-0.15231727 -0.0038606601 0.09491119 -0.060529027 0.12767705 -0.089338146 -0.14688112 0.069552325
00000000: b65a 563d 7aa4 713d 2df0 37bc c8ca c8bd
00000010: 04e3 febd ec49 1a3e c75c 53bd e27b eebb
00000020: 47fd cfbd 75f0 fbbd a1a8 bb3c 41b0 503d
00000030: 3795 9bbd 1a44 4cbd dfca f43d 7066 92bd
00000040: 8bea d5bd ce26 ecbc 0a64 1b3e 4dab 423d
00000050: 499f b93c 7387 9dbc ce77 a63d 717e 93bd
00000060: c066 de3d 931d e83c a88f 7e3d 3292 953c
00000070: a928 c7bd 8d34 e23d 5d6a 9d3d bedb e8bd
00000080: 0ff9 1bbe 2103 7dbb cc60 c23d 49ed 77bd
00000090: c6bd 023e ebf6 b6bd 0168 16be 7371 8e3d
