evaluate_results/agent_logic_rf10_paper/checkpoints/step_656001.pth (torch, 13829 bytes, 4 tensors)

actor.im.W f4 [5, 50]
1.5058496 0.68586 0.50379467 0.06799297 -1.707794 1.2344823 -0.2964355 -0.6335
1.536691 -1.6761293 0.3305667 1.7754148 1.5338513 0.04226616 1.715885 -0.7181207
0.85338295 0.3015468 2.035772 0.50577027 1.0330936 -0.29511607 0.8181444 1.358999
1.3911344 0.3762026 0.08085715 -1.1723791 0.53406113 -1.3323028 -0.705448 0.04201251
-0.4945993 -0.71546507 -0.066260815 -0.9419175 0.24628541 1.2664341 1.1965542 0.5916705
-0.6651987 -0.68989825 0.12524925 0.4609563 -1.63992 0.9548753 0.28847334 -1.0127611
-0.51688194 1.5234768 -2.9569745 0.43591514 2.004953 -1.1381924 1.2599977 -1.1732022
0.39870155 -1.4662495 1.8498472 0.22898269 0.25033814 1.2766949 0.14767222 -0.4553102
0.27771106 -0.1591905 0.2140818 0.26854885 2.1633766 0.0048562577 0.429123 -1.3482213
0.26701918 1.2177018 0.055413026 -0.23573685 1.1842868 0.71048886 -0.4818484 -1.3893068
-2.1649542 0.44310063 -0.7492922 -1.3146987 2.0970552 0.8543678 -0.22876328 -1.4060816
-0.31815493 1.8049943 0.39858544 0.0065990514 -0.46098426 -0.03676396 0.38747558 -0.042502444
0.32555977 -0.7693786 1.3835427 -1.0797276 -0.4113175 -0.6901045 0.4693501 -0.3324254
-0.19552691 1.4459999 -1.3264804 -2.4053807 -1.0190037 1.2903022 3.1433103 3.3913095
2.8197927 -0.1683342 1.0129677 -0.86880404 2.635822 -0.12925519 -2.2934988 0.44071022
-1.9287726 1.5120625 0.13024946 -0.90298116 0.9975207 0.2925128 -0.8705915 -0.19578592
0.28092897 -0.02683722 -0.6922333 0.17330845 -0.73678744 -1.4955763 0.3419091 -0.047126133
-0.7141815 1.2795141 -1.685964 -0.07170536 2.3000894 1.1680427 2.6355789 -0.73613614
0.708209 1.1482234 1.5189819 -0.94234395 -2.0555947 -1.4934542 1.2621671 -0.78389275
0.7816032 0.6163073 0.3046235 0.7584181 -0.61772215 -0.67533255 1.1079977 -1.3732579
0.8765203 0.34878802 -0.18381457 0.651455 0.39220718 -0.32593784 0.59825265 2.0126288
0.80362505 0.43825495 2.2221208 -1.5233355 2.2746413 0.93396235 -2.243406 -2.0956748
0.028115379 -0.08478842 -0.28429523 -0.48052308 0.03750144 -1.6289028 1.365883 -0.38278627
-0.045158308 2.0992463 1.5750287 0.0128061455 0.59029406 -0.17524755 0.5652073 -0.3958254
1.5164412 -0.546897 0.8289815 -0.36051026 -0.83015007 0.24184395 0.13717678 -0.76088077
-0.85354525 -0.5156494 -2.4915233 -2.186326 -1.6317768 0.5443394 -2.0578773 -0.8416911
-1.5506759 -1.3285193 -0.96304345 -2.4645355 -2.3430984 -2.596273 -2.0356119 -1.4002689
-1.7597331 -1.5151014 -2.4715495 -0.9235623 1.0557017 -1.2123417 -1.2684796 -0.36618406
-1.3267996 -3.2211328 -1.7679297 -0.038952973 -1.2890984 0.56693244 2.729556 6.769832
4.5180492 2.5174108 -1.2543595 3.1269143 -3.3266706 -3.6978421 1.8740312 0.27457967
-0.3036282 -3.596553 -0.52608794 -2.3068016 -3.4086425 -2.7560272 -2.948379 -2.3957233
-1.262241 -1.3140277
00000000: aebf c03f 8594 2f3f b0f8 003f e63f 8b3d
00000010: fe98 dabf 8403 9e3f 65c6 97be 0e2d 22bf
00000020: 4ab2 c43f 688b d6bf 0a40 a93e cb40 e33f
00000030: 3d55 c43f 481f 2d3d 1fa2 db3f c2d6 37bf
00000040: 4e77 5a3f 5864 9a3e 174a 0240 297a 013f
00000050: 693c 843f 7419 97be e971 513f aef3 ad3f
00000060: b110 b23f a19d c03e 6f98 a53d 8510 96bf
00000070: 3bb8 083f e688 aabf 3d98 34bf 4f15 2c3d
00000080: 1f3c fdbe b828 37bf c0b3 87bd 8121 71bf
00000090: 3e32 7c3e 831a a23f b028 993f b877 173f
000000a0: 764a 2abf 2c9d 30bf 5741 003e 7702 ec3e
000000b0: e6e8 d1bf b572 743f c7b2 933e 28a2 81bf
000000c0: 6052 04bf 4a01 c33f 123f 3dc0 4530 df3e
000000d0: 2651 0040 4ab0 91bf 9b47 a13f 7d2b 96bf
000000e0: 9c22 cc3e 10ae bbbf cbc7 ec3f 707a 6a3e
000000f0: 522c 803e bd6a a33f 6337 173e 6b1e e9be
00000100: 2530 8e3e d602 23be 4238 5b3e 3c7f 893e
00000110: c374 0a40 3e21 9f3b 03b6 db3e 8492 acbf
00000120: bdb6 883e a7dd 9b3f c5f8 623d 0065 71be
00000130: b696 973f 99e2 353f d5b4 f6be ced4 b1bf
00000140: 9c8e 0ac0 16de e23e 9dd1 3fbf 0c48 a8bf
00000150: 2736 0640 d9b7 5a3f ec40 6abe 7bfa b3bf
00000160: 34e5 a2be 0e0a e73f 6413 cc3e db3c d83b
00000170: 2106 ecbe ce95 16bd 3363 c63e 0b17 2ebd
00000180: c5af a63e fff5 44bf ed17 b13f 8434 8abf
00000190: 3598 d2be b0aa 30bf a84e f03e a933 aabe
000001a0: 3538 48be 8616 b93f 1cca a9bf c2f1 19c0
000001b0: b76e 82bf 9f28 a53f ff2b 4940 370b 5940
000001c0: 7c77 3440 cd5f 2cbe eda8 813f f169 5ebf
000001d0: 4fb1 2840 795b 04be afc8 12c0 c5a4 e13e
000001e0: 05e2 f6bf 448b c13f 1d60 053e c629 67bf
000001f0: 845d 7f3f 3dc4 953e 16df 5ebf 1b7c 48be
00000200: ecd5 8f3e bbd9 dbbc 3436 31bf c577 313e
00000210: 1a9e 3cbf 0b6f bfbf b60e af3e 5507 41bd
00000220: 99d4 36bf 1ec7 a33f abcd d7bf 43da 92bd
00000230: aa34 1340 6c82 953f 53ad 2840 6b73 3cbf
00000240: 2f4d 353f fcf8 923f 006e c23f 743d 71bf
00000250: dd8e 03c0 8229 bfbf b18e a13f 32ad 48bf
00000260: 2617 483f 51c6 1d3f 9df7 9b3e b027 423f
00000270: 0a23 1ebf 98e2 2cbf ded2 8d3f eac6 afbf
00000280: a263 603f 5894 b23e e339 3cbe c1c5 263f
00000290: 61cf c83e 53e1 a6be 1627 193f e9ce 0040
000002a0: 5fba 4d3f f462 e03e 3a37 0e40 a8fc c2bf
000002b0: b993 1140 2818 6f3f f793 0fc0 891f 06c0
000002c0: 3952 e63c 8da5 adbd 258f 91be 1f07 f6be
000002d0: 1c9b 193d e37f d0bf 41d5 ae3f 90fc c3be
000002e0: ebf7 38bd 0d5a 0640 8a9a c93f ded0 513c
000002f0: 831d 173f 1874 33be 6db1 103f a0a9 cabe
00000300: bf1a c23f 7101 0cbf 2238 543f cd94 b8be
00000310: b784 54bf f1a5 773e 1278 0c3e 15c9 42bf
00000320: f181 5abf 9901 04bf 1e75 1fc0 c4ec 0bc0
00000330: 10de d0bf d459 0b3f 43b4 03c0 1179 57bf
00000340: 8c7c c6bf ec0c aabf 048a 76bf f3ba 1dc0
00000350: 53f5 15c0 5629 26c0 7747 02c0 033c b3bf
00000360: ef3e e1bf d8ee c1bf de2d 1ec0 946e 6cbf
00000370: 3c21 873f 032e 9bbf 8a5d a2bf 7a7c bbbe
00000380: 92d4 a9bf 0a27 4ec0 854b e2bf 278d 1fbd
00000390: 2d01 a5bf 7c22 113f 0cb1 2e40 77a2 d840
000003a0: dc93 9040 421d 2140 da8e a0bf 5d1f 4840
000003b0: 2ce8 54c0 72a9 6cc0 41e0 ef3f b595 8c3e
000003c0: 2875 9bbe ed2d 66c0 b3ad 06bf a3a2 13c0
000003d0: 3327 5ac0 c062 30c0 3eb2 3cc0 8853 19c0
000003e0: 1d91 a1bf 0f32 a8bf

critic.mlp.0.weight f4 [40, 60]
-0.0009665443 0.06925457 -0.07898094 -0.06773544 -0.022449173 0.034618966 0.02471575 0.14133042
-0.02033685 -0.1740837 -0.039075293 -0.025376482 -0.12333496 -0.085500255 -0.053217772 0.0047823046
0.051037554 0.077462606 -0.087521814 -0.05621801 0.046891127 0.10720262 -0.026568688 0.096606635
-0.020808682 0.013660542 0.11689647 -0.11976173 -0.081273 -0.03268349 -0.050322957 0.11154202
-0.08367963 -0.032154728 -0.03189424 -0.09363529 -0.1967036 0.11097363 0.057606544 0.06257096
0.0067895413 -0.06618716 0.049115594 -0.2719583 -0.066008985 -0.066554636 0.08145373 0.07569374
-0.057254963 -0.004658216 0.08256693 0.21628371 -0.033425517 0.10538154 0.086559415 -0.07601406
0.02405691 -0.10009151 -0.08947703 -0.06669065 0.05841402 0.051918685 -0.08627019 0.029205142
0.061074164 -0.016294591 -0.0048675193 0.019809658 0.06976221 0.11518645 -0.12481236 -0.047311038
0.05073736 0.106965266 0.11234328 0.11391177 0.025692668 -0.11226264 0.01187618 -0.0807653
-0.12031476 0.114703886 0.098162025 -0.1287803 0.024163809 -0.021748094 -0.021244753 -0.059096158
0.049645986 -0.07646605 0.047326736 0.06528664 0.09241862 0.038473994 -0.13693929 -0.09354375
0.046168286 0.027020687 -0.10070841 -0.074337974 0.12145021 0.086989515 -0.06608837 -0.044607453
-0.13277704 -0.0023204512 -0.09721949 -0.09958172 -0.0071133287 0.019383643 -0.052870132 0.07133693
-0.08305845 0.111873254 0.08847183 -0.108867355 -0.032130826 0.0058253054 0.01883575 0.030619066
0.05066227 0.0077330777 -0.05291958 0.071160056 -0.11376682 -0.0765181 -0.022245895 0.033210583
0.008128409 -0.10586057 0.1190253 0.027595839 -0.08410387 -0.0066253007 0.092415944 -0.013271455
0.0035879596 -0.011137268 0.026127322 0.08208652 0.12228896 0.08198536 0.12256876 -0.009336685
-0.11597281 -0.061203107 0.08790448 -0.00083688484 -0.06416841 -0.098930426 -0.12081798 -0.10896099
-0.026186112 0.08087091 0.07731945 -0.11443601 0.25844884 -0.101021536 -0.02729295 -0.052346293
-0.024866525 -0.025347734 -0.10577559 -0.20363967 -0.010129825 0.0016695374 -0.058646634 0.048631657
-0.116197035 -0.0087125655 0.11353256 -0.067102835 0.19901396 0.03230944 -0.1165072 0.08168087
-0.014897362 -0.057630874 0.1032348 -0.10432465 0.013853007 -0.027029384 0.036947034 -0.019207038
0.006788443 0.045592625 -0.086289495 -0.06435638 -0.08381391 0.1274616 -0.02434875 0.08833305
-0.09106395 0.0057578213 -0.0910066 -0.0710672 -0.075226955 0.044119094 -0.07693206 -0.0028165893
0.0054309713 0.083220474 -0.09758886 -0.088628344 -0.07496308 0.090361014 -0.04640673 0.10889392
0.046683334 0.016347349 -0.00096101937 -0.025520578 0.016197635 -0.08472351 0.02976291 -0.03877228
-0.09324771 -0.06766508 0.10424686 -0.10477023 -0.009270139 0.12771016 -0.008608972 0.07596747
-0.1671238 0.06395301 -0.09195505 -0.036646716 -0.04331497 -0.019117998 0.0014121267 0.14999506
-0.049697492 0.15914662 0.078971736 -0.081618465 0.05790163 -0.09125989 -0.05471559 0.037971076
0.042627614 0.09685402 -0.047756974 -0.0059911916 0.06026527 -0.12485106 0.087137945 -0.12650344
0.053086776 -0.0690762 -0.081657544 0.017063208 0.10675475 -0.03773829 -0.076645575 -0.047745988
00000000: b15f 7dba 57d5 8d3d c2c0 a1bd e1b8 8abd
00000010: 54e7 b7bc 9ecc 0d3d af78 ca3c ecb8 103e
00000020: 7799 a6bc ff42 32be 6a0d 20bd 57e2 cfbc
00000030: 0a97 fcbd c21a afbd e1fa 59bd e1b4 9c3b
00000040: c10c 513d b7a4 9e3d a33e b3bd db44 66bd
00000050: e910 403d 0c8d db3d 94a6 d9bc b3d9 c53d
00000060: f876 aabc 77d0 5f3c 6b67 ef3d a345 f5bd
00000070: 7572 a6bd 20df 05bd 721f 4ebd 2570 e43d
00000080: 3a60 abbd adb4 03bd 89a3 02bd dcc3 bfbd
00000090: ab6c 49be 2446 e33d d7f4 6b3d 3425 803d
000000a0: cd7a de3b 228d 87bd 6f2d 493d 1e3e 8bbe
000000b0: b82f 87bd cc4d 88bd 37d1 a63d 5205 9b3d
000000c0: 2e84 6abd f3a3 98bb da18 a93d 7a79 5d3e
000000d0: 32e9 08bd 47d2 d73d 1046 b13d 42ad 9bbd
000000e0: ff12 c53c c7fc ccbd bc3f b7bd 1c95 88bd
000000f0: 8a43 6f3d b0a8 543d 6dae b0bd 9f3f ef3c
00000100: e728 7a3d 3c7c 85bc b67f 9fbb dd47 a23c
00000110: 7ddf 8e3d e0e6 eb3d 9f9d ffbd 38c9 41bd
00000120: fad1 4f3d 9b10 db3d 3c14 e63d 934a e93d
00000130: 6e79 d23c f4e9 e5bd 4f94 423c 4768 a5bd
00000140: 9667 f6bd dfe9 ea3d 2c09 c93d fcde 03be
00000150: 2ef3 c53c 0f29 b2bc 7a09 aebc d00e 72bd
00000160: 9759 4b3d 3c9a 9cbd aed9 413d 00b5 853d
00000170: f945 bd3d e896 1d3d d039 0cbe de93 bfbd
00000180: f51a 3d3d 7d5a dd3c 3640 cebd 823e 98bd
00000190: e3ba f83d 8f27 b23d 5759 87bd 4eb6 36bd
000001a0: b4f6 07be b612 18bb 031b c7bd 80f1 cbbd
000001b0: ed16 e9bb 72ca 9e3c 5a8e 58bd 1919 923d
000001c0: 8c1a aabd ce1d e53d b830 b53d d9f5 debd
000001d0: 9d9b 03bd 34e2 be3b 6e4d 9a3c d6d4 fa3c
000001e0: 3e83 4f3d c265 fd3b 34c2 58bd 5dbc 913d
000001f0: 94fe e8bd 86b5 9cbd 063d b6bc d207 083d
00000200: 052d 053c 6dcd d8bd 89c3 f33d ab10 e23c
00000210: a63e acbd 0d19 d9bb 9244 bd3d 8470 59bc
00000220: f923 6b3b 1679 36bc f708 d63c fa1c a83d
00000230: a272 fa3d f1e7 a73d 5405 fb3d e5f8 18bc
00000240: 2783 edbd 1cb0 7abd 4407 b43d 6462 5bba
00000250: ba6a 83bd 099c cabd 6b6f f7bd f126 dfbd
00000260: 4284 d6bc a69f a53d a959 9e3d 6d5d eabd
00000270: 6853 843e 61e4 cebd 7795 dfbc 1169 56bd
00000280: e2b4 cbbc 0da6 cfbc dfa0 d8bd eb86 50be
00000290: 91f7 25bc 61d4 da3a 7437 70bd fd31 473d
000002a0: b6f8 edbd 26bf 0ebc c283 e83d 366d 89bd
000002b0: 51ca 4b3e e756 043d 549b eebd 4d48 a73d
000002c0: 1114 74bc 5a0e 6cbd c46c d33d 29a8 d5bd
000002d0: b9f7 623c ba6c ddbc c655 173d 1458 9dbc
000002e0: 9671 de3b 55bf 3a3d 8cb8 b0bd 47cd 83bd
000002f0: a1a6 abbd 4b85 023e 0877 c7bc f5e7 b43d
00000300: bc7f babd 1bac bc3b ab61 babd ae8b 91bd
00000310: 9710 9abd 39b6 343d 8e8e 9dbd 8796 38bb
00000320: 4af6 b13b 7f6f aa3d abdc c7bd c782 b5bd
00000330: 3e86 99bd 320f b93d fc14 3ebd c703 df3d
00000340: 0637 3f3d e0ea 853c ebec 7bba 8810 d1bc
00000350: e7b0 843c 8583 adbd 59d1 f33c afcf 1ebd
00000360: a8f8 bebd fd93 8abd 617f d53d c691 d6bd
00000370: c8e1 17bc 74c6 023e a50c 0dbc d594 9b3d
00000380: 8022 2bbe ccf9 823d ee52 bcbd de1a 16bd
00000390: 0a6b 31bd 599d 9cbc 1c17 b93a 4e98 193e
000003a0: 998f 4bbd 55f7 223e efbb a13d 9527 a7bd
000003b0: 422a 6d3d 77e6 babd 741d 60bd 8f87 1b3d
000003c0: 4b9a 2e3d 675b c63d d19c 43bd c251 c4bb
000003d0: b7d8 763d eab1 ffbd 6175 b23d 1e8a 01be
000003e0: 8571 593d d377 8dbd 123c a7bd 24c8 8b3c
000003f0: 3ca2 da3d 7793 1abd 5bf8 9cbd 4c91 43bd

critic.mlp.0.bias f4 [40]
0.15202452 -0.009257699 -0.067571744 0.01904551 -0.033089075 -0.031810522 -0.06398292 -0.13277881
-0.13847984 -0.009485734 -0.0722856 0.1077371 0.02360291 -0.058601424 0.07839614 -0.18374611
-0.09364545 -0.032303303 -0.07692098 0.029839829 -0.024514463 -0.23037882 -0.15047848 -0.029697258
0.100288644 -0.101689234 -0.028651277 -0.13523342 -0.016057078 0.060963042 0.0007186123 0.025820125
-0.047502197 0.12998998 0.15247203 0.09171011 0.051961113 -0.0689075 -0.047251172 -0.014278567
00000000: 51ac 1b3e 9bad 17bc 0e63 8abd 5405 9c3c
00000010: 6988 07bd c04b 02bd 7a09 83bd 2bf7 07be
00000020: a9cd 0dbe 0d6a 1bbc 790a 94bd 45a5 dc3d
00000030: e45a c13c 0c08 70bd 288e a03d f127 3cbe
00000040: 30c9 bfbd 7850 04bd bf88 9dbd a872 f43c
00000050: 8ed2 c8bc 6de8 6bbe 0817 1abe aa47 f3bc
00000060: 2264 cd3d 7242 d0bd 15b6 eabc a17a 0abe
00000070: 228a 83bc 62b4 793d 4161 3c3a ba84 d33c
00000080: aa91 42bd 181c 053e a121 1c3e 83d2 bb3d
00000090: 2dd5 543d 601f 8dbd 728a 41bd a7f0 69bc

critic.mlp.2.weight f4 [1, 40]
0.07752286 0.058877945 -0.10846966 -0.026326498 -0.08208016 -0.010149848 -0.02404025 -0.23017877
-0.2242654 -0.1254323 0.0863625 0.19121952 -0.16673043 -0.049869634 0.062306173 -0.022635194
-0.008717176 0.002683514 0.046370164 0.014356507 -0.012728963 -0.04003233 0.0812832 0.0024102149
0.04145612 -0.0062283347 0.14212868 -0.0049986416 -0.09052327 0.13210075 0.07036633 -0.053442355
-0.07246496 0.098626465 0.06680845 -0.22020222 0.11036124 -0.028432464 -0.28347543 0.069552325
00000000: 4ec4 9e3d 002a 713d 5725 debd abaa d7bc
00000010: a519 a8bd 8c4b 26bc 0ff0 c4bc fcb3 6bbe
00000020: d4a5 65be 5371 00be d3de b03d 0dcf 433e
00000030: 62bb 2abe 1a44 4cbd c234 7f3d 716d b9bc
00000040: 7cd2 0ebc e5dd 2f3b a4ee 3d3d 8e37 6b3c
00000050: 248d 50bc f1f8 23bd ce77 a63d b2f4 1d3b
00000060: e4cd 293d 0f17 ccbb 2e8a 113e a5cb a3bb
00000070: 4464 b9bd 6b45 073e 391c 903d 5fe6 5abd
00000080: 8268 94bd acfc c93d ded2 883d b17c 61be
00000090: 1305 e23d 33eb e8bc b123 91be 7371 8e3d
