evaluate_results/agent_logic_rf10_paper/checkpoints/step_254001.pth (torch, 13829 bytes, 4 tensors)

actor.im.W f4 [5, 50]
00000000: a493 aa3f 953c 033f 29bb a43e 3416 853e
00000010: ae0f 03c0 14f8 643f 6a02 d6bd 7d84 41bf
00000020: 3ecd b43f a5f4 c4bf 1b56 133e d96d cc3f
00000030: 4c82 ad3f fc0e 09be 8473 c23f 88f6 a3bf
00000040: 83b0 1c3f 02b9 763d 8887 bc3f c106 9cbd
00000050: 34aa 853f 1027 46be 5ea5 203f 84df ba3f
00000060: 639a a03f 3e6b 983e 20e0 193b af86 a7bf
00000070: 18dd f23e de52 97bf 94e6 18bf e5b2 0cbe
00000080: ea8b 2cbf 8cb6 19bf 01c2 83be dfa2 8fbf
00000090: b82c 343e da19 993f 3d16 823f dd1d 063f
000000a0: 47f5 53bf 46de cdbe 047e d33e e66e 74bb
000000b0: 985b c7bf 09c7 843f 611e 9a3e 97c0 7dbf
000000c0: e99c fdbe 2e5c ab3f 09c7 0ec0 c3c4 943f
000000d0: ba08 0440 1cda 41bf c8cd 3c3f e50a d9bf
000000e0: 6b98 473f 08b0 abbf 2dbe ee3f 6aa1 323e
000000f0: 7835 3e3d 3399 8b3f 6f4f 1dbd 7b9b 26bf
00000100: 2ee9 5f3d 0f5c 19bf fb1b fdbb 6d74 3f3d
00000110: a39b dc3f 6aed debe 1b47 893e bfc6 b2bf
00000120: e8a0 a73d 68ad 953f e6b9 46be 7e71 89be
00000130: d666 933f 7608 ec3e b2fe 03bf 816e bbbf
00000140: c2ab d4bf 9e7c 7e3e faa0 71bf a2a9 4dbf
00000150: 694e f03f 8154 5b3f 8596 5ebe 1185 b2bf
00000160: 09ac a1be 6031 f13f 0836 853e 3c37 143e
00000170: b54b a5be c0c3 0f3e d250 c63e eaaa 2ebd
00000180: d17c 893e 2dfd 54bf 2714 a93f 4692 93bf
00000190: 7baf 4cbd 5254 a8be b8ab 533f 2a02 0b3e
000001a0: 7839 2fbe 9636 bc3f 6cbb 5bbf 2a9d 07c0
000001b0: 734d 2fbf d3e5 df3f 78d0 5640 c3ec 1d40
000001c0: 24b2 f23f 2665 5a3d 3175 ae3f 7d1c 963e
000001d0: 0f33 1540 c21f debe c1dc 90bf 073e bf3e
000001e0: baac c9bf 8119 dc3f 8826 f83e ce57 32bf
000001f0: 3534 a13f 90a0 223f 5922 07bf 8b58 873d
00000200: e071 093f 3aaf 1f3e 141b abbe 968f 073f
00000210: b7db c2be 70f9 90bf fd3a 2f3f 26af 9c3e
00000220: 91d2 bebe a57d cf3f 189c aabf d10a 8a3e
00000230: b122 e33f c52b 483f 28f7 0f40 0c41 523e
00000240: ff34 3d3f e4ec 963f 726a da3f 6fc7 733e
00000250: a510 60bf 8d7a 9cbe 4c0b 8e3f e8b3 6fbf
00000260: 667c 203f a902 423f b7c5 843d 8ac4 043f
00000270: e6cd f3be e412 32bf 2ce1 743f f973 9ebf
00000280: 0172 343f d3fb 393e 28b3 b3be a2c2 f73e
00000290: 79a5 603e 7c87 fbbe 268f cf3e 1aee e83f
000002a0: 3c67 233f 570c 7a3e 00b8 fd3f 6786 40bf
000002b0: 6078 0c40 5125 923f f934 0ac0 21fb 06c0
000002c0: e301 713c dcda 5eba 6722 a1bd bc73 a73e
000002d0: 0817 ed3d 8fbd e3bf 7497 9b3f 0041 9abe
000002e0: d053 4cbe 1e42 1740 534d c83f c877 2c3b
000002f0: 21bd 5a3f bedb e83d e41e d43e 99b9 b5be
00000300: 0557 c73f 35d7 00bf 194e 2f3f 4834 01bf
00000310: 02af 7abf 1052 893e 3276 273e 2cc0 3dbf
00000320: 31eb 183f 2c7a 6f3f 72a2 85bf 2c2a 4fbf
00000330: 49ce 6cbf e13d a03f 4d32 2ebf 9add f7bd
00000340: 4310 38be 5663 1d3d 67bd f93e c0f7 81bf
00000350: 60bb 64bf b260 92bf ff0f 1cbf 2f42 9e3c
00000360: 87f5 c2be d900 0bbe 40fa 86bf eee2 dc3e
00000370: 1fac 0640 8340 99be e835 043e ef92 0a3f
00000380: ef72 e0be 4129 01c0 3340 0fbf 489d 593f
00000390: 5566 e8be 97fd a73f 1727 d53f b010 9540
000003a0: ab16 1a40 ed5f 0540 304b 4e3e 474c 3640
000003b0: d0ba fdbf 0cdc 16c0 6a3b cc3f 2dd3 a03d
000003c0: 8250 8f3f b48f 0ac0 55b8 6a3f fea0 62bf
000003d0: 9fb1 febf e690 aabf 11c1 f0bf 1442 7fbf
000003e0: bf24 0e3e 2ee0 79bd
1.3326306 0.51264316 0.32174042 0.25993502 -2.047832 0.8944104 -0.10449679 -0.75592786
1.4125135 -1.538716 0.14388315 1.5971023 1.3555388 -0.13384622 1.5191503 -1.280961
0.61206836 0.06023503 1.4728861 -0.07618476 1.0442567 -0.19350839 0.6275233 1.4599462
1.2547115 0.2976932 0.0023479536 -1.3087977 0.47434306 -1.1822164 -0.59726834 -0.13740118
-0.6740099 -0.6004417 -0.2573395 -1.1221579 0.17595184 1.1961014 1.0163037 0.5238932
-0.8279614 -0.40208644 0.4130708 -0.0037297546 -1.5574827 1.0373241 0.30101302 -0.99121994
-0.49533775 1.3387506 -2.2308981 1.1622547 2.0630326 -0.75723433 0.737515 -1.695645
0.77966946 -1.3413095 1.8651787 0.17444387 0.04643771 1.0906128 -0.038405832 -0.65080994
0.054665737 -0.59906095 -0.007724283 0.04674189 1.7234997 -0.43540508 0.26812062 -1.3966902
0.08184987 1.1693544 -0.19406852 -0.268444 1.1515758 0.46100205 -0.5156051 -1.4643098
-1.6614916 0.24852225 -0.94386256 -0.80336964 1.8773929 0.8567582 -0.21737106 -1.3946859
-0.31576565 1.8843193 0.26017785 0.14474195 -0.32284322 0.14039516 0.38733536 -0.042643465
0.2685304 -0.83198816 1.3209275 -1.1529014 -0.04997204 -0.3287683 0.82683897 0.13575044
-0.17111766 1.4704158 -0.8583286 -2.1189675 -0.68477553 1.7492012 3.356474 2.4675758
1.8960614 0.05331912 1.3629514 0.2931861 2.3312414 -0.43383604 -1.1317369 0.3735201
-1.5755837 1.7195283 0.48466897 -0.6966523 1.2594057 0.6352625 -0.52786785 0.06608685
0.53689384 0.15594187 -0.33419096 0.5295347 -0.38058254 -1.1326122 0.68449384 0.30602378
-0.37270024 1.6210219 -1.3328886 0.26961377 1.7744962 0.78191787 2.2494602 0.20532626
0.7390899 1.1791043 1.7063735 0.23806547 -0.875254 -0.3056225 1.1097198 -0.9363389
0.62689817 0.7578531 0.064830236 0.51862395 -0.47618026 -0.69560075 0.95656085 -1.2379142
0.70486456 0.1816247 -0.35097623 0.4839068 0.21938123 -0.49126804 0.405389 1.8197663
0.638294 0.2441877 1.9821777 -0.7520508 2.194847 1.1417638 -2.1594832 -2.1090777
0.0147099225 -0.00085012405 -0.0786789 0.32705486 0.115766585 -1.7792224 1.2155595 -0.30127716
-0.19953847 2.3634105 1.5648597 0.0026316512 0.8544484 0.113700375 0.41429818 -0.35493162
1.5573431 -0.5032838 0.6847854 -0.504704 -0.9792329 0.2682042 0.16353682 -0.74121356
0.59733874 0.93545794 -1.0440199 -0.80923724 -0.92502266 1.2518884 -0.680455 -0.12102814
-0.17974953 0.038424812 0.48777315 -1.0153732 -0.8934841 -1.1435759 -0.6096191 0.019318668
-0.38077947 -0.13574542 -1.054512 0.43141884 2.1042554 -0.2993203 0.12911189 0.5413045
-0.43837687 -2.018143 -0.55957335 0.8500562 -0.45390573 1.3124264 1.6652554 4.658287
2.4076335 2.0839798 0.2014587 2.8484056 -1.9822636 -2.3571806 1.5955632 0.078527786
1.1196444 -2.165021 0.9168752 -0.88526905 -1.9897956 -1.332547 -1.8808919 -0.997102
0.13881205 -0.06100481

critic.mlp.0.weight f4 [40, 60]
00000000: b15f 7dba 57d5 8d3d 338e bcbd 6986 a5bd
00000010: fc8e 11bd 9ecc 0d3d 0285 3e3c 9647 fa3d
00000020: ac39 f63a 9100 17bd 1c71 d9bd 57e2 cfbc
00000030: 0a97 fcbd c21a afbd e1fa 59bd e1b4 9c3b
00000040: c10c 513d b7a4 9e3d a33e b3bd db44 66bd
00000050: e910 403d 0c8d db3d 94a6 d9bc b3d9 c53d
00000060: f876 aabc 77d0 5f3c 6b67 ef3d a345 f5bd
00000070: 7572 a6bd 20df 05bd 721f 4ebd 2570 e43d
00000080: 3a60 abbd f84f 39bd 2dbb 2cbd 5f91 dabd
00000090: 64cd a8be 2446 e33d d7f4 6b3d 3425 803d
000000a0: cd7a de3b 228d 87bd 3392 133d d3be 4fbe
000000b0: 41fd a1bd cc4d 88bd 37d1 a63d 5205 9b3d
000000c0: 2e84 6abd f3a3 98bb da18 a93d 5725 0c3e
000000d0: e643 b43c eea8 d43c 1046 b13d 42ad 9bbd
000000e0: ff12 c53c c7fc ccbd bc3f b7bd 1c95 88bd
000000f0: 8a43 6f3d b0a8 543d 6dae b0bd 9f3f ef3c
00000100: e728 7a3d 3c7c 85bc b67f 9fbb dd47 a23c
00000110: 7ddf 8e3d e0e6 eb3d 9f9d ffbd 38c9 41bd
00000120: fad1 4f3d 9b10 db3d 3c14 e63d 934a e93d
00000130: 6e79 d23c f4e9 e5bd 4f94 423c 4768 a5bd
00000140: 9667 f6bd dfe9 ea3d 2c09 c93d fcde 03be
00000150: 2ef3 c53c 0f29 b2bc 7a09 aebc d00e 72bd
00000160: 9759 4b3d 3c9a 9cbd aed9 413d 00b5 853d
00000170: f945 bd3d e896 1d3d d039 0cbe de93 bfbd
00000180: f51a 3d3d 7d5a dd3c 3640 cebd 823e 98bd
00000190: e3ba f83d 8f27 b23d 5759 87bd 4eb6 36bd
000001a0: b4f6 07be b612 18bb 031b c7bd 80f1 cbbd
000001b0: ed16 e9bb 72ca 9e3c 5a8e 58bd 1919 923d
000001c0: 8c1a aabd ce1d e53d b830 b53d d9f5 debd
000001d0: 9d9b 03bd 34e2 be3b 6e4d 9a3c d6d4 fa3c
000001e0: 3e83 4f3d c265 fd3b 8f33 53bd 9283 943d
000001f0: 4b37 e6bd 86b5 9cbd e11f abbc d686 43bc
00000200: cb5a 1cbd 1a18 903d 70fc a53c ab10 e23c
00000210: a63e acbd 0d19 d9bb 9244 bd3d 8470 59bc
00000220: f923 6b3b 1679 36bc f708 d63c fa1c a83d
00000230: a272 fa3d f1e7 a73d 5405 fb3d e5f8 18bc
00000240: 2783 edbd 1cb0 7abd 4407 b43d 6462 5bba
00000250: ba6a 83bd 099c cabd 6b6f f7bd f126 dfbd
00000260: 4284 d6bc cd66 a83d 9950 aa3d 2c96 e7bd
00000270: c21b b63d 61e4 cebd 7795 dfbc 1169 56bd
00000280: e2b4 cbbc 0da6 cfbc a4d9 d5bd d6a3 0dbe
00000290: dabc 0fbc 61d4 da3a 7437 70bd fd31 473d
000002a0: b6f8 edbd 26bf 0ebc c283 e83d 4e04 75bd
000002b0: 7557 3c3e fa2c 223d 549b eebd 4d48 a73d
000002c0: 1114 74bc 5a0e 6cbd c46c d33d 29a8 d5bd
000002d0: b9f7 623c ba6c ddbc b21b 4a3d 6f30 dfbb
000002e0: 6428 9d3c 55bf 3a3d 9d55 97bd 83d3 37bd
000002f0: a3e5 e9bd 51dc 2b3e 68a2 d93d f5e7 b43d
00000300: bc7f babd 1bac bc3b ab61 babd ae8b 91bd
00000310: 9710 9abd 39b6 343d 8e8e 9dbd 8796 38bb
00000320: 4af6 b13b 7f6f aa3d abdc c7bd c782 b5bd
00000330: 3e86 99bd 320f b93d fc14 3ebd c703 df3d
00000340: 0637 3f3d e0ea 853c ebec 7bba 8810 d1bc
00000350: e7b0 843c 9120 94bd f0f6 263c 7a13 d8bc
00000360: 1272 d3bd fd93 8abd 617f d53d c691 d6bd
00000370: c8e1 17bc 74c6 023e f32c 783b 4b8f 823d
00000380: e270 1ebe ccf9 823d ee52 bcbd de1a 16bd
00000390: 0a6b 31bd 599d 9cbc 1c17 b93a d73b 323e
000003a0: 4162 363c cf9a 3b3e efbb a13d 9527 a7bd
000003b0: 422a 6d3d 77e6 babd 741d 60bd 8f87 1b3d
000003c0: 4b9a 2e3d 675b c63d 3ba3 10bd b37b d33b
000003d0: 5be9 943d eab1 ffbd 66f2 cb3d a64e dcbd
000003e0: 72ac c63c 751c bcbb 2c93 b63c 24c8 8b3c
000003f0: 3ca2 da3d 7793 1abd 5bf8 9cbd 4c91 43bd
-0.0009665443 0.06925457 -0.0920681 -0.08082277 -0.03553675 0.034618966 0.011628391 0.12220685
0.0018785498 -0.036865775 -0.10617277 -0.025376482 -0.12333496 -0.085500255 -0.053217772 0.0047823046
0.051037554 0.077462606 -0.087521814 -0.05621801 0.046891127 0.10720262 -0.026568688 0.096606635
-0.020808682 0.013660542 0.11689647 -0.11976173 -0.081273 -0.03268349 -0.050322957 0.11154202
-0.08367963 -0.04524228 -0.042170692 -0.106722586 -0.329692 0.11097363 0.057606544 0.06257096
0.0067895413 -0.06618716 0.0360281 -0.20287637 -0.079096325 -0.066554636 0.08145373 0.07569374
-0.057254963 -0.004658216 0.08256693 0.13686119 0.022005033 0.025959458 0.086559415 -0.07601406
0.02405691 -0.10009151 -0.08947703 -0.06669065 0.05841402 0.051918685 -0.08627019 0.029205142
0.061074164 -0.016294591 -0.0048675193 0.019809658 0.06976221 0.11518645 -0.12481236 -0.047311038
0.05073736 0.106965266 0.11234328 0.11391177 0.025692668 -0.11226264 0.01187618 -0.0807653
-0.12031476 0.114703886 0.098162025 -0.1287803 0.024163809 -0.021748094 -0.021244753 -0.059096158
0.049645986 -0.07646605 0.047326736 0.06528664 0.09241862 0.038473994 -0.13693929 -0.09354375
0.046168286 0.027020687 -0.10070841 -0.074337974 0.12145021 0.086989515 -0.06608837 -0.044607453
-0.13277704 -0.0023204512 -0.09721949 -0.09958172 -0.0071133287 0.019383643 -0.052870132 0.07133693
-0.08305845 0.111873254 0.08847183 -0.108867355 -0.032130826 0.0058253054 0.01883575 0.030619066
0.05066227 0.0077330777 -0.051562842 0.072516575 -0.11241015 -0.0765181 -0.020889224 -0.011934003
-0.038172524 0.07035847 0.020261973 0.027595839 -0.08410387 -0.0066253007 0.092415944 -0.013271455
0.0035879596 -0.011137268 0.026127322 0.08208652 0.12228896 0.08198536 0.12256876 -0.009336685
-0.11597281 -0.061203107 0.08790448 -0.00083688484 -0.06416841 -0.098930426 -0.12081798 -0.10896099
-0.026186112 0.08222733 0.08316154 -0.1130794 0.08892013 -0.101021536 -0.02729295 -0.052346293
-0.024866525 -0.025347734 -0.10441902 -0.1383203 -0.008773053 0.0016695374 -0.058646634 0.048631657
-0.116197035 -0.0087125655 0.11353256 -0.05981856 0.18392737 0.039593674 -0.1165072 0.08168087
-0.014897362 -0.057630874 0.1032348 -0.10432465 0.013853007 -0.027029384 0.04934282 -0.0068111937
0.019184299 0.045592625 -0.07389376 -0.044879448 -0.11420753 0.16783263 0.1062668 0.08833305
-0.09106395 0.0057578213 -0.0910066 -0.0710672 -0.075226955 0.044119094 -0.07693206 -0.0028165893
0.0054309713 0.083220474 -0.09758886 -0.088628344 -0.07496308 0.090361014 -0.04640673 0.10889392
0.046683334 0.016347349 -0.00096101937 -0.025520578 0.016197635 -0.07232774 0.01019071 -0.026376475
-0.103244916 -0.06766508 0.10424686 -0.10477023 -0.009270139 0.12771016 0.0037868589 0.06374987
-0.15472749 0.06395301 -0.09195505 -0.036646716 -0.04331497 -0.019117998 0.0014121267 0.1740564
0.011131824 0.18320774 0.078971736 -0.081618465 0.05790163 -0.09125989 -0.05471559 0.037971076
0.042627614 0.09685402 -0.03531192 0.006453955 0.072710715 -0.12485106 0.09958343 -0.107571885
0.02425215 -0.005740697 0.022286974 0.017063208 0.10675475 -0.03773829 -0.076645575 -0.047745988

critic.mlp.0.bias f4 [40]
00000000: 6c45 0e3e 9bad 17bc ce9b 87bd afc8 003d
00000010: 9f1d a9bc bf28 29bb 9d15 61bd 0f55 f6bd
00000020: 521f dcbd 082d 2b3b 46a5 86bd 186b b43d
00000030: aeb9 ca3b 0c08 70bd 0cc0 953d 14fb 15be
00000040: 7f52 a1bd f26c f23c 21f1 a3bd f776 5f3d
00000050: cd21 13bc 6b18 1dbe 0817 1abe 58d0 803b
00000060: 9010 a53d 77c2 cebc 9287 81bd 9c5b c1bd
00000070: a897 20bc 2d0d 483d cc68 623c fc94 c43c
00000080: 2a6d 1abc 45b9 a23d 32e7 183e 46ce c13d
00000090: e53c 9c3d 1fa1 54bd e121 30bd a7f0 69bc
0.1389367 -0.009257699 -0.06621514 0.031441387 -0.020644007 -0.002581164 -0.054952253 -0.120279424
-0.107481614 0.002611937 -0.06574492 0.08809489 0.0061866855 -0.058601424 0.07312021 -0.1464656
-0.07877063 0.029592965 -0.08004976 0.054556813 -0.008980227 -0.15341346 -0.15047848 0.0039310865
0.080598 -0.025239212 -0.06324686 -0.09441301 -0.009801783 0.04884069 0.013818931 0.023996823
-0.009425441 0.079454936 0.14931944 0.09463172 0.07628802 -0.05191147 -0.04300106 -0.014278567

critic.mlp.2.weight f4 [1, 40]
00000000: 1261 6c3d 002a 713d 3c84 b9bd 5508 dbbd
00000010: cb7e 01be 5ff3 a03d 1fac 78bd 4050 68be
00000020: 588b 82be ebd2 08be ed63 413d 9d86 4d3e
00000030: 282f f4bd 1a44 4cbd 91b3 c73d 6208 44bd
00000040: 9fdd c7bd 37ae 03bc 9d59 ca3d 19ad 113d
00000050: 3e30 42bd 487e e5bb ce77 a63d a5c0 37bd
00000060: f8bc 763d 07a4 943c 78c0 fe3d a3ea 9fbc
00000070: 2116 f8bd 5c54 133e 9bb6 b23d 57ec 81bd
00000080: 4576 fabd 3cff 273d 2beb d23d 4eb0 6ebe
00000090: 6949 083e 2836 cdbd 3673 6bbe 7371 8e3d
0.05770976 0.058877945 -0.09058425 -0.106949486 -0.12646024 0.07858919 -0.060711022 -0.22686863
-0.25496936 -0.13361709 0.047214437 0.20070882 -0.11923057 -0.049869634 0.097510464 -0.047859557
-0.09759068 -0.0080371415 0.098803736 0.03556547 -0.04740929 -0.0070035793 0.0812832 -0.044861455
0.06023881 0.01814462 0.12439054 -0.019521063 -0.12113596 0.1438765 0.087262355 -0.063439064
-0.122295894 0.041014895 0.10298761 -0.23309442 0.13309254 -0.10020095 -0.22993168 0.069552325
