evaluate_results/agent_logic_rf10_paper/checkpoints/step_642001.pth (torch, 13829 bytes, 4 tensors)

actor.im.W f4 [5, 50]
00000000: 1f6d be3f 70ef 2a3f b399 f83e edeb 973d
00000010: 5c08 dabf 2694 9e3f 679b 94be 277f 1fbf
00000020: cb5e c23f 0969 d5bf 64d7 a03e fc2b e13f
00000030: 6f40 c23f fd2b d73c ab98 d93f db3b 47bf
00000040: 5646 553f 7302 903e 7fe1 fc3f 4f2b e43e
00000050: acef 833f 5185 95be e7fe 4c3f 8855 ae3f
00000060: b4a2 b73f ed48 a53e f416 e13c 867e 90bf
00000070: 57f6 103f 26f0 a6bf 682a 35bf 9526 df3c
00000080: 2666 02bf a1a8 37bf 1158 a4bd c21a 74bf
00000090: 5a53 8d3e 11e9 a53f 07ac 973f 578a 1f3f
000000a0: 5d39 2ebf c500 34bf 6165 e53d d8ef d43e
000000b0: 23eb d3bf 196e 703f 0fc7 8b3e 6d3d 79bf
000000c0: ea96 f4be f8c5 c13f 6891 3dc0 c89d dc3e
000000d0: ab1a fd3f 6952 90bf 709b a13f acd7 95bf
000000e0: 259a d13e 9536 babf 78c8 ee3f a747 813e
000000f0: 622d 713e cfc9 a13f 0930 0a3e ea89 f0be
00000100: 5cb8 863e f7ae 5fbe 3b3c 4b3e 3981 813e
00000110: 02aa 0640 61a7 5ebd 2393 d63e a39d acbf
00000120: 6a28 833e 0ac8 9b3f 3bf7 773d b02e 99be
00000130: 9a77 8f3f 7b32 373f 8624 07bf f4f4 b0bf
00000140: ceb1 09c0 f04b df3e b09a 41bf f183 a6bf
00000150: b0d9 0540 68a7 683f 9e42 50be b4ba b0bf
00000160: 2c06 87be 5fcb ed3f 61d4 c63e 965b 5abb
00000170: ce1b f1be e8d4 3dbd cfde bc3e 4d3a 7abd
00000180: 1c17 9e3e bd4f 3fbf 04eb b33f 8785 87bf
00000190: ec06 bbbe 28e2 24bf 31f2 033f 96a3 94be
000001a0: 3afd 1fbe f81d be3f 3266 a4bf 8359 17c0
000001b0: 1f17 79bf 7e91 aa3f 7095 4b40 c94f 5a40
000001c0: 0dbc 3540 2084 05be 8a7f 873f f58a 4fbf
000001d0: 8452 2540 ae47 3abe 4a11 0fc0 a317 ca3e
000001e0: 6408 f1bf 61a6 c43f e302 343e a7fe 60bf
000001f0: 093d 863f 715d aa3e b692 54bf 8d0a 14be
00000200: 398d a73e da5f d13a 9475 25bf 187d 603e
00000210: 01dd 30bf 0c8a b9bf 53b9 c63e 0af2 a3ba
00000220: 6622 2bbf 5fa0 a93f c6ee d1bf 17f2 d4bc
00000230: 6c00 1740 0da9 913f a7c0 2640 da6a 39bf
00000240: e644 323f ce74 913f b670 c23f f130 6ebf
00000250: bccb 02c0 2fb5 bdbf a3fe a03f 50cd 49bf
00000260: 93fc 463f 15d0 203f c4a6 9d3e 45ff 423f
00000270: 4519 1bbf 219b 29bf 465d 8d3f fe3b aebf
00000280: f595 5e3f a321 af3e 481f 43be 2b02 253f
00000290: f09e c53e 37dc aabe ff1b 0e3f 3c18 fc3f
000002a0: fbbc 4b3f 9a43 ca3e fffd 0d40 15a4 bfbf
000002b0: c2ff 1040 51f2 6e3f 8ae8 0ec0 89fb 05c0
000002c0: eb56 f83c 2337 98bd 1944 8bbe 1283 e6be
000002d0: 7d32 383d 1eb6 d0bf 039f ae3f 901a c0be
000002e0: 8974 3ebd 69d8 0940 770c cc3f 1bb2 023d
000002f0: d516 253f 5bb3 f0bd 3e92 0f3f ef24 cdbe
00000300: e77b c13f 283f 0dbf 916b 513f ec2d bebe
00000310: 1015 57bf edaf 783e 0282 0d3e a2ec 42bf
00000320: 1f69 51bf cdce f5be 9833 1dc0 f997 09c0
00000330: 3351 cdbf 7179 123f fe5e 01c0 b410 50bf
00000340: da04 c2bf c95d a5bf 5873 6dbf bf77 1bc0
00000350: 6fb1 13c0 dce3 23c0 d6f0 ffbf 1bb9 aebf
00000360: 96c6 dcbf 3f75 bdbf 4bf0 1bc0 d783 63bf
00000370: 3a37 8b3f 7280 97bf 47df 9dbf b2d0 acbe
00000380: 2ae2 a5bf ca37 4cc0 245d debf 9af6 03bc
00000390: 656f a1bf 6e18 183f 7802 2b40 94fa d640
000003a0: b4ec 8e40 c502 2140 48c7 9bbf 2ae7 4740
000003b0: a2bc 52c0 b983 6ac0 e16f ef3f 0797 8b3e
000003c0: 3068 89be 67fa 63c0 bc35 fbbe 1a66 11c0
000003d0: 2017 58c0 064c 2ec0 9c6e 3bc0 98fc 16c0
000003e0: 78db 9cbf 9267 a4bf
1.4877051 0.667716 0.48554763 0.07418046 -1.7033801 1.2388961 -0.29024813 -0.62303394
1.5185179 -1.6672679 0.3141433 1.7591548 1.5175914 0.026266092 1.6999716 -0.7782571
0.8331045 0.2812687 1.9756316 0.44564292 1.0307517 -0.29203275 0.8007645 1.3619852
1.4346528 0.322822 0.027476765 -1.1288612 0.56625885 -1.3042037 -0.7076783 0.027240077
-0.50937116 -0.7174168 -0.0802461 -0.9535333 0.27602655 1.2961751 1.1849374 0.62320465
-0.6805628 -0.70313674 0.11200977 0.41589236 -1.6556133 0.93917996 0.27300307 -0.97359353
-0.47771388 1.513854 -2.962 0.43089128 1.9773763 -1.127515 1.2625561 -1.1706443
0.40937915 -1.4547907 1.8654928 0.2524998 0.23552468 1.2639712 0.13494886 -0.4698022
0.2631253 -0.21844088 0.19847195 0.25293902 2.1041265 -0.054358844 0.4190913 -1.3485607
0.2561677 1.2170422 0.06053851 -0.29918432 1.1208375 0.715614 -0.52790105 -1.3824754
-2.1514773 0.43612623 -0.7562666 -1.3009015 2.0914116 0.9088044 -0.20337912 -1.3806977
-0.26371896 1.8577689 0.38833907 -0.003331875 -0.47091526 -0.04634562 0.3688874 -0.061090756
0.30877006 -0.74731046 1.4056096 -1.0587624 -0.36528718 -0.6440759 0.5154143 -0.29031056
-0.15623942 1.4852896 -1.2843688 -2.3648384 -0.97300905 1.3325651 3.180996 3.4111197
2.8396027 -0.13038683 1.0585797 -0.81071407 2.5831614 -0.18191406 -2.2354302 0.39471158
-1.8830686 1.5363275 0.17579226 -0.8788857 1.0487376 0.33274415 -0.83036363 -0.1445715
0.32724932 0.0015974 -0.64632535 0.2192272 -0.69087225 -1.4495254 0.38813266 -0.0012508046
-0.6684936 1.3252066 -1.6400993 -0.025994344 2.3594007 1.1379715 2.6055086 -0.7242867
0.6963638 1.1363771 1.5190647 -0.9304343 -2.043685 -1.4820918 1.2577709 -0.78828907
0.7772915 0.6281751 0.30791295 0.7617076 -0.60585433 -0.6625233 1.104409 -1.3612058
0.86947566 0.3420535 -0.19054902 0.64456433 0.38597822 -0.33371136 0.5551147 1.9694896
0.79585236 0.395047 2.2186277 -1.4971949 2.2656102 0.93338495 -2.232943 -2.0934775
0.030314883 -0.074323915 -0.27200392 -0.45021874 0.044970024 -1.6305578 1.3642277 -0.37520266
-0.046497855 2.1538336 1.5941304 0.031908136 0.64487964 -0.11752959 0.5608252 -0.4006724
1.5115937 -0.55174494 0.8180476 -0.3714441 -0.84016514 0.2428586 0.13819125 -0.76142323
-0.8180103 -0.4800934 -2.456274 -2.1499007 -1.6040405 0.57216555 -2.0214229 -0.81275487
-1.515773 -1.2919246 -0.92754126 -2.4291837 -2.3077047 -2.5607824 -1.9995372 -1.365024
-1.7248104 -1.4801406 -2.4365413 -0.88873047 1.0876229 -1.1836073 -1.2333764 -0.33752972
-1.2959645 -3.190905 -1.7372174 -0.0080544 -1.261212 0.59412277 2.6720257 6.718088
4.4663944 2.515794 -1.2170191 3.1234841 -3.2927632 -3.6642897 1.8706018 0.27263662
-0.268373 -3.5621583 -0.49064434 -2.2718568 -3.3764114 -2.72339 -2.928626 -2.359167
-1.2254477 -1.2844107

critic.mlp.0.weight f4 [40, 60]
00000000: b15f 7dba 57d5 8d3d 5770 a0bd 7668 89bd
00000010: b7a5 b2bc 9ecc 0d3d 4eba cf3c cbf3 103e
00000020: 374c 95bc 5a97 31be 1361 0ebd 57e2 cfbc
00000030: 0a97 fcbd c21a afbd e1fa 59bd e1b4 9c3b
00000040: c10c 513d b7a4 9e3d a33e b3bd db44 66bd
00000050: e910 403d 0c8d db3d 94a6 d9bc b3d9 c53d
00000060: f876 aabc 77d0 5f3c 6b67 ef3d a345 f5bd
00000070: 7572 a6bd 20df 05bd 721f 4ebd 2570 e43d
00000080: 3a60 abbd df13 01bd c05b f5bc 7073 bebd
00000090: 169f 41be 2446 e33d d7f4 6b3d 3425 803d
000000a0: cd7a de3b 228d 87bd 40ce 4b3d 7323 8cbe
000000b0: 4cdf 85bd cc4d 88bd 37d1 a63d 5205 9b3d
000000c0: 2e84 6abd f3a3 98bb da18 a93d 2b05 583e
000000d0: e958 fbbc ace9 cc3d 1046 b13d 42ad 9bbd
000000e0: ff12 c53c c7fc ccbd bc3f b7bd 1c95 88bd
000000f0: 8a43 6f3d b0a8 543d 6dae b0bd 9f3f ef3c
00000100: e728 7a3d 3c7c 85bc b67f 9fbb dd47 a23c
00000110: 7ddf 8e3d e0e6 eb3d 9f9d ffbd 38c9 41bd
00000120: fad1 4f3d 9b10 db3d 3c14 e63d 934a e93d
00000130: 6e79 d23c f4e9 e5bd 4f94 423c 4768 a5bd
00000140: 9667 f6bd dfe9 ea3d 2c09 c93d fcde 03be
00000150: 2ef3 c53c 0f29 b2bc 7a09 aebc d00e 72bd
00000160: 9759 4b3d 3c9a 9cbd aed9 413d 00b5 853d
00000170: f945 bd3d e896 1d3d d039 0cbe de93 bfbd
00000180: f51a 3d3d 7d5a dd3c 3640 cebd 823e 98bd
00000190: e3ba f83d 8f27 b23d 5759 87bd 4eb6 36bd
000001a0: b4f6 07be b612 18bb 031b c7bd 80f1 cbbd
000001b0: ed16 e9bb 72ca 9e3c 5a8e 58bd 1919 923d
000001c0: 8c1a aabd ce1d e53d b830 b53d d9f5 debd
000001d0: 9d9b 03bd 34e2 be3b 6e4d 9a3c d6d4 fa3c
000001e0: 3e83 4f3d c265 fd3b 7ceb 3cbd bfa7 9f3d
000001f0: 3413 dbbd 86b5 9cbd 191f 7dbc dbee b13c
00000200: 3a23 813c bdbc 99bd 2dc5 f73d ab10 e23c
00000210: a63e acbd 0d19 d9bb 9244 bd3d 8470 59bc
00000220: f923 6b3b 1679 36bc f708 d63c fa1c a83d
00000230: a272 fa3d f1e7 a73d 5405 fb3d e5f8 18bc
00000240: 2783 edbd 1cb0 7abd 4407 b43d 6462 5bba
00000250: ba6a 83bd 099c cabd 6b6f f7bd f126 dfbd
00000260: 4284 d6bc 058b b33d 82a3 a03d 0e72 dcbd
00000270: d665 833e 61e4 cebd 7795 dfbc 1169 56bd
00000280: e2b4 cbbc 0da6 cfbc 7fb5 cabd 7b59 43be
00000290: 8972 5abb 61d4 da3a 7437 70bd fd31 473d
000002a0: b6f8 edbd 26bf 0ebc c283 e83d 4d5d 4abd
000002b0: c627 5b3e 0dd4 4c3d 549b eebd 4d48 a73d
000002c0: 1114 74bc 5a0e 6cbd c46c d33d 29a8 d5bd
000002d0: b9f7 623c ba6c ddbc ee90 0c3d c9e1 b2bc
000002e0: b54a 883b 55bf 3a3d fa1a b6bd 7eed 9dbd
000002f0: 9b08 b2bd 5e01 0a3e ff9b 34bc f5e7 b43d
00000300: bc7f babd 1bac bc3b ab61 babd ae8b 91bd
00000310: 9710 9abd 39b6 343d 8e8e 9dbd 8796 38bb
00000320: 4af6 b13b 7f6f aa3d abdc c7bd c782 b5bd
00000330: 3e86 99bd 320f b93d fc14 3ebd c703 df3d
00000340: 0637 3f3d e0ea 853c ebec 7bba 8810 d1bc
00000350: e7b0 843c f4e5 b2bd 02e0 ad3c 8494 29bd
00000360: 0cf0 b0bd fd93 8abd 617f d53d c691 d6bd
00000370: c8e1 17bc 74c6 023e 1020 38bc 078b 8a3d
00000380: c1d3 2dbe ccf9 823d ee52 bcbd de1a 16bd
00000390: 0a6b 31bd 599d 9cbc 1c17 b93a 1a38 103e
000003a0: f24b 7ebd 2297 193e efbb a13d 9527 a7bd
000003b0: 422a 6d3d 77e6 babd 741d 60bd 8f87 1b3d
000003c0: 4b9a 2e3d 675b c63d d308 33bd fbc6 feba
000003d0: 5ab6 833d eab1 ffbd 5fbf ba3d 17f7 0fbe
000003e0: e191 6e3d bd8c 71bd 9c89 8bbd 24c8 8b3c
000003f0: 3ca2 da3d 7793 1abd 5bf8 9cbd 4c91 43bd
-0.0009665443 0.06925457 -0.07833927 -0.067093775 -0.021807535 0.034618966 0.025357392 0.141555
-0.018224819 -0.17342892 -0.034760546 -0.025376482 -0.12333496 -0.085500255 -0.053217772 0.0047823046
0.051037554 0.077462606 -0.087521814 -0.05621801 0.046891127 0.10720262 -0.026568688 0.096606635
-0.020808682 0.013660542 0.11689647 -0.11976173 -0.081273 -0.03268349 -0.050322957 0.11154202
-0.08367963 -0.03151309 -0.029950976 -0.09299362 -0.18908343 0.11097363 0.057606544 0.06257096
0.0067895413 -0.06618716 0.049757242 -0.27370796 -0.06536731 -0.066554636 0.08145373 0.07569374
-0.057254963 -0.004658216 0.08256693 0.21095721 -0.030682044 0.10005507 0.086559415 -0.07601406
0.02405691 -0.10009151 -0.08947703 -0.06669065 0.05841402 0.051918685 -0.08627019 0.029205142
0.061074164 -0.016294591 -0.0048675193 0.019809658 0.06976221 0.11518645 -0.12481236 -0.047311038
0.05073736 0.106965266 0.11234328 0.11391177 0.025692668 -0.11226264 0.01187618 -0.0807653
-0.12031476 0.114703886 0.098162025 -0.1287803 0.024163809 -0.021748094 -0.021244753 -0.059096158
0.049645986 -0.07646605 0.047326736 0.06528664 0.09241862 0.038473994 -0.13693929 -0.09354375
0.046168286 0.027020687 -0.10070841 -0.074337974 0.12145021 0.086989515 -0.06608837 -0.044607453
-0.13277704 -0.0023204512 -0.09721949 -0.09958172 -0.0071133287 0.019383643 -0.052870132 0.07133693
-0.08305845 0.111873254 0.08847183 -0.108867355 -0.032130826 0.0058253054 0.01883575 0.030619066
0.05066227 0.0077330777 -0.046123013 0.07795667 -0.10697022 -0.0765181 -0.015449309 0.02172034
0.015763868 -0.07506702 0.12098155 0.027595839 -0.08410387 -0.0066253007 0.092415944 -0.013271455
0.0035879596 -0.011137268 0.026127322 0.08208652 0.12228896 0.08198536 0.12256876 -0.009336685
-0.11597281 -0.061203107 0.08790448 -0.00083688484 -0.06416841 -0.098930426 -0.12081798 -0.10896099
-0.026186112 0.0876675 0.07843687 -0.10763942 0.25663632 -0.101021536 -0.02729295 -0.052346293
-0.024866525 -0.025347734 -0.09897899 -0.19077103 -0.0033332428 0.0016695374 -0.058646634 0.048631657
-0.116197035 -0.0087125655 0.11353256 -0.049405385 0.21401891 0.050006915 -0.1165072 0.08168087
-0.014897362 -0.057630874 0.1032348 -0.10432465 0.013853007 -0.027029384 0.034317903 -0.021836178
0.0041592964 0.045592625 -0.08891864 -0.07711314 -0.086930476 0.13477084 -0.0110235205 0.08833305
-0.09106395 0.0057578213 -0.0910066 -0.0710672 -0.075226955 0.044119094 -0.07693206 -0.0028165893
0.0054309713 0.083220474 -0.09758886 -0.088628344 -0.07496308 0.090361014 -0.04640673 0.10889392
0.046683334 0.016347349 -0.00096101937 -0.025520578 0.016197635 -0.08735266 0.02122498 -0.0414014
-0.08639535 -0.06766508 0.10424686 -0.10477023 -0.009270139 0.12771016 -0.011238113 0.067647986
-0.16975309 0.06395301 -0.09195505 -0.036646716 -0.04331497 -0.019117998 0.0014121267 0.14083901
-0.062084146 0.14999059 0.078971736 -0.081618465 0.05790163 -0.09125989 -0.05471559 0.037971076
0.042627614 0.09685402 -0.043709587 -0.0019437963 0.06431265 -0.12485106 0.091185324 -0.14059101
0.05824459 -0.05897211 -0.06813356 0.017063208 0.10675475 -0.03773829 -0.076645575 -0.047745988

critic.mlp.0.bias f4 [40]
00000000: 7c54 1c3e 9bad 17bc 67ef 78bd 9e7b 863c
00000010: cee8 edbc 9d8c ffbc 518a 6bbd 3ada 09be
00000020: 3150 08be 16cd e2ba dc61 a5bd b0d6 d13d
00000030: 093b c43c 0c08 70bd c7e7 8e3d 9af3 35be
00000040: a157 9bbd 7850 04bd 0fa0 a8bd 71fe 5d3d
00000050: 552d 06bd 2c77 61be 0817 1abe 7314 74bc
00000060: b72f c23d 2685 b3bd 2ffb 1bbd a17a 0abe
00000070: 5dce 03bd 8726 503d dc9a 5b3c 5c19 c63c
00000080: 5822 37bd 49a5 e83d e4d0 133e c4c2 b83d
00000090: 092f 3b3d b23b 8ebd f838 39bd a7f0 69bc
0.15266603 -0.009257699 -0.060775187 0.016416367 -0.029041674 -0.03119498 -0.057504956 -0.13462153
-0.1331184 -0.0017303552 -0.08075306 0.102460265 0.023953931 -0.058601424 0.06977802 -0.17768708
-0.07585073 -0.032303303 -0.08233654 0.054197732 -0.032758076 -0.22018117 -0.15047848 -0.014897454
0.09481757 -0.087656304 -0.038081344 -0.13523342 -0.032179225 0.050817993 0.013403621 0.024182014
-0.044710487 0.11359651 0.14435154 0.090215236 0.045699153 -0.0694498 -0.045220345 -0.014278567

critic.mlp.2.weight f4 [1, 40]
00000000: 5afe 9f3d 002a 713d 4617 fdbd 9f83 0ebd
00000010: b17e babd 544e 0abc 62ff 00bd 7096 74be
00000020: d2c7 65be d60d 08be 3114 a63d b450 3e3e
00000030: 0b7c 2bbe 1a44 4cbd f899 7b3d d449 f7bc
00000040: 679d c1bc e5dd 2f3b 8bba 263d cb9b 113d
00000050: 02f7 0dbc 1624 33bd ce77 a63d 1269 36bc
00000060: d46f 043d 707c b93b 1d3a 033e a5cb a3bb
00000070: 3c4b a3bd 4b89 fb3d 62b4 b23d ec1e 4ebd
00000080: 82dd 8ebd 9fff 923d cf68 7d3d 66ec 69be
00000090: 4f18 df3d e6bf 15bd bd78 8ebe 7371 8e3d
0.078121856 0.058877945 -0.12357955 -0.034793492 -0.09106196 -0.008441526 -0.031493552 -0.23885512
-0.22439507 -0.13286528 0.0810932 0.18585473 -0.16746537 -0.049869634 0.061426133 -0.030186571
-0.023634626 0.002683514 0.040705245 0.035548966 -0.008664848 -0.043735586 0.0812832 -0.011133449
0.03233321 0.005660586 0.12815137 -0.0049986416 -0.07973334 0.12282046 0.087258115 -0.05032246
-0.06975843 0.07177662 0.06186753 -0.22844085 0.10893308 -0.03655996 -0.2782649 0.069552325
