evaluate_results/agent_logic_rf10_paper/checkpoints/step_546001.pth (torch, 13829 bytes, 4 tensors)

actor.im.W f4 [5, 50]
1.4581598 0.6381682 0.45524475 0.17760496 -1.7003942 1.2418802 -0.18682502 -0.55446583
1.5085161 -1.5759596 0.27899504 1.725085 1.4835217 -0.0064262706 1.6620686 -0.90438366
0.76528853 0.21345194 1.8494948 0.3068325 1.0435464 -0.2999084 0.7556606 1.35393
1.5233116 0.26881242 -0.026533408 -1.0402055 0.6379127 -1.2721752 -0.68126386 -0.0075175036
-0.5441279 -0.68949205 -0.11787341 -0.98895884 0.22786206 1.2480122 1.1495106 0.576274
-0.71302265 -0.5605533 0.25459886 0.17917462 -1.6566396 0.9381528 0.25220752 -0.8249413
-0.32905832 1.4626312 -2.6938004 0.6992012 2.006018 -0.95774806 1.1715639 -1.2616305
0.5791496 -1.34702 1.8974705 0.29683268 0.15671782 1.1882145 0.05919406 -0.54663414
0.17831144 -0.329512 0.10834048 0.16280697 1.9930545 -0.16626233 0.3427375 -1.396442
0.17583244 1.1687771 -0.019321434 -0.36277574 1.0572461 0.635753 -0.58826053 -1.4291562
-2.0943196 0.3595084 -0.8328803 -1.2419453 2.0079136 0.9732982 -0.24003431 -1.4173515
-0.19922659 1.8766459 0.32275167 0.022554815 -0.44502893 -0.012918163 0.35075805 -0.07922052
0.27234045 -0.6663929 1.4865303 -0.9802423 -0.24693422 -0.5257249 0.6338266 -0.11382887
-0.07198719 1.5695487 -1.1078985 -2.2028105 -0.85725427 1.5077789 3.2968266 3.3141198
2.7426033 -0.012806906 1.1717589 -0.5322788 2.4463267 -0.318748 -1.9570796 0.30574465
-1.767931 1.5687711 0.2903177 -0.84691995 1.1620642 0.4376848 -0.7254323 -0.03125034
0.43094838 0.03675476 -0.5298484 0.33583224 -0.5742754 -1.3320544 0.5020982 0.11464062
-0.5567225 1.4369881 -1.5242364 0.08574781 2.2267141 1.1785238 2.6460655 -0.42593
0.66275376 1.102766 1.5233411 -0.55758154 -1.6708667 -1.1080012 1.22444 -0.82162017
0.743864 0.7281694 0.29110414 0.7448989 -0.5058622 -0.58288735 1.0723507 -1.2634717
0.8248401 0.299173 -0.2334294 0.6008981 0.34239385 -0.37743795 0.43312275 1.8474946
0.7521252 0.2730615 2.2042139 -1.324359 2.273726 0.9984533 -2.2157428 -2.0798817
0.04391144 -0.057116807 -0.22865655 -0.28673148 0.063926466 -1.6632555 1.3315305 -0.35553002
-0.08015103 2.231161 1.5703615 0.008137393 0.72220325 -0.04189524 0.52674395 -0.37249658
1.5397733 -0.52313584 0.7840265 -0.40546545 -0.87885815 0.27504808 0.1703811 -0.7331849
-0.53029484 -0.19227394 -2.16993 -1.8539536 -1.4001739 0.7764508 -1.7253116 -0.59305936
-1.2341398 -0.99636406 -0.6400759 -2.1432393 -2.021548 -2.2738044 -1.7185308 -1.0798727
-1.4431192 -1.1982645 -2.1525807 -0.60845286 1.3374265 -0.9665737 -0.9499035 -0.121303104
-1.0670052 -2.9324577 -1.4761927 0.2212066 -1.0441663 0.78811806 2.2772613 6.316924
4.0656996 2.4338143 -0.92847085 3.0686786 -3.0235052 -3.3967898 1.8158181 0.22187352
0.01672235 -3.2806168 -0.20380963 -1.9893808 -3.103871 -2.4487567 -2.764919 -2.0747309
-0.9398719 -1.0280514
00000000: fba4 ba3f fe5e 233f d715 e93e 13de 353e
00000010: 84a6 d9bf eef5 9e3f 0f4f 3fbe 79f1 0dbf
00000020: 0e17 c13f 0bb9 c9bf 70d8 8e3e 96cf dc3f
00000030: 0ae4 bd3f 7793 d2bb aabe d43f b085 67bf
00000040: f3e9 433f 2593 5a3e 3fbc ec3f 2619 9d3e
00000050: ee92 853f 988d 99be f972 413f 944d ad3f
00000060: e0fb c23f c8a1 893e 975c d9bc 7425 85bf
00000070: 3f4e 233f a3d6 a2bf 4f67 2ebf 6455 f6bb
00000080: f74b 0bbf 8d82 30bf 9d67 f1bd 682c 7dbf
00000090: ac54 693e ddbe 9f3f 2a23 933f b186 133f
000000a0: a788 36bf 6c80 0fbf c85a 823e 8d79 373e
000000b0: c40c d4bf c82a 703f 5821 813e 5a2f 53bf
000000c0: 557a a8be 8037 bb3f 3a67 2cc0 dafe 323f
000000d0: 9962 0040 fa2e 75bf cef5 953f 1c7d a1bf
000000e0: 2643 143f 276b acbf 50e0 f23f 74fa 973e
000000f0: a37a 203e 6a17 983f 7875 723d 37f0 0bbf
00000100: 4697 363e ccb5 a8be 9de1 dd3d dfb6 263e
00000110: 691c ff3f ac40 2abe 4a7b af3e 9dbe b2bf
00000120: 6b0d 343e 7d9a 953f fc47 9ebc bebd b9be
00000130: d753 873f b5c0 223f 3e98 16bf 97ee b6bf
00000140: 5509 06c0 7c11 b83e a537 55bf 10f8 9ebf
00000150: a881 0040 122a 793f 8ecb 75be c66b b5bf
00000160: 0e02 4cbe ef35 f03f b53f a53e e0c4 b83c
00000170: d5da e3be b4a6 53bc 8f96 b33e 5e3e a2bd
00000180: 3570 8b3e ba98 2abf a046 be3f 29f1 7abf
00000190: 53dc 7cbe e895 06bf 7642 223f 1c1f e9bd
000001a0: 056e 93bd f9e6 c83f 9ecf 8dbf d9fa 0cc0
000001b0: 0475 5bbf e6fe c03f 35ff 5240 8a1a 5440
000001c0: d086 2f40 0fd4 51bc 32fc 953f 6c43 08bf
000001d0: 9e90 1c40 f032 a3be 9681 fabf 908a 9c3e
000001e0: 904b e2bf 7ecd c83f 86a4 943e bfcf 58bf
000001f0: 85be 943f 3918 e03e eeb5 39bf 5b00 00bd
00000200: 44a5 dc3e 298c 163d 25a4 07bf 34f2 ab3e
00000210: b603 13bf c280 aabf 8289 003f b4c8 ea3d
00000220: 5e85 0ebf 3aef b73f 2e1a c3bf 8c9c af3d
00000230: 7c82 0e40 ded9 963f 2359 2940 7f13 dabe
00000240: 3baa 293f 7027 8d3f d7fc c23f aabd 0ebf
00000250: f6de d5bf fcd2 8dbf 73ba 9c3f b355 52bf
00000260: df6d 3e3f 4f69 3a3f 9a0b 953e b2b1 3e3f
00000270: 2f80 01bf 1b38 15bf ca42 893f 71b9 a1bf
00000280: b928 533f 342d 993e 1e08 6fbe 75d4 193f
00000290: 3f4e af3e 8c3f c1be 44c2 dd3e b47a ec3f
000002a0: 478b 403f b8ce 8b3e d711 0d40 9984 a9bf
000002b0: ba84 1140 a39a 7f3f bbce 0dc0 c81c 05c0
000002c0: 7bdc 333d 50f3 69bd f124 6abe 78ce 92be
000002d0: e1eb 823d 8ee5 d4bf 976f aa3f 0808 b6be
000002e0: 3926 a4bd 58cb 0e40 9b01 c93f b352 053c
000002f0: 50e2 383f 589a 2bbd b1d8 063f dfb7 bebe
00000300: 4b17 c53f 3bec 05bf f6b5 483f 2b99 cfbe
00000310: d9fc 60bf 1ad3 8c3e 6278 2e3e 01b2 3bbf
00000320: 67c1 07bf 76e3 44be 22e0 0ac0 5a4e edbf
00000330: e638 b3bf 7bc5 463f 03d7 dcbf bdd2 17bf
00000340: 4bf8 9dbf b711 7fbf 04dc 23bf d52a 09c0
00000350: 0b61 01c0 0386 11c0 d1f8 dbbf 4539 8abf
00000360: 21b8 b8bf bb60 99bf e2c3 09c0 91c3 1bbf
00000370: cb30 ab3f 6071 77bf e02c 73bf c36d f8bd
00000380: a093 88bf 63ad 3bc0 e2f3 bcbf fc83 623e
00000390: 3ea7 85bf 1bc2 493f a6be 1140 3e24 ca40
000003a0: 361a 8240 9dc3 1b40 44b0 6dbf 3b65 4440
000003b0: 1c81 41c0 0165 59c0 ba6c e83f d032 633e
000003c0: 4ffd 883c a0f5 51c0 79b3 50be 08a4 febf
000003d0: d3a5 46c0 6eb8 1cc0 6ff4 30c0 64c8 04c0
000003e0: 729b 70bf 3097 83bf

critic.mlp.0.weight f4 [40, 60]
-0.0009665443 0.06925457 -0.090184875 -0.078939475 -0.03365337 0.034618966 0.01351168 0.13187401
-0.006706369 -0.11398226 0.000837122 -0.025376482 -0.12333496 -0.085500255 -0.053217772 0.0047823046
0.051037554 0.077462606 -0.087521814 -0.05621801 0.046891127 0.10720262 -0.026568688 0.096606635
-0.020808682 0.013660542 0.11689647 -0.11976173 -0.081273 -0.03268349 -0.050322957 0.11154202
-0.08367963 -0.04335892 -0.010575806 -0.104839265 -0.1761231 0.11097363 0.057606544 0.06257096
0.0067895413 -0.06618716 0.037911456 -0.26064527 -0.077213 -0.066554636 0.08145373 0.07569374
-0.057254963 -0.004658216 0.08256693 0.1949963 -0.02628517 0.08409444 0.086559415 -0.07601406
0.02405691 -0.10009151 -0.08947703 -0.06669065 0.05841402 0.051918685 -0.08627019 0.029205142
0.061074164 -0.016294591 -0.0048675193 0.019809658 0.06976221 0.11518645 -0.12481236 -0.047311038
0.05073736 0.106965266 0.11234328 0.11391177 0.025692668 -0.11226264 0.01187618 -0.0807653
-0.12031476 0.114703886 0.098162025 -0.1287803 0.024163809 -0.021748094 -0.021244753 -0.059096158
0.049645986 -0.07646605 0.047326736 0.06528664 0.09241862 0.038473994 -0.13693929 -0.09354375
0.046168286 0.027020687 -0.10070841 -0.074337974 0.12145021 0.086989515 -0.06608837 -0.044607453
-0.13277704 -0.0023204512 -0.09721949 -0.09958172 -0.0071133287 0.019383643 -0.052870132 0.07133693
-0.08305845 0.111873254 0.08847183 -0.108867355 -0.032130826 0.0058253054 0.01883575 0.030619066
0.05066227 0.0077330777 -0.054423895 0.06965582 -0.11527107 -0.0765181 -0.02375024 0.009153123
-0.003048389 -0.08600222 0.1338106 0.027595839 -0.08410387 -0.0066253007 0.092415944 -0.013271455
0.0035879596 -0.011137268 0.026127322 0.08208652 0.12228896 0.08198536 0.12256876 -0.009336685
-0.11597281 -0.061203107 0.08790448 -0.00083688484 -0.06416841 -0.098930426 -0.12081798 -0.10896099
-0.026186112 0.079366595 0.06264678 -0.11594027 0.15795623 -0.101021536 -0.02729295 -0.052346293
-0.024866525 -0.025347734 -0.10727988 -0.18302268 -0.011634142 0.0016695374 -0.058646634 0.048631657
-0.116197035 -0.0087125655 0.11353256 -0.054279074 0.2087998 0.045133166 -0.1165072 0.08168087
-0.014897362 -0.057630874 0.1032348 -0.10432465 0.013853007 -0.027029384 0.03712031 -0.019033764
0.006961712 0.045592625 -0.086116284 -0.069290005 -0.089129664 0.13799696 0.02886293 0.08833305
-0.09106395 0.0057578213 -0.0910066 -0.0710672 -0.075226955 0.044119094 -0.07693206 -0.0028165893
0.0054309713 0.083220474 -0.09758886 -0.088628344 -0.07496308 0.090361014 -0.04640673 0.10889392
0.046683334 0.016347349 -0.00096101937 -0.025520578 0.016197635 -0.08455028 0.02623877 -0.038598977
-0.07114241 -0.06766508 0.10424686 -0.10477023 -0.009270139 0.12771016 -0.008435685 0.06793564
-0.16695027 0.06395301 -0.09195505 -0.036646716 -0.04331497 -0.019117998 0.0014121267 0.14402908
-0.040688645 0.1531806 0.078971736 -0.081618465 0.05790163 -0.09125989 -0.05471559 0.037971076
0.042627614 0.09685402 -0.044032168 -0.0022662568 0.06399019 -0.12485106 0.09086289 -0.13648617
0.050500914 -0.051193185 -0.064585924 0.017063208 0.10675475 -0.03773829 -0.076645575 -0.047745988
00000000: b15f 7dba 57d5 8d3d d9b2 b8bd 05ab a1bd
00000010: 1ed8 09bd 9ecc 0d3d 1860 5d3c fb09 073e
00000020: 1ac1 dbbb 886f e9bd 4e72 5b3a 57e2 cfbc
00000030: 0a97 fcbd c21a afbd e1fa 59bd e1b4 9c3b
00000040: c10c 513d b7a4 9e3d a33e b3bd db44 66bd
00000050: e910 403d 0c8d db3d 94a6 d9bc b3d9 c53d
00000060: f876 aabc 77d0 5f3c 6b67 ef3d a345 f5bd
00000070: 7572 a6bd 20df 05bd 721f 4ebd 2570 e43d
00000080: 3a60 abbd 1f99 31bd 2546 2dbc f8b5 d6bd
00000090: 9d59 34be 2446 e33d d7f4 6b3d 3425 803d
000000a0: cd7a de3b 228d 87bd 0b49 1b3d 4c73 85be
000000b0: d921 9ebd cc4d 88bd 37d1 a63d 5205 9b3d
000000c0: 2e84 6abd f3a3 98bb da18 a93d 1cad 473e
000000d0: ff53 d7bc b539 ac3d 1046 b13d 42ad 9bbd
000000e0: ff12 c53c c7fc ccbd bc3f b7bd 1c95 88bd
000000f0: 8a43 6f3d b0a8 543d 6dae b0bd 9f3f ef3c
00000100: e728 7a3d 3c7c 85bc b67f 9fbb dd47 a23c
00000110: 7ddf 8e3d e0e6 eb3d 9f9d ffbd 38c9 41bd
00000120: fad1 4f3d 9b10 db3d 3c14 e63d 934a e93d
00000130: 6e79 d23c f4e9 e5bd 4f94 423c 4768 a5bd
00000140: 9667 f6bd dfe9 ea3d 2c09 c93d fcde 03be
00000150: 2ef3 c53c 0f29 b2bc 7a09 aebc d00e 72bd
00000160: 9759 4b3d 3c9a 9cbd aed9 413d 00b5 853d
00000170: f945 bd3d e896 1d3d d039 0cbe de93 bfbd
00000180: f51a 3d3d 7d5a dd3c 3640 cebd 823e 98bd
00000190: e3ba f83d 8f27 b23d 5759 87bd 4eb6 36bd
000001a0: b4f6 07be b612 18bb 031b c7bd 80f1 cbbd
000001b0: ed16 e9bb 72ca 9e3c 5a8e 58bd 1919 923d
000001c0: 8c1a aabd ce1d e53d b830 b53d d9f5 debd
000001d0: 9d9b 03bd 34e2 be3b 6e4d 9a3c d6d4 fa3c
000001e0: 3e83 4f3d c265 fd3b 97eb 5ebd b6a7 8e3d
000001f0: 3d13 ecbd 86b5 9cbd dd8f c2bc fbf6 153c
00000200: 7bc7 47bb ef21 b0bd a505 093e ab10 e23c
00000210: a63e acbd 0d19 d9bb 9244 bd3d 8470 59bc
00000220: f923 6b3b 1679 36bc f708 d63c fa1c a83d
00000230: a272 fa3d f1e7 a73d 5405 fb3d e5f8 18bc
00000240: 2783 edbd 1cb0 7abd 4407 b43d 6462 5bba
00000250: ba6a 83bd 099c cabd 6b6f f7bd f126 dfbd
00000260: 4284 d6bc f48a a23d f44c 803d 1872 edbd
00000270: 47bf 213e 61e4 cebd 7795 dfbc 1169 56bd
00000280: e2b4 cbbc 0da6 cfbc 8eb5 dbbd 4c6a 3bbe
00000290: 219d 3ebc 61d4 da3a 7437 70bd fd31 473d
000002a0: b6f8 edbd 26bf 0ebc c283 e83d bc53 5ebd
000002b0: 9dcf 553e 8edd 383d 549b eebd 4d48 a73d
000002c0: 1114 74bc 5a0e 6cbd c46c d33d 29a8 d5bd
000002d0: b9f7 623c ba6c ddbc 770b 183d b2ec 9bbc
000002e0: 131f e43b 55bf 3a3d bc5d b0bd ebe7 8dbd
000002f0: 9d89 b6bd 134f 0d3e f471 ec3c f5e7 b43d
00000300: bc7f babd 1bac bc3b ab61 babd ae8b 91bd
00000310: 9710 9abd 39b6 343d 8e8e 9dbd 8796 38bb
00000320: 4af6 b13b 7f6f aa3d abdc c7bd c782 b5bd
00000330: 3e86 99bd 320f b93d fc14 3ebd c703 df3d
00000340: 0637 3f3d e0ea 853c ebec 7bba 8810 d1bc
00000350: e7b0 843c b228 adbd b0f2 d63c f619 1ebd
00000360: 1db3 91bd fd93 8abd 617f d53d c691 d6bd
00000370: c8e1 17bc 74c6 023e d435 0abc d721 8b3d
00000380: 03f5 2abe ccf9 823d ee52 bcbd de1a 16bd
00000390: 0a6b 31bd 599d 9cbc 1c17 b93a 5c7c 133e
000003a0: 23a9 26bd 60db 1c3e efbb a13d 9527 a7bd
000003b0: 422a 6d3d 77e6 babd 741d 60bd 8f87 1b3d
000003c0: 4b9a 2e3d 675b c63d 135b 34bd 7b85 14bb
000003d0: 4a0d 833d eab1 ffbd 5316 ba3d 08c3 0bbe
000003e0: 0cda 4e3d f2af 51bd a045 84bd 24c8 8b3c
000003f0: 3ca2 da3d 7793 1abd 5bf8 9cbd 4c91 43bd

critic.mlp.0.bias f4 [40]
0.14082047 -0.009257699 -0.069075994 0.019218797 -0.029364154 -0.023257624 -0.06150154 -0.12881298
-0.12353191 -0.0018545055 -0.07948167 0.09913926 0.024890095 -0.058601424 0.0667754 -0.16222416
-0.08951827 -0.027709523 -0.07837259 0.054197732 -0.03188409 -0.20374599 -0.15047848 -0.009784452
0.08722565 -0.07410751 -0.05850084 -0.13523342 -0.01895638 0.040975787 0.013403621 0.024571413
-0.033411417 0.08896959 0.14290075 0.08840115 0.053825647 -0.06736231 -0.044496443 -0.014278567
00000000: 3e33 103e 9bad 17bc b777 8dbd bd70 9d3c
00000010: 188d f0bc c686 bebc 0ae9 7bbd 8de7 03be
00000020: 4cfe fcbd e112 f3ba 49c7 a2bd 8609 cb3d
00000030: 50e6 cb3c 0c08 70bd 8ac1 883d 171e 26be
00000040: 5b55 b7bd 15ff e2bc cf81 a0bd 71fe 5d3d
00000050: e498 02bd caa2 50be 0817 1abe f74e 20bc
00000060: 5da3 b23d aec5 97bd 949e 6fbd a17a 0abe
00000070: 694a 9bbc 3ad6 273d dc9a 5b3c fd49 c93c
00000080: 69da 08bd b035 b63d 9354 123e aa0b b53d
00000090: 4878 5c3d 40f5 89bd e741 36bd a7f0 69bc

critic.mlp.2.weight f4 [1, 40]
0.06906474 0.058877945 -0.11209773 -0.04091767 -0.09704235 -0.0014601762 -0.03575218 -0.23774059
-0.23764218 -0.13212621 0.08158046 0.18589164 -0.14652814 -0.049869634 0.073366895 -0.038020972
-0.025989778 0.0004519983 0.057689287 0.035548966 -0.013011374 -0.046140358 0.0812832 -0.018736256
0.034328047 0.00264985 0.12789018 -0.0049986416 -0.08640537 0.12773198 0.087258115 -0.05510249
-0.07666935 0.048333053 0.0700229 -0.2303761 0.1102798 -0.054265548 -0.28275585 0.069552325
00000000: d071 8d3d 002a 713d 7f93 e5bd 4999 27bd
00000010: 24be c6bd 6263 bfba e170 12bd 4572 73be
00000020: 7958 73be 184c 07be a813 a73d 615a 3e3e
00000030: 790b 16be 1a44 4cbd 6241 963d e1bb 1bbd
00000040: 84e8 d4bc 2ffa ec39 9a4b 6c3d cb9b 113d
00000050: a82d 55bc acfd 3cbd ce77 a63d c77c 99bc
00000060: 919b 0c3d 1ba9 2d3b a5f5 023e a5cb a3bb
00000070: 4cf5 b0bd 2ccc 023e 62b4 b23d 26b3 61bd
00000080: d204 9dbd e1f8 453d 2b68 8f3d b6e7 6bbe
00000090: 60da e13d 8d45 5ebd 60c5 90be 7371 8e3d
