evaluate_results/agent_logic_rf10_paper/checkpoints/step_40001.pth (torch, 13818 bytes, 4 tensors)

actor.im.W f4 [5, 50]
0	0x3f78a6d9	0.9712959
1	0x3e1af1e6	0.1513134
2	0xbd2b5b5d	-0.041835178
3	0xbdaf247a	-0.08551879
4	0xbfc85f87	-1.5654153
5	0x3fb03e4a	1.3769009
6	0xbee65f64	-0.44994652
7	0xbe8e29c3	-0.27766237
8	0x3efdbaec	0.49556673
9	0xbff1266b	-1.8839849
10	0xbe660235	-0.2246178
11	0x3f9dc0dd	1.2324482
12	0x3f7daa84	0.9908831
13	0xbefd59b5	-0.49482504
14	0x3f8e79be	1.1130903
15	0xbfc28ce0	-1.5199242
16	0x3e8c3d5d	0.27390566
17	0xbe8e4bb8	-0.27792144
18	0x3f9df073	1.2339004
19	0xbe9afc9d	-0.30270854
20	0x3fe349e1	1.7756921
21	0xbbe5b64f	-0.0070102583
22	0x3db6738e	0.08908759
23	0x3f8d7d67	1.1053895
24	0x3fac75f3	1.3473495
25	0x3ecb0e3f	0.39659306
26	0x3dcf5b0c	0.10124788
27	0xbf9bab29	-1.2161609
28	0x3f2c6494	0.6734097
29	0xbf85cc2a	-1.0452931
30	0xbf2bf45f	-0.67169756
31	0xbf009933	-0.50233763
32	0xbf84fbcb	-1.0389341
33	0xbf2b5d7c	-0.6693952
34	0xbf2971f1	-0.66189486
35	0xbfbfb58b	-1.4977278
36	0xbdc2f626	-0.09519605
37	0x3f6cc975	0.924949
38	0x3f2404d5	0.64069873
39	0x3e78a437	0.24281393
40	0xbf972851	-1.1809179
41	0x3ea84aa6	0.32869452
42	0x3f926a07	1.1438607
43	0xbf300eff	-0.6877288
44	0xbfe1bf68	-1.7636538
45	0x3f54c559	0.8311363
46	0x3d68a466	0.056797408
47	0xbebf7673	-0.37395057
48	0x3df9bb24	0.12193897
49	0x3f790114	0.9726727
50	0xbfec6403	-1.8468021
51	0x3fc5f1ef	1.5464457
52	0x401d61d6	2.4590964
53	0xbf1ee4b4	-0.62067723
54	0x3f9a825e	1.2071035
55	0xbf9cf14f	-1.2261142
56	0x3f6a8e54	0.91623425
57	0xbf44f959	-0.76942974
58	0x3f4390d5	0.7639287
59	0x3e9cf407	0.30654928
60	0xbe03c54d	-0.12868233
61	0x3f6bfe9e	0.9218539
62	0xbe5421c7	-0.2071601
63	0xbf521363	-0.8206083
64	0xbe232979	-0.1593379
65	0xbf0aa548	-0.5415845
66	0xbe30968b	-0.17244928
67	0xbdf1a163	-0.1179836
68	0x3fe3f703	1.7809757
69	0xbec12d8e	-0.37730068
70	0x3e4a37bb	0.19747822
71	0xbfc94bd4	-1.5726266
72	0xbe584950	-0.21121716
73	0x3f615ea5	0.8803504
74	0xbeb627ba	-0.35577184
75	0xbeaea8e6	-0.34113234
76	0x3f8a18d8	1.0788832
77	0x3e993d36	0.29929513
78	0xbf126d31	-0.5719786
79	0xbfd11447	-1.6334313
80	0xbfaf5dbf	-1.3700484
81	0x3d6d7f7a	0.0579829
82	0xbf9133a0	-1.134388
83	0xbf01a92f	-0.5064878
84	0x3fd10a64	1.6331296
85	0x3ebd0737	0.36919567
86	0xbf055a43	-0.52090853
87	0xbfd95f26	-1.6982162
88	0xbf4da5d1	-0.8033114
89	0x3faee227	1.3662766
90	0x3e141552	0.14461258
91	0x3f2754ca	0.6536375
92	0x3e3e8330	0.18604732
93	0x3f21c2a0	0.631876
94	0x3e810021	0.2519541
95	0xbe364b74	-0.1780222
96	0x3e3ddda4	0.1854158
97	0xbeb79c7a	-0.3586157
98	0x3fe5abc2	1.7943041
99	0xbf361dbd	-0.71139127
100	0xbe8b54cd	-0.27213135
101	0xbf0d0922	-0.5509206
102	0x3f2404ea	0.6407
103	0x3ec8587c	0.39130008
104	0x3eab85cb	0.33500513
105	0x3ffcff5f	1.9765433
106	0xbf1a4fc4	-0.6027796
107	0xbfd7ba9b	-1.6853822
108	0xbf23e13f	-0.64015573
109	0x3ffa7732	1.9567626
110	0x40121c06	2.2829604
111	0x3eac5023	0.3365489
112	0xbe708fc1	-0.23492338
113	0xbf81da25	-1.0144697
114	0x3f8b7537	1.0895146
115	0x3f474d5d	0.7785242
116	0x3fa54558	1.2911787
117	0xbfbca521	-1.4737893
118	0xbf257bda	-0.6464211
119	0xbe71f9be	-0.23630425
120	0xbfe63c56	-1.7987163
121	0x3ff68f7b	1.9262537
122	0x3e8055ac	0.25065362
123	0xbefcc819	-0.49371412
124	0x3fac600f	1.3466815
125	0x3ebbca67	0.36677858
126	0xbf4bdc0d	-0.79632646
127	0x3e1d0a78	0.15336025
128	0x3f1f2e21	0.6217976
129	0x3ec0bb71	0.37643006
130	0xbf092a47	-0.53580135
131	0x3e918fe7	0.284301
132	0xbf203481	-0.62580115
133	0xbfaa53ff	-1.3306884
134	0x3ed423fd	0.41433707
135	0x3d67b289	0.05656675
136	0xbf05dd99	-0.52291256
137	0x3fbc4333	1.4708008
138	0xbfca881d	-1.5822788
139	0x3df098e7	0.11747914
140	0x3e0fa051	0.14026
141	0x3e092a92	0.13395146
142	0x3fccfd16	1.6014736
143	0x3eeb62a7	0.45973703
144	0x3ecdb3a0	0.40176105
145	0x3f577e2c	0.841769
146	0x3fcfe1c5	1.6240774
147	0x3f77f232	0.96853936
148	0xbe14428b	-0.14478509
149	0x3ee2e07b	0.4431189
150	0x3fa5cad1	1.295252
151	0xbf4035c2	-0.7508203
152	0x3f4f3890	0.8094568
153	0x3f7ae0c5	0.9799922
154	0x3ef0d5d9	0.47038153
155	0x3f6c970b	0.92417973
156	0xbe8212f0	-0.25405073
157	0xbe8b2bc4	-0.27181828
158	0x3f5bdd2d	0.8588436
159	0xbf831838	-1.0241766
160	0x3f6694c6	0.9007076
161	0x3ec34449	0.38138035
162	0xbe1adace	-0.1512253
163	0x3f2e9c1f	0.6820697
164	0x3ecb1482	0.39664084
165	0xbe94e86e	-0.2908358
166	0x3ee70436	0.451204
167	0x3feecb5f	1.8655814
168	0x3f56b790	0.83873844
169	0x3e944bf5	0.289642
170	0x401a4310	2.4103432
171	0x3e15d8a1	0.14633419
172	0x3fb9b3af	1.450796
173	0x3f2d9704	0.67808557
174	0xc003d0d7	-2.0596216
175	0xbfac078d	-1.3439804
176	0x3f47a584	0.7798693
177	0x3dcad762	0.09904362
178	0x3f1e228c	0.61771464
179	0x3f8efad1	1.1170293
180	0x3f0ec4b2	0.55768883
181	0xbfce35ba	-1.6110146
182	0x3fb1207d	1.383804
183	0x3e125eca	0.14293972
184	0xbd557825	-0.052116532
185	0x3ff80d8b	1.9379133
186	0x3fd30eba	1.6488869
187	0x3db1776b	0.08665355
188	0x3edb9fd8	0.4289539
189	0xbe860129	-0.2617276
190	0x3f1bf482	0.60919964
191	0x3ea2d8d9	0.31806067
192	0x400ebdec	2.230342
193	0x3e24097e	0.16019246
194	0x3f611459	0.87921673
195	0xbe9edcfc	-0.31027973
196	0xbf479ae1	-0.779707
197	0x3f7d5b87	0.98967785
198	0x3f628ff7	0.8850092
199	0xbdecdd82	-0.11565687
200	0x3f921819	1.1413604
201	0x3fbd5fd0	1.4794865
202	0xbef225b9	-0.47294405
203	0xbe779ce0	-0.24180937
204	0xbea52302	-0.3225327
205	0x3fed5cea	1.854398
206	0xbde77679	-0.11301894
207	0x3efcc9f6	0.49372834
208	0x3e08697c	0.13321489
209	0x3f0bfa5f	0.5467891
210	0x3f831f9e	1.0244024
211	0xbef3c2bb	-0.47609505
212	0xbeb5587d	-0.35419074
213	0xbf19f5c5	-0.6014064
214	0xbdd14263	-0.102177404
215	0x3efd603a	0.49487478
216	0x3d92b9d9	0.07164354
217	0x3ea224f3	0.31668815
218	0xbf143b43	-0.57902926
219	0x3f5ac1a2	0.8545171
220	0x4023f40d	2.5617707
221	0x3e8c643e	0.2742023
222	0x3efd5658	0.49479938
223	0x3f8735bf	1.0563277
224	0xbec7cba6	-0.3902256
225	0xbfa3a671	-1.2785169
226	0x3e388bc2	0.18022063
227	0x3f65f142	0.89821255
228	0xbe925727	-0.28582117
229	0x3fcb165a	1.5866196
230	0x3eaf1c29	0.34201172
231	0x400ea4ab	2.2288005
232	0xbcb15da4	-0.021651097
233	0x3f49b081	0.7878495
234	0x3f34f433	0.7068512
235	0x3f5272de	0.82206523
236	0xbf9941ac	-1.1973166
237	0xbfc94382	-1.5723727
238	0xbedc7a76	-0.4306218
239	0xbfa0180b	-1.2507337
240	0x3fe14d9b	1.7601808
241	0xbfcf552c	-1.6197867
242	0x3fbb32bd	1.4624859
243	0xbe8c1697	-0.27360985
244	0xbfba1692	-1.4538138
245	0xbf4be133	-0.796405
246	0xbfa23bc5	-1.267449
247	0xbef9ab33	-0.48763427
248	0x3f25fa55	0.648351
249	0x3ea303f7	0.31838962

critic.mlp.0.weight f4 [40, 60]
0	0xba7d5fb1	-0.0009665443
1	0x3d8dd557	0.06925457
2	0xbdec5e4a	-0.11541422
3	0xbdd5567a	-0.10416885
4	0xbd712f11	-0.058882777
5	0x3d0dcc9e	0.034618966
6	0xbc3ffa5c	-0.011717405
7	0x3dcb3df1	0.09923924
8	0xbcb653a6	-0.022256684
9	0x3b872e4b	0.0041253916
10	0xbd93c40d	-0.07215128
11	0xbccfe257	-0.025376482
12	0xbdfc970a	-0.12333496
13	0xbdaf1ac2	-0.085500255
14	0xbd59fae1	-0.053217772
15	0x3b9cb4e1	0.0047823046
16	0x3d510cc1	0.051037554
17	0x3d9ea4b7	0.077462606
18	0xbdb33ea3	-0.087521814
19	0xbd6644db	-0.05621801
20	0x3d4010e9	0.046891127
21	0x3ddb8d0c	0.10720262
22	0xbcd9a694	-0.026568688
23	0x3dc5d9b3	0.096606635
24	0xbcaa76f8	-0.020808682
25	0x3c5fd077	0.013660542
26	0x3def676b	0.11689647
27	0xbdf545a3	-0.11976173
28	0xbda67275	-0.081273
29	0xbd05df20	-0.03268349
30	0xbd4e1f72	-0.050322957
31	0x3de47025	0.11154202
32	0xbdab603a	-0.08367963
33	0xbd8c77fe	-0.06858824
34	0xbdaec6e2	-0.08534028
35	0xbe0530ce	-0.13006899
36	0xbe59ef34	-0.21282655
37	0x3de34624	0.11097363
38	0x3d6bf4d7	0.057606544
39	0x3d802534	0.06257096
40	0x3bde7acd	0.0067895413
41	0xbd878d22	-0.06618716
42	0x3c4fc89a	0.0126821045
43	0xbe1297ee	-0.14315769
44	0xbdd1cd5a	-0.10244246
45	0xbd884dcc	-0.066554636
46	0x3da6d137	0.08145373
47	0x3d9b0552	0.07569374
48	0xbd6a842e	-0.057254963
49	0xbb98a3f3	-0.004658216
50	0x3da918da	0.08256693
51	0x3de3f11a	0.11129971
52	0x3d15708f	0.036484297
53	0x39d0b7cd	0.00039809794
54	0x3db14610	0.086559415
55	0xbd9bad42	-0.07601406
56	0x3cc512ff	0.02405691
57	0xbdccfcc7	-0.10009151
58	0xbdb73fbc	-0.08947703
59	0xbd88951c	-0.06669065
60	0x3d6f438a	0.05841402
61	0x3d54a8b0	0.051918685
62	0xbdb0ae6d	-0.08627019
63	0x3cef3f9f	0.029205142
64	0x3d7a28e7	0.061074164
65	0xbc857c3c	-0.016294591
66	0xbb9f7fb6	-0.0048675193
67	0x3ca247dd	0.019809658
68	0x3d8edf7d	0.06976221
69	0x3debe6e0	0.11518645
70	0xbdff9d9f	-0.12481236
71	0xbd41c938	-0.047311038
72	0x3d4fd1fa	0.05073736
73	0x3ddb109b	0.106965266
74	0x3de6143c	0.11234328
75	0x3de94a93	0.11391177
76	0x3cd2796e	0.025692668
77	0xbde5e9f4	-0.11226264
78	0x3c42944f	0.01187618
79	0xbda56847	-0.0807653
80	0xbdf66796	-0.12031476
81	0x3deae9df	0.114703886
82	0x3dc9092c	0.098162025
83	0xbe03defc	-0.1287803
84	0x3cc5f32e	0.024163809
85	0xbcb2290f	-0.021748094
86	0xbcae097a	-0.021244753
87	0xbd720ed0	-0.059096158
88	0x3d4b5997	0.049645986
89	0xbd9c9a3c	-0.07646605
90	0x3d41d9ae	0.047326736
91	0x3d85b500	0.06528664
92	0x3dbd45f9	0.09241862
93	0x3d1d96e8	0.038473994
94	0xbe0c39d0	-0.13693929
95	0xbdbf93de	-0.09354375
96	0x3d3d1af5	0.046168286
97	0x3cdd5a7d	0.027020687
98	0xbdce4036	-0.10070841
99	0xbd983e82	-0.074337974
100	0x3df8bae3	0.12145021
101	0x3db2278f	0.086989515
102	0xbd875957	-0.06608837
103	0xbd36b64e	-0.044607453
104	0xbe07f6b4	-0.13277704
105	0xbb1812b6	-0.0023204512
106	0xbdc71b03	-0.09721949
107	0xbdcbf180	-0.09958172
108	0xbbe916ed	-0.0071133287
109	0x3c9eca72	0.019383643
110	0xbd588e5a	-0.052870132
111	0x3d921919	0.07133693
112	0xbdaa1a8c	-0.08305845
113	0x3de51dce	0.111873254
114	0x3db530b8	0.08847183
115	0xbddef5d9	-0.108867355
116	0xbd039b9d	-0.032130826
117	0x3bbee234	0.0058253054
118	0x3c9a4d6e	0.01883575
119	0x3cfad4d6	0.030619066
120	0x3d4f833e	0.05066227
121	0x3bfd65c2	0.0077330777
122	0xbd5a085d	-0.053230632
123	0x3d911946	0.07084899
124	0xbde9a1b1	-0.11407793
125	0xbd9cb586	-0.0765181
126	0xbcb8c931	-0.022556873
127	0xbd33fa39	-0.043939803
128	0xbd1a2e06	-0.037641548
129	0xbdafd4d5	-0.08585516
130	0xbd0a6b43	-0.0337937
131	0x3ce210ab	0.027595839
132	0xbdac3ea6	-0.08410387
133	0xbbd9190d	-0.0066253007
134	0x3dbd4492	0.092415944
135	0xbc597084	-0.013271455
136	0x3b6b23f9	0.0035879596
137	0xbc367916	-0.011137268
138	0x3cd608f7	0.026127322
139	0x3da81cfa	0.08208652
140	0x3dfa72a2	0.12228896
141	0x3da7e7f1	0.08198536
142	0x3dfb0554	0.12256876
143	0xbc18f8e5	-0.009336685
144	0xbded8327	-0.11597281
145	0xbd7ab01c	-0.061203107
146	0x3db40744	0.08790448
147	0xba5b6264	-0.00083688484
148	0xbd836aba	-0.06416841
149	0xbdca9c09	-0.098930426
150	0xbdf76f6b	-0.12081798
151	0xbddf26f1	-0.10896099
152	0xbcd68442	-0.026186112
153	0x3da4fc6b	0.080559574
154	0x3da5479f	0.08070301
155	0xbdeb0082	-0.11474706
156	0x3d364176	0.044496022
157	0xbdcee461	-0.101021536
158	0xbcdf9577	-0.02729295
159	0xbd566911	-0.052346293
160	0xbccbb4e2	-0.024866525
161	0xbccfa60d	-0.025347734
162	0xbdd94401	-0.10608674
163	0xbddba51b	-0.10724851
164	0xbc2b0fe4	-0.0104408
165	0x3adad461	0.0016695374
166	0xbd703774	-0.058646634
167	0x3d4731fd	0.048631657
168	0xbdedf8b6	-0.116197035
169	0xbc0ebf26	-0.0087125655
170	0x3de883c2	0.11353256
171	0xbd2fb5c6	-0.042897962
172	0x3e03e3eb	0.12879913
173	0x3d677bb8	0.05651447
174	0xbdee9b54	-0.1165072
175	0x3da7484d	0.08168087
176	0xbc741411	-0.014897362
177	0xbd6c0e5a	-0.057630874
178	0x3dd36cc4	0.1032348
179	0xbdd5a829	-0.10432465
180	0x3c62f7b9	0.013853007
181	0xbcdd6cba	-0.027029384
182	0x3db506c9	0.08839185
183	0x3d040ba2	0.032237656
184	0x3d6e85eb	0.058233183
185	0x3d3abf55	0.045592625
186	0xbd0eb995	-0.034844954
187	0xbcfd520e	-0.030922916
188	0xbddff79c	-0.109358996
189	0x3e06de66	0.13170776
190	0x3d6d405c	0.057922706
191	0x3db4e7f5	0.08833305
192	0xbdba7fbc	-0.09106395
193	0x3bbcac1b	0.0057578213
194	0xbdba61ab	-0.0910066
195	0xbd918bae	-0.0710672
196	0xbd9a1097	-0.075226955
197	0x3d34b639	0.044119094
198	0xbd9d8e8e	-0.07693206
199	0xbb389687	-0.0028165893
200	0x3bb1f64a	0.0054309713
201	0x3daa6f7f	0.083220474
202	0xbdc7dcab	-0.09758886
203	0xbdb582c7	-0.088628344
204	0xbd99863e	-0.07496308
205	0x3db90f32	0.090361014
206	0xbd3e14fc	-0.04640673
207	0x3ddf03c7	0.10889392
208	0x3d3f3706	0.046683334
209	0x3c85eae0	0.016347349
210	0xba7beceb	-0.00096101937
211	0xbcd11088	-0.025520578
212	0x3c84b0e7	0.016197635
213	0xbd084f82	-0.03327895
214	0xbc665694	-0.014058728
215	0x3c4f9ff3	0.012672412
216	0xbe197173	-0.14984684
217	0xbd8a93fd	-0.06766508
218	0x3dd57f61	0.10424686
219	0xbdd691c6	-0.10477023
220	0xbc17e1c8	-0.009270139
221	0x3e02c674	0.12771016
222	0x3d2f7485	0.04283573
223	0x3bc7f184	0.006101789
224	0xbdece8de	-0.115678534
225	0x3d82f9cc	0.06395301
226	0xbdbc52ee	-0.09195505
227	0xbd161ade	-0.036646716
228	0xbd316b0a	-0.04331497
229	0xbc9c9d59	-0.019117998
230	0x3ab9171c	0.0014121267
231	0x3dd86dfb	0.10567852
232	0x3ccc405e	0.024933036
233	0x3deb2bde	0.114829764
234	0x3da1bbef	0.078971736
235	0xbda72795	-0.081618465
236	0x3d6d2a42	0.05790163
237	0xbdbae677	-0.09125989
238	0xbd601d74	-0.05471559
239	0x3d1b878f	0.037971076
240	0x3d2e9a4b	0.042627614
241	0x3dc65b67	0.09685402
242	0xbd321cf9	-0.04348466
243	0xbae14965	-0.0017188011
244	0x3d842c7b	0.064537965
245	0xbdffb1ea	-0.12485106
246	0x3dbb3595	0.09141079
247	0xbe03aa58	-0.1285795
248	0xb8c056de	-9.171454e-05
249	0x3cbe31c4	0.02321709
250	0xbd86a767	-0.06574898
251	0x3c8bc824	0.017063208
252	0x3ddaa23c	0.10675475
253	0xbd1a9377	-0.03773829
254	0xbd9cf85b	-0.076645575
255	0xbd43914c	-0.047745988

critic.mlp.0.bias f4 [40]
0	0x3decbae6	0.115590855
1	0xbc17ad9b	-0.009257699
2	0xbd8b061f	-0.06788277
3	0x3d905d25	0.07049016
4	0xbcec1118	-0.028816745
5	0xb8c361bb	-9.316528e-05
6	0xbd63794e	-0.055535607
7	0xbdf53d19	-0.11974544
8	0xbdc311ca	-0.09524877
9	0x3c7cd486	0.015431529
10	0xbda46caf	-0.08028542
11	0x3ddc05ee	0.107433185
12	0xbc047680	-0.008084893
13	0xbd70080c	-0.058601424
14	0x3d6c8cc7	0.057751443
15	0xbde91aa9	-0.11382038
16	0xbda1e8fa	-0.07905765
17	0x3d71f0e1	0.05906761
18	0xbdc3eb9a	-0.09566422
19	0x3d84d074	0.06485072
20	0x3caac8fe	0.020847794
21	0xbdec9126	-0.11551122
22	0xbe1a1708	-0.15047848
23	0x3d2ca49c	0.04214917
24	0x3d4adbcc	0.04952602
25	0xbcaf6dc4	-0.021414645
26	0xbdc4083f	-0.09571885
27	0xbd8ced53	-0.068812035
28	0x3b9341da	0.004493934
29	0x3c87707a	0.016533125
30	0x3c92ff1d	0.017943913
31	0x3d210cbc	0.039318785
32	0x3a6cf2ba	0.00090388546
33	0x3d9c83b4	0.07642308
34	0x3e079abc	0.1324262
35	0x3dd46050	0.10369933
36	0x3ddd9b51	0.1082064
37	0xbd52a0e5	-0.051422972
38	0xbd6dff12	-0.058104582
39	0xbc69f0a7	-0.014278567

critic.mlp.2.weight f4 [1, 40]
0	0x3ced90a5	0.028999636
1	0x3d712a00	0.058877945
2	0xbcf47cd9	-0.029844688
3	0xbdcad9a0	-0.0990479
4	0xbdfd3e88	-0.123654425
5	0x3e155f9e	0.14587256
6	0xbd53df59	-0.051726673
7	0xbc44d77a	-0.012014264
8	0xbddee4fa	-0.108835176
9	0xbdf404da	-0.11914988
10	0x3cb72c12	0.022359882
11	0x3d64ce02	0.055860527
12	0xbd9834c9	-0.07431943
13	0xbd4c441a	-0.049869634
14	0x3df31730	0.11869657
15	0xbd75133e	-0.059832804
16	0xbde8f5f5	-0.113750376
17	0xbcfdcf48	-0.030982628
18	0x3e0ce64a	0.13759723
19	0x3d2f0d12	0.042737074
20	0x3ca40870	0.020023555
21	0xbc9c603e	-0.01908886
22	0x3da677ce	0.0812832
23	0xbd8d4014	-0.068969876
24	0x3ddba551	0.10724891
25	0x3ccfa4d3	0.025347149
26	0x3d9fe5ac	0.07807478
27	0x3cbca707	0.023028864
28	0xbdca9d58	-0.09893292
29	0x3dd33132	0.10312118
30	0x3d9d694d	0.076861
31	0xbdefb027	-0.1170352
32	0xbe1d19e4	-0.15341908
33	0x3bec6743	0.007214458
34	0x3dc4fdce	0.09618722
35	0xbd8671e7	-0.06564694
36	0x3e0172c3	0.12641434
37	0xbdb8a6d6	-0.090161964
38	0xbe0bf5d2	-0.13667992
39	0x3d8e7173	0.069552325
