evaluate_results/agent_logic_rf10_paper/checkpoints/step_210001.pth (torch, 13829 bytes, 4 tensors)

actor.im.W f4 [5, 50]
00000000: c85b ac3f e0cc 063f b06c ac3e 1cc6 803e
00000010: ebc3 fdbf 75af 753f aa42 e7bd 9e1a 33bf
00000020: cbc8 b53f 89f7 c8bf 5262 1e3e 992a ce3f
00000030: 0b3f af3f 5326 f6bd 2ebb c33f 0b5c abbf
00000040: 0ec7 1d3f 1511 843d c421 b53f b40d 09be
00000050: d79e 8b3f 76cb 85be 598a 203f a282 b23f
00000060: bf09 9e3f 84a1 a63e 81a0 f63c 5e17 aabf
00000070: 41de f03e e243 9dbf 9145 02bf b02d ffbd
00000080: f944 29bf 3f9f 02bf cf3d 7cbe 53f7 8dbf
00000090: 67f6 3f3e fd92 9a3f ebc1 833f c20e 093f
000000a0: 63bf 4fbf 582f a0be 9396 003f f2fb a2bd
000000b0: d004 bdbf 3b1e 8f3f 51a6 be3e 832e 76bf
000000c0: c178 eebe c64d a93f d038 05c0 5ae2 a73f
000000d0: fdd0 0a40 30cb 40bf e79f 453f 03a2 d4bf
000000e0: 63a7 483f cc1a a7bf 6108 eb3f 0325 b63d
000000f0: f7a1 033d 822e 8a3f a4a5 4abd 02e5 29bf
00000100: 4b67 213d f676 28bf b49f c2bc 1090 fb3c
00000110: 2c0e d53f e222 fdbe 400f 8f3e 4d8e b9bf
00000120: 03a1 8d3d 1d00 8f3f 5dfe 5bbe fa07 81be
00000130: 2b81 953f 2666 e13e 4f45 00bf 279b c3bf
00000140: 90ec c4bf f9cb 713e 10cd 74bf 8cd0 2dbf
00000150: 8a5d ee3f 2b78 5a3f 4424 5fbe ce96 b2bf
00000160: d364 a3be db46 f13f 3072 833e 586d 4d3e
00000170: b8b0 88be 1b61 4c3e 0520 d03e b462 c0bc
00000180: 55f7 933e b25a 50bf 6965 ab3f 8595 91bf
00000190: bfda a5bc 2a1c 99be d061 5b3f 8d18 033e
000001a0: 9645 04be 1895 c13f e0b5 5dbf ced1 06c0
000001b0: 1343 2abf 71cc de3f 1253 4f40 b2c7 0840
000001c0: 3768 c83f cc09 7ebd 2130 b23f f110 df3e
000001d0: c9ec 1040 9728 00bf f43f 7dbf b84b b43e
000001e0: c701 c6bf 0852 d93f 364a 033f fdf9 37bf
000001f0: 2e65 a23f 99c4 2a3f f7fc fdbe b667 9a3d
00000200: fc2b 0c3f b1a7 083e fd1f 9bbe 8132 0f3f
00000210: 0e96 b3be c9dc 8cbf a6ab 363f a8be ab3e
00000220: c463 b1be 67d9 d23f 53d8 a6bf fa73 973e
00000230: b5a3 c93f 8f6e 273f c9c7 0740 890d 8d3e
00000240: 7d96 4e3f 9b9d 9f3f 9d71 e53f 5e16 bd3e
00000250: 7577 3ebf 7ad0 31be d644 8a3f cf40 77bf
00000260: 5e02 193f c0ce 383f e107 8d3d d1cc 053f
00000270: e11a 03bf cdd3 32bf 0962 6d3f c52c a3bf
00000280: 1458 2c3f 91a0 1a3e ce60 c3be abf1 e73e
00000290: fb17 413e 6f9c 06bf f86a c83e 1225 e73f
000002a0: 8f8e 1a3f 6127 6b3e 5640 f63f a3aa 2ebf
000002b0: eb8d 0940 8b1e 903f 504b 0ec0 05f8 03c0
000002c0: 5b0d 7d3d 818b 84bd 4bda 4bbd 00c0 bd3e
000002d0: 5df0 073e 453e e7bf ba16 983f 4239 91be
000002e0: c17f 68be 148a 1b40 6750 c83f ea93 323b
000002f0: dadc 6b3f 71e1 3d3e 9a79 c53e 992d abbe
00000300: faf9 c93f fa37 f7be eee4 283f 619d 07bf
00000310: a653 80bf 035c 923e 198a 393e e767 39bf
00000320: 0974 453f a201 8e3f 8198 5ebf d33b 2bbf
00000330: 6636 5ebf f689 a73f bf43 0abf ec12 8cbd
00000340: 033c 06bd 5227 333e ae4e 293f 8049 57bf
00000350: 0615 38bf 95ee 77bf a7c5 debe 86e7 393e
00000360: 13eb 6dbe c102 503c 846e 64bf ef73 123f
00000370: de48 0b40 4011 7ebe 76e4 903e 7b83 173f
00000380: b530 cabe 7981 f3bf c936 e3be 98be 643f
00000390: 8f9c d2be a754 ab3f 22f9 cd3f 076b 8a40
000003a0: f3cb 0440 a387 0240 bf30 c33e f576 3540
000003b0: 626e e5bf 88b6 0ac0 c790 ca3f c335 e43d
000003c0: cb64 a43f 9636 ffbf 4a49 8b3f 2499 38bf
000003d0: 2b74 e8bf a051 94bf 0872 dcbf a6f7 56bf
000003e0: 8aaa 973e 1ba1 9d3d
1.346551 0.52656364 0.33676672 0.25151145 -1.9825414 0.9597085 -0.11292012 -0.6996249
1.4201902 -1.5700542 0.15467194 1.610675 1.3691114 -0.120190285 1.5291498 -1.3387464
0.6163186 0.06448571 1.415093 -0.13384134 1.0907849 -0.2613179 0.627111 1.3946116
1.2346724 0.32545102 0.030105831 -1.3288381 0.47044566 -1.2286341 -0.508874 -0.12459886
-0.6612087 -0.5102424 -0.24632953 -1.1091102 0.18746339 1.2076107 1.0293554 0.53538144
-0.8115141 -0.3128612 0.5022976 -0.07958211 -1.4767094 1.1181101 0.37236264 -0.9616472
-0.46576503 1.322686 -2.0815926 1.3115952 2.1690056 -0.7531004 0.77197117 -1.6611942
0.7838041 -1.3055053 1.8361932 0.08893778 0.032136884 1.0795443 -0.049474373 -0.66365063
0.03940515 -0.6580652 -0.023757793 0.030708343 1.664495 -0.49440676 0.27941322 -1.4496552
0.06915476 1.117191 -0.2148375 -0.25201398 1.1680044 0.44023246 -0.50105757 -1.5281724
-1.5384693 0.23612966 -0.956254 -0.6789634 1.8622296 0.8533961 -0.21791178 -1.3952272
-0.3191286 1.8849748 0.25673056 0.20061243 -0.26697326 0.19958918 0.4064943 -0.023484565
0.28899637 -0.8138839 1.3390323 -1.1373755 -0.020245908 -0.299043 0.85696125 0.12802334
-0.1291717 1.5123625 -0.86605644 -2.1065555 -0.665086 1.740614 3.2394452 2.1371884
1.5656804 -0.06202106 1.3920938 0.43567613 2.2644522 -0.50061935 -0.9892571 0.3521402
-1.5469292 1.6978159 0.5128511 -0.71865827 1.2687128 0.66706234 -0.4960706 0.075393125
0.54754615 0.13345219 -0.30297843 0.5593644 -0.3507542 -1.1004878 0.71355665 0.33543897
-0.34646428 1.6472596 -1.3034767 0.2958067 1.5753084 0.65403074 2.121569 0.2754939
0.80698377 1.2469972 1.7925297 0.36931127 -0.74401027 -0.17364684 1.0802257 -0.96583265
0.5976924 0.72190475 0.068862684 0.5226565 -0.5121289 -0.6985443 0.92727715 -1.2748038
0.67321897 0.15100314 -0.38159794 0.45301566 0.18856804 -0.5258245 0.3914411 1.8058188
0.6037378 0.2296424 1.9238384 -0.6822912 2.149287 1.1259321 -2.2233467 -2.062013
0.061780315 -0.06471921 -0.049768727 0.37060547 0.13275285 -1.8065878 1.1881936 -0.28363997
-0.22704984 2.4303026 1.5649537 0.0027248808 0.9213387 0.1854303 0.38569337 -0.33433226
1.5779412 -0.48284894 0.6597432 -0.52974516 -1.0025527 0.28585824 0.18119086 -0.7242417
0.7713018 1.1094248 -0.8695145 -0.6688816 -0.86801755 1.3088977 -0.5400962 -0.068395466
-0.032772075 0.17495468 0.6613568 -0.8409653 -0.7190708 -0.9684842 -0.43510172 0.18154725
-0.23234205 0.012695969 -0.89231133 0.5720815 2.1763225 -0.24811268 0.28299302 0.59185
-0.39490286 -1.9023887 -0.44377735 0.89353323 -0.4113507 1.3385209 1.6091654 4.325565
2.074948 2.0395286 0.38123128 2.8353856 -1.7924311 -2.1673908 1.5825433 0.11143067
1.284326 -1.9938533 1.0881741 -0.72108674 -1.8160452 -1.158741 -1.72223 -0.8397163
0.29622298 0.07696744

critic.mlp.0.weight f4 [40, 60]
00000000: b15f 7dba 57d5 8d3d 6b65 e0bd a35d c9bd
00000010: 723d 59bd 9ecc 0d3d 1369 c0bb 0626 d83d
00000020: 11e3 75bc dffc 92bc ec76 b1bd 57e2 cfbc
00000030: 0a97 fcbd c21a afbd e1fa 59bd e1b4 9c3b
00000040: c10c 513d b7a4 9e3d a33e b3bd db44 66bd
00000050: e910 403d 0c8d db3d 94a6 d9bc b3d9 c53d
00000060: f876 aabc 77d0 5f3c 6b67 ef3d a345 f5bd
00000070: 7572 a6bd 20df 05bd 721f 4ebd 2570 e43d
00000080: 3a60 abbd 357f 80bd 79ba 81bd 9e68 febd
00000090: a969 a1be 2446 e33d d7f4 6b3d 3425 803d
000000a0: cd7a de3b 228d 87bd 7dc7 973c fd25 56be
000000b0: 80d4 c5bd cc4d 88bd 37d1 a63d 5205 9b3d
000000c0: 2e84 6abd f3a3 98bb da18 a93d 43e6 ef3d
000000d0: 4017 9c3b 805d cc3b 1046 b13d 42ad 9bbd
000000e0: ff12 c53c c7fc ccbd bc3f b7bd 1c95 88bd
000000f0: 8a43 6f3d b0a8 543d 6dae b0bd 9f3f ef3c
00000100: e728 7a3d 3c7c 85bc b67f 9fbb dd47 a23c
00000110: 7ddf 8e3d e0e6 eb3d 9f9d ffbd 38c9 41bd
00000120: fad1 4f3d 9b10 db3d 3c14 e63d 934a e93d
00000130: 6e79 d23c f4e9 e5bd 4f94 423c 4768 a5bd
00000140: 9667 f6bd dfe9 ea3d 2c09 c93d fcde 03be
00000150: 2ef3 c53c 0f29 b2bc 7a09 aebc d00e 72bd
00000160: 9759 4b3d 3c9a 9cbd aed9 413d 00b5 853d
00000170: f945 bd3d e896 1d3d d039 0cbe de93 bfbd
00000180: f51a 3d3d 7d5a dd3c 3640 cebd 823e 98bd
00000190: e3ba f83d 8f27 b23d 5759 87bd 4eb6 36bd
000001a0: b4f6 07be b612 18bb 031b c7bd 80f1 cbbd
000001b0: ed16 e9bb 72ca 9e3c 5a8e 58bd 1919 923d
000001c0: 8c1a aabd ce1d e53d b830 b53d d9f5 debd
000001d0: 9d9b 03bd 34e2 be3b 6e4d 9a3c d6d4 fa3c
000001e0: 3e83 4f3d c265 fd3b 8f2f 5bbd 9385 903d
000001f0: 5035 eabd 86b5 9cbd e517 bbbc c476 e2bb
00000200: 81dc 1bbd b2ee 013d d351 41bb ab10 e23c
00000210: a63e acbd 0d19 d9bb 9244 bd3d 8470 59bc
00000220: f923 6b3b 1679 36bc f708 d63c fa1c a83d
00000230: a272 fa3d f1e7 a73d 5405 fb3d e5f8 18bc
00000240: 2783 edbd 1cb0 7abd 4407 b43d 6462 5bba
00000250: ba6a 83bd 099c cabd 6b6f f7bd f126 dfbd
00000260: 4284 d6bc c968 a43d bd81 c53d 2b94 ebbd
00000270: da48 8e3d 61e4 cebd 7795 dfbc 1169 56bd
00000280: e2b4 cbbc 0da6 cfbc a7d7 d9bd ce6d 0ebe
00000290: daac 2fbc 61d4 da3a 7437 70bd fd31 473d
000002a0: b6f8 edbd 26bf 0ebc c283 e83d 5e99 68bd
000002b0: 7c8e 2c3e ef97 2e3d 549b eebd 4d48 a73d
000002c0: 1114 74bc 5a0e 6cbd c46c d33d 29a8 d5bd
000002d0: b9f7 623c ba6c ddbc a037 263d c628 7fbc
000002e0: 30c0 2a3c 55bf 3a3d a847 a9bd 8eac 60bd
000002f0: 2c77 07be c151 153e 7e01 d23d f5e7 b43d
00000300: bc7f babd 1bac bc3b ab61 babd ae8b 91bd
00000310: 9710 9abd 39b6 343d 8e8e 9dbd 8796 38bb
00000320: 4af6 b13b 7f6f aa3d abdc c7bd c782 b5bd
00000330: 3e86 99bd 320f b93d fc14 3ebd c703 df3d
00000340: 0637 3f3d e0ea 853c ebec 7bba 8810 d1bc
00000350: e7b0 843c 9e12 a6bd 1aeb bebb e4ed 0fbd
00000360: 2de9 9dbd fd93 8abd 617f d53d c691 d6bd
00000370: c8e1 17bc 74c6 023e 970a a3bb e371 543d
00000380: fc69 27be ccf9 823d ee52 bcbd de1a 16bd
00000390: 0a6b 31bd 599d 9cbc 1c17 b93a c44f 1f3e
000003a0: 3e68 29bb bcae 283e efbb a13d 9527 a7bd
000003b0: 422a 6d3d 77e6 babd 741d 60bd 8f87 1b3d
000003c0: 4b9a 2e3d 675b c63d 2f0f 83bc 3616 d33c
000003d0: 3077 bc3d eab1 ffbd 3e80 f33d 693e c0bd
000003e0: c551 143d 66d0 4abd ffd1 903c 24c8 8b3c
000003f0: 3ca2 da3d 7793 1abd 5bf8 9cbd 4c91 43bd
-0.0009665443 0.06925457 -0.10956844 -0.09832313 -0.053037114 0.034618966 -0.005871901 0.105541274
-0.01500775 -0.017942844 -0.08665261 -0.025376482 -0.12333496 -0.085500255 -0.053217772 0.0047823046
0.051037554 0.077462606 -0.087521814 -0.05621801 0.046891127 0.10720262 -0.026568688 0.096606635
-0.020808682 0.013660542 0.11689647 -0.11976173 -0.081273 -0.03268349 -0.050322957 0.11154202
-0.08367963 -0.06274263 -0.06334395 -0.12422298 -0.31525925 0.11097363 0.057606544 0.06257096
0.0067895413 -0.06618716 0.01852774 -0.20912929 -0.09659672 -0.066554636 0.08145373 0.07569374
-0.057254963 -0.004658216 0.08256693 0.11713841 0.004763514 0.006236732 0.086559415 -0.07601406
0.02405691 -0.10009151 -0.08947703 -0.06669065 0.05841402 0.051918685 -0.08627019 0.029205142
0.061074164 -0.016294591 -0.0048675193 0.019809658 0.06976221 0.11518645 -0.12481236 -0.047311038
0.05073736 0.106965266 0.11234328 0.11391177 0.025692668 -0.11226264 0.01187618 -0.0807653
-0.12031476 0.114703886 0.098162025 -0.1287803 0.024163809 -0.021748094 -0.021244753 -0.059096158
0.049645986 -0.07646605 0.047326736 0.06528664 0.09241862 0.038473994 -0.13693929 -0.09354375
0.046168286 0.027020687 -0.10070841 -0.074337974 0.12145021 0.086989515 -0.06608837 -0.044607453
-0.13277704 -0.0023204512 -0.09721949 -0.09958172 -0.0071133287 0.019383643 -0.052870132 0.07133693
-0.08305845 0.111873254 0.08847183 -0.108867355 -0.032130826 0.0058253054 0.01883575 0.030619066
0.05066227 0.0077330777 -0.053512152 0.07056727 -0.1143595 -0.0765181 -0.022838542 -0.0069111306
-0.038052086 0.03172178 -0.0029498234 0.027595839 -0.08410387 -0.0066253007 0.092415944 -0.013271455
0.0035879596 -0.011137268 0.026127322 0.08208652 0.12228896 0.08198536 0.12256876 -0.009336685
-0.11597281 -0.061203107 0.08790448 -0.00083688484 -0.06416841 -0.098930426 -0.12081798 -0.10896099
-0.026186112 0.08027799 0.09643886 -0.1150287 0.06947489 -0.101021536 -0.02729295 -0.052346293
-0.024866525 -0.025347734 -0.106368355 -0.13909075 -0.010722363 0.0016695374 -0.058646634 0.048631657
-0.116197035 -0.0087125655 0.11353256 -0.056786887 0.16851228 0.042625364 -0.1165072 0.08168087
-0.014897362 -0.057630874 0.1032348 -0.10432465 0.013853007 -0.027029384 0.040580392 -0.015573686
0.010421798 0.045592625 -0.082656205 -0.05485206 -0.13229054 0.14581968 0.10254191 0.08833305
-0.09106395 0.0057578213 -0.0910066 -0.0710672 -0.075226955 0.044119094 -0.07693206 -0.0028165893
0.0054309713 0.083220474 -0.09758886 -0.088628344 -0.07496308 0.090361014 -0.04640673 0.10889392
0.046683334 0.016347349 -0.00096101937 -0.025520578 0.016197635 -0.0810902 -0.005826366 -0.03513898
-0.077104904 -0.06766508 0.10424686 -0.10477023 -0.009270139 0.12771016 -0.0049756276 0.051866423
-0.16349024 0.06395301 -0.09195505 -0.036646716 -0.04331497 -0.019117998 0.0014121267 0.15557772
-0.0025849487 0.16472906 0.078971736 -0.081618465 0.05790163 -0.09125989 -0.05471559 0.037971076
0.042627614 0.09685402 -0.015998451 0.025767427 0.09202421 -0.12485106 0.11889695 -0.09386904
0.036210794 -0.04951515 0.017678259 0.017063208 0.10675475 -0.03773829 -0.076645575 -0.047745988

critic.mlp.0.bias f4 [40]
00000000: 90b3 f83d 9bad 17bc ce99 8bbd 01c9 b93c
00000010: 2c65 aeba 571c 5eb6 2577 6fbd f6a6 f9bd
00000020: 3d95 d0bd ff0a 66bb c883 8dbd ef90 ab3d
00000030: 279c 153c 0c08 70bd f2ff 8c3d a3ec 0ebe
00000040: 33e6 9ebd a381 173d 823a b1bd f825 5f3d
00000050: 7f6b d0bb c629 15be 0817 1abe 6b3a 2238
00000060: 2825 ac3d bf88 cebc ed07 8bbd 43ab bfbd
00000070: 048f 64bc 4726 2a3d fd68 623c 4f17 a13c
00000080: 39ec 37bb fc11 913d c866 143e 97db b83d
00000090: d759 9e3d 5aa4 66bd d104 d4bc a7f0 69bc
0.12143624 -0.009257699 -0.06816445 0.022678854 -0.0013305298 -3.3097074e-06 -0.058463234 -0.121900484
-0.10184715 -0.003510177 -0.06909901 0.08377253 0.009131468 -0.058601424 0.06884755 -0.13957457
-0.07758751 0.036988866 -0.086537376 0.05447957 -0.006360471 -0.14566717 -0.15047848 3.8678216e-05
0.084055245 -0.02521169 -0.06788621 -0.093588375 -0.013950113 0.04154041 0.0138189765 0.019664435
-0.0028064384 0.07083508 0.14492333 0.090262584 0.07731979 -0.05630908 -0.025881203 -0.014278567

critic.mlp.2.weight f4 [1, 40]
00000000: 58c0 2f3d 002a 713d b079 9ebd da01 d4bd
00000010: 50d5 fcbd 2790 af3d d194 5bbd 55ba 43be
00000020: 1c5e 7bbe 13ec fdbd 0a5d 443d 314f 393e
00000030: 389d c9bd 1a44 4cbd db0f cc3d 2c0c 46bd
00000040: 6b6d bfbd 1c68 27bc 6d2d d63d beab 113d
00000050: 2dff 26bd f795 50bc ce77 a63d d5bb 25bd
00000060: 4432 693d 34ed b33c e7b4 e13d 99e2 60bc
00000070: c989 eebd f487 0e3e 9bb6 b23d 0d4e 74bd
00000080: b547 01be 5dfb 2c3d 975f d93d 7732 4fbe
00000090: 74ea 083e 510e afbd 7ee0 55be 7371 8e3d
0.042908043 0.058877945 -0.07738054 -0.10351916 -0.12345374 0.08572417 -0.05360872 -0.19114049
-0.24547619 -0.12398543 0.04794029 0.18096615 -0.0984444 -0.049869634 0.09963962 -0.04835145
-0.09347042 -0.010217693 0.10457883 0.035564177 -0.0407707 -0.012731067 0.0812832 -0.040462334
0.056932703 0.021963693 0.110208325 -0.0137259 -0.11647374 0.1391905 0.087262355 -0.059644748
-0.1262501 0.042231906 0.106139354 -0.20234095 0.13370687 -0.085476525 -0.20886418 0.069552325
