evaluate_results/agent_logic_rf10_paper/checkpoints/step_230001.pth (torch, 13829 bytes, 4 tensors)

actor.im.W f4 [5, 50]
000000 ca 94 ac 3f d8 3e 07 3f 2f 16 ae 3e a4 3d 81 3e
       1.3482907 0.52830267 0.340013 0.2524234
000010 d7 0f f9 bf ee 17 7f 3f 87 64 e5 bd 85 6e 2a bf
       -1.9457959 0.9964589 -0.11200815 -0.6657489
000020 ce 51 b5 3f cc 7e c7 bf 68 7e 20 3e 7d 6a ce 3f
       1.416559 -1.558557 0.1567322 1.6126248
000030 f0 7e af 3f 18 88 f4 bd 12 61 c4 3f 80 09 b0 bf
       1.3710613 -0.1194002 1.5342124 -1.3752899
000040 f7 69 1f 3f 09 28 91 3d 22 74 b0 3f 58 d5 28 be
       0.62271065 0.07087714 1.3785441 -0.16487634
000050 fd f0 83 3f 9c 48 1c be cb bc 22 3f a5 d5 bf 3f
       1.0307919 -0.15262073 0.63569325 1.4987074
000060 50 55 9e 3f aa fb 8e 3e cd bc 83 bc c1 cb a9 bf
       1.2369785 0.2792638 -0.016081238 -1.3265306
000070 13 90 e5 3e ae 78 96 bf 88 30 09 bf 3e 8f fa bd
       0.44836482 -1.1755579 -0.5358968 -0.122343525
000080 27 b1 28 bf 14 c1 09 bf 23 20 77 be 61 c1 8d bf
       -0.65895313 -0.5381024 -0.24133353 -1.107464
000090 cf 46 39 3e 10 bd 99 3f d1 f7 83 3f 4c 63 07 3f
       0.18093418 1.2010822 1.0310003 0.5288589
0000a0 b3 eb 4f bf e6 f8 bc be 77 63 e4 3e a9 b1 6c bd
       -0.81219023 -0.36908644 0.44607136 -0.057786617
0000b0 c3 46 c7 bf f8 db 84 3f c2 20 9b 3e 37 b8 7c bf
       -1.556847 1.0379629 0.3029843 -0.9871859
0000c0 2d 8c fb be f6 54 a7 3f a8 31 07 c0 59 f0 a3 3f
       -0.49130383 1.3072803 -2.1124058 1.2807723
0000d0 ec bd 07 40 d1 32 40 bf bf 98 49 3f 96 a5 d2 bf
       2.120967 -0.7507754 0.787487 -1.6456783
0000e0 c6 3f 49 3f 53 cb a7 bf 72 23 ec 3f 85 59 10 3e
       0.78612936 -1.3108925 1.8448317 0.14096649
0000f0 ae 8c 8f 3d 85 0f 8f 3f ea 16 3a bc a7 59 20 bf
       0.070092544 1.1176611 -0.011358002 -0.626368
000100 84 39 a2 3d e3 eb 2d bf 46 a1 66 3c 27 60 8c 3d
       0.079211265 -0.6793806 0.0140765365 0.06854277
000110 b1 53 d2 3f ac fa 03 bf ad 93 93 3e 71 a7 ae bf
       1.643179 -0.5155437 0.28823605 -1.3644849
000120 dd 03 dc 3d 63 c0 99 3f cb 8c 31 be 19 89 8e be
       0.10742924 1.2011837 -0.17338865 -0.27838972
000130 e4 20 92 3f 0e 9f f6 3e 8e f6 06 bf 2b 2d b8 bf
       1.1416287 0.48168224 -0.5271996 -1.4388784
000140 52 c6 c6 bf 1d 03 8d 3e b5 be 6a bf 91 b1 31 bf
       -1.5529273 0.27541438 -0.91697246 -0.6941157
000150 ac e7 f3 3f 71 2b 65 3f 24 15 61 be e5 d4 b2 bf
       1.9055076 0.8951941 -0.21980721 -1.397122
000160 74 fe 8d be 0b 17 f1 3f 0f d1 94 3e e1 b1 3f 3e
       -0.27733195 1.8835157 0.2906575 0.18720199
000170 70 8e 8f be 63 86 3d 3e ac b1 cf 3e 46 48 c7 bc
       -0.2803836 0.18508296 0.4056524 -0.024326455
000180 8a 1d 95 3e f1 8a 51 bf 4b cd aa 3f 65 27 92 bf
       0.291241 -0.8185263 1.33439 -1.1418272
000190 84 99 7a 3c bc e9 86 be f0 a2 64 3f b3 c1 0f 3e
       0.01529539 -0.263502 0.8931112 0.14038734
0001a0 ab 3a b0 bd 27 1a c7 3f 92 8b 5a bf 05 4a 05 c0
       -0.0860494 1.5554856 -0.8536922 -2.0826428
0001b0 ee ff 22 bf 8f 55 e0 3f 91 13 54 40 99 1e 15 40
       -0.6367177 1.752611 3.3136942 2.3299925
0001c0 dd 15 e1 3f 6b 49 3c 3c b9 27 b7 3f 4e 7d cb 3e
       1.7584797 0.011492114 1.4308997 0.39744037
0001d0 87 f7 14 40 74 fb df be d1 84 83 bf a4 59 c6 3e
       2.3276079 -0.4374653 -1.0274907 0.38740265
0001e0 74 66 c1 bf 1f bb e1 3f 88 b0 0c 3f 9f 20 27 bf
       -1.5109391 1.763523 0.54956865 -0.6528415
0001f0 c1 6f a5 3f 30 e0 31 3f d9 c5 ef be 2a 11 cb 3d
       1.292473 0.6948271 -0.46830633 0.09915383
000200 a9 28 11 3f d7 e4 3c 3e d1 49 89 be d5 55 18 3f
       0.5670267 0.1844667 -0.2681413 0.5950597
000210 88 4f a1 be 77 76 88 bf 27 22 40 3f 4c 1e be 3e
       -0.3150599 -1.0661153 0.7505211 0.3713249
000220 e1 eb a0 be 66 f7 d6 3f 8b 40 a2 bf c7 e6 a7 3e
       -0.3142996 1.679425 -1.2675947 0.32793257
000230 dd ca e0 3f a8 47 38 3f 1c fe 0b 40 f0 08 74 3e
       1.7561909 0.7198434 2.1873846 0.23831534
000240 01 a1 38 3f db a2 94 3f 61 cf da 3f a2 56 98 3e
       0.7212067 1.16122 1.7094537 0.29753596
000250 45 d7 50 bf 63 95 7c be a7 d5 87 3f 1b 1f 7c bf
       -0.81578475 -0.24666362 1.0612077 -0.98484963
000260 5d 37 14 3f fd 64 34 3f 9f f1 8e 3d 09 0a 06 3f
       0.5789698 0.70466596 0.06979679 0.5235906
000270 97 84 07 bf e3 85 32 bf 6b af 68 3f a5 54 a5 bf
       -0.5293669 -0.69735545 0.90892667 -1.2916456
000280 37 fc 27 3f 6e 9a 08 3e ca 63 cc be 09 10 df 3e
       0.65619224 0.1334016 -0.39919883 0.4356692
000290 3d 9c 2f 3e fd 48 0b bf d7 c9 d1 3e cb 7c e9 3f
       0.17149444 -0.54408246 0.40974304 1.8241209
0002a0 e8 e1 15 3f 38 99 7d 3e da 27 f0 3f b6 c1 36 bf
       0.5854783 0.2476548 1.8762162 -0.7138933
0002b0 db e5 09 40 55 e3 8f 3f 5e 7c 0e c0 40 d1 09 c0
       2.1546543 1.1241251 -2.2263408 -2.1533966
0002c0 d9 93 f2 bc 36 af 8a bd ae 52 0c be 7a a1 b2 3e
       -0.029611515 -0.067717 -0.13703415 0.34888822
0002d0 5e 5c c9 3d fc 94 e9 bf ec bf 95 3f 4a ff a2 be
       0.09832071 -1.8248591 1.1699195 -0.31835395
0002e0 c1 90 7a be dd 45 1d 40 aa 65 c5 3f bf 5b a4 bc
       -0.24469282 2.457389 1.542165 -0.02006328
0002f0 12 cc 72 3f 47 e1 53 3e 3f 7d bb 3e 0a 03 c2 be
       0.94842637 0.20691405 0.36618993 -0.37892944
000300 a0 44 c4 3f d4 01 07 bf fc bb 22 3f 4e c6 0d bf
       1.5333443 -0.52737164 0.6356809 -0.55380714
000310 fa 38 83 bf 13 3f 79 3e 28 11 0e 3e c0 52 44 bf
       -1.0251763 0.24340467 0.13873732 -0.76688766
000320 45 8c 28 3f 57 1b 7f 3f 1b 71 7b bf 22 bf 42 bf
       0.65839034 0.9965109 -0.9821946 -0.76072896
000330 99 95 62 bf 4d 5a a5 3f 34 c7 21 bf 5b b4 ac bd
       -0.8850952 1.2918183 -0.63194585 -0.084328376
000340 86 19 02 be 75 34 af 3d 98 6f 0c 3f 32 38 74 bf
       -0.12705049 0.08554927 0.5485778 -0.9539825
000350 f0 03 55 bf 4d 77 8a bf d5 e5 0b bf 01 04 9a 3d
       -0.83209133 -1.0817658 -0.5464757 0.07520295
000360 5b df a7 be 39 a8 a9 bd c9 a6 7f bf 69 14 f6 3e
       -0.32787594 -0.08284039 -0.9986387 0.48062447
000370 e6 4f 08 40 e7 34 8c be 66 4a 3c 3e a8 06 11 3f
       2.1298766 -0.2738411 0.18387756 0.5665078
000380 a5 22 d8 be 27 93 fd bf 84 c0 05 bf 7f c5 5d 3f
       -0.42213932 -1.9810532 -0.5224688 0.8662948
000390 88 6b e1 be 47 ce a9 3f 5f bf d0 3f 2b a9 8e 40
       -0.44027352 1.3266076 1.6308402 4.4581504
0003a0 f2 47 0d 40 28 99 03 40 9f 64 89 3e 22 5e 39 40
       2.2075162 2.056223 0.2683458 2.8963704
0003b0 6a 83 f3 bf ae c0 11 c0 09 5f d2 3f 89 41 17 3e
       -1.9024479 -2.2773852 1.6435252 0.14771093
0003c0 dd c3 96 3f b9 b8 06 c0 85 17 7a 3f b8 e0 53 bf
       1.1778523 -2.1050246 0.9769214 -0.8276477
0003d0 30 fd f6 bf ca db a2 bf ea 71 e9 bf 5e 26 71 bf
       -1.9296017 -1.2723324 -1.8237889 -0.9419917
0003e0 48 96 46 3e f9 86 88 bc
       0.19393265 -0.016665922

critic.mlp.0.weight f4 [40, 60]
000000 b1 5f 7d ba 57 d5 8d 3d 2c bc df bd 5f b4 c8 bd
       -0.0009665443 0.06925457 -0.10924563 -0.09800028
000010 fb ea 57 bd 9e cc 0d 3d 50 d5 b5 bb 5a c7 d9 3d
       -0.05271433 0.034618966 -0.0055491105 0.106337264
000020 e0 a3 68 bc e3 c4 96 bc 01 eb c2 bd 57 e2 cf bc
       -0.014199227 -0.01840443 -0.0951748 -0.025376482
000030 0a 97 fc bd c2 1a af bd e1 fa 59 bd e1 b4 9c 3b
       -0.12333496 -0.085500255 -0.053217772 0.0047823046
000040 c1 0c 51 3d b7 a4 9e 3d a3 3e b3 bd db 44 66 bd
       0.051037554 0.077462606 -0.087521814 -0.05621801
000050 e9 10 40 3d 0c 8d db 3d 94 a6 d9 bc b3 d9 c5 3d
       0.046891127 0.10720262 -0.026568688 0.096606635
000060 f8 76 aa bc 77 d0 5f 3c 6b 67 ef 3d a3 45 f5 bd
       -0.020808682 0.013660542 0.11689647 -0.11976173
000070 75 72 a6 bd 20 df 05 bd 72 1f 4e bd 25 70 e4 3d
       -0.081273 -0.03268349 -0.050322957 0.11154202
000080 3a 60 ab bd f5 ab 7f bd bb dd 78 bd 59 bf fd bd
       -0.08367963 -0.06241985 -0.060758334 -0.12390012
000090 1c 2f a2 be 24 46 e3 3d d7 f4 6b 3d 34 25 80 3d
       -0.31676567 0.11097363 0.057606544 0.06257096
0000a0 cd 7a de 3b 22 8d 87 bd 6d 6c 9a 3c 33 3e 55 be
       0.0067895413 -0.06618716 0.01885053 -0.20824508
0000b0 3b 2b c5 bd cc 4d 88 bd 37 d1 a6 3d 52 05 9b 3d
       -0.09627386 -0.066554636 0.08145373 0.07569374
0000c0 2e 84 6a bd f3 a3 98 bb da 18 a9 3d da 67 f9 3d
       -0.057254963 -0.004658216 0.08256693 0.12178011
0000d0 3a 6a e9 3b 59 3b 32 3c 10 46 b1 3d 42 ad 9b bd
       0.007123259 0.010878407 0.086559415 -0.07601406
0000e0 ff 12 c5 3c c7 fc cc bd bc 3f b7 bd 1c 95 88 bd
       0.02405691 -0.10009151 -0.08947703 -0.06669065
0000f0 8a 43 6f 3d b0 a8 54 3d 6d ae b0 bd 9f 3f ef 3c
       0.05841402 0.051918685 -0.08627019 0.029205142
000100 e7 28 7a 3d 3c 7c 85 bc b6 7f 9f bb dd 47 a2 3c
       0.061074164 -0.016294591 -0.0048675193 0.019809658
000110 7d df 8e 3d e0 e6 eb 3d 9f 9d ff bd 38 c9 41 bd
       0.06976221 0.11518645 -0.12481236 -0.047311038
000120 fa d1 4f 3d 9b 10 db 3d 3c 14 e6 3d 93 4a e9 3d
       0.05073736 0.106965266 0.11234328 0.11391177
000130 6e 79 d2 3c f4 e9 e5 bd 4f 94 42 3c 47 68 a5 bd
       0.025692668 -0.11226264 0.01187618 -0.0807653
000140 96 67 f6 bd df e9 ea 3d 2c 09 c9 3d fc de 03 be
       -0.12031476 0.114703886 0.098162025 -0.1287803
000150 2e f3 c5 3c 0f 29 b2 bc 7a 09 ae bc d0 0e 72 bd
       0.024163809 -0.021748094 -0.021244753 -0.059096158
000160 97 59 4b 3d 3c 9a 9c bd ae d9 41 3d 00 b5 85 3d
       0.049645986 -0.07646605 0.047326736 0.06528664
000170 f9 45 bd 3d e8 96 1d 3d d0 39 0c be de 93 bf bd
       0.09241862 0.038473994 -0.13693929 -0.09354375
000180 f5 1a 3d 3d 7d 5a dd 3c 36 40 ce bd 82 3e 98 bd
       0.046168286 0.027020687 -0.10070841 -0.074337974
000190 e3 ba f8 3d 8f 27 b2 3d 57 59 87 bd 4e b6 36 bd
       0.12145021 0.086989515 -0.06608837 -0.044607453
0001a0 b4 f6 07 be b6 12 18 bb 03 1b c7 bd 80 f1 cb bd
       -0.13277704 -0.0023204512 -0.09721949 -0.09958172
0001b0 ed 16 e9 bb 72 ca 9e 3c 5a 8e 58 bd 19 19 92 3d
       -0.0071133287 0.019383643 -0.052870132 0.07133693
0001c0 8c 1a aa bd ce 1d e5 3d b8 30 b5 3d d9 f5 de bd
       -0.08305845 0.111873254 0.08847183 -0.108867355
0001d0 9d 9b 03 bd 34 e2 be 3b 6e 4d 9a 3c d6 d4 fa 3c
       -0.032130826 0.0058253054 0.01883575 0.030619066
0001e0 3e 83 4f 3d c2 65 fd 3b 00 f8 47 bd 5f 21 9a 3d
       0.05066227 0.0077330777 -0.048820496 0.07525896
0001f0 83 99 e0 bd 86 b5 9c bd cc a8 94 bc 39 72 ac bb
       -0.1096678 -0.0765181 -0.018146895 -0.00526264
000200 e9 be 0d bd 21 99 e6 3b 01 e6 79 bc ab 10 e2 3c
       -0.034605894 0.0070372974 -0.015252591 0.027595839
000210 a6 3e ac bd 0d 19 d9 bb 92 44 bd 3d 84 70 59 bc
       -0.08410387 -0.0066253007 0.092415944 -0.013271455
000220 f9 23 6b 3b 16 79 36 bc f7 08 d6 3c fa 1c a8 3d
       0.0035879596 -0.011137268 0.026127322 0.08208652
000230 a2 72 fa 3d f1 e7 a7 3d 54 05 fb 3d e5 f8 18 bc
       0.12228896 0.08198536 0.12256876 -0.009336685
000240 27 83 ed bd 1c b0 7a bd 44 07 b4 3d 64 62 5b ba
       -0.11597281 -0.061203107 0.08790448 -0.00083688484
000250 ba 6a 83 bd 09 9c ca bd 6b 6f f7 bd f1 26 df bd
       -0.06416841 -0.098930426 -0.12081798 -0.10896099
000260 42 84 d6 bc 95 04 ae 3d 68 51 c8 3d 5e f8 e1 bd
       -0.026186112 0.08496968 0.09781152 -0.110337004
000270 f0 54 98 3d 61 e4 ce bd 77 95 df bc 11 69 56 bd
       0.074380755 -0.101021536 -0.02729295 -0.052346293
000280 e2 b4 cb bc 0d a6 cf bc db 3b d0 bd 30 f2 06 be
       -0.024866525 -0.025347734 -0.101676665 -0.13178325
000290 34 9d c5 bb 61 d4 da 3a 74 37 70 bd fd 31 47 3d
       -0.006030703 0.0016695374 -0.058646634 0.048631657
0002a0 b6 f8 ed bd 26 bf 0e bc c2 83 e8 3d bf ee 58 bd
       -0.116197035 -0.0087125655 0.11353256 -0.05296206
0002b0 e6 7d 2f 3e 8b 42 3e 3d 54 9b ee bd 4d 48 a7 3d
       0.1713787 0.04645018 -0.1165072 0.08168087
0002c0 11 14 74 bc 5a 0e 6c bd c4 6c d3 3d 29 a8 d5 bd
       -0.014897362 -0.057630874 0.1032348 -0.10432465
0002d0 b9 f7 62 3c ba 6c dd bc f9 07 55 3d 90 ce 87 bb
       0.013853007 -0.027029384 0.052009556 -0.004144497
0002e0 dc 00 b3 3c 55 bf 3a 3d 82 df 91 bd 1d 70 40 bd
       0.021850996 0.045592625 -0.07122709 -0.04698192
0002f0 d1 92 ec bd d8 3c 1e 3e b8 9c c1 3d f5 e7 b4 3d
       -0.115514405 0.15452898 0.0945372 0.08833305
000300 bc 7f ba bd 1b ac bc 3b ab 61 ba bd ae 8b 91 bd
       -0.09106395 0.0057578213 -0.0910066 -0.0710672
000310 97 10 9a bd 39 b6 34 3d 8e 8e 9d bd 87 96 38 bb
       -0.075226955 0.044119094 -0.07693206 -0.0028165893
000320 4a f6 b1 3b 7f 6f aa 3d ab dc c7 bd c7 82 b5 bd
       0.0054309713 0.083220474 -0.09758886 -0.088628344
000330 3e 86 99 bd 32 0f b9 3d fc 14 3e bd c7 03 df 3d
       -0.07496308 0.090361014 -0.04640673 0.10889392
000340 06 37 3f 3d e0 ea 85 3c eb ec 7b ba 88 10 d1 bc
       0.046683334 0.016347349 -0.00096101937 -0.025520578
000350 e7 b0 84 3c 75 aa 8e bd bd 10 f5 3b 08 3b c2 bc
       0.016197635 -0.06966106 0.007478802 -0.023709789
000360 dd c0 9b bd fd 93 8a bd 61 7f d5 3d c6 91 d6 bd
       -0.07605145 -0.06766508 0.10424686 -0.10477023
000370 c8 e1 17 bc 74 c6 02 3e 64 78 d3 3b fc c0 80 3d
       -0.009270139 0.12771016 0.0064535607 0.06286809
000380 da b5 1b be cc f9 82 3d ee 52 bc bd de 1a 16 bd
       -0.1520609 0.06395301 -0.09195505 -0.036646716
000390 0a 6b 31 bd 59 9d 9c bc 1c 17 b9 3a 9a f9 25 3e
       -0.04331497 -0.019117998 0.0014121267 0.16208497
0003a0 97 d1 1d 3a 93 58 2f 3e ef bb a1 3d 95 27 a7 bd
       0.0006020306 0.17123632 0.078971736 -0.081618465
0003b0 42 2a 6d 3d 77 e6 ba bd 74 1d 60 bd 8f 87 1b 3d
       0.05790163 -0.09125989 -0.05471559 0.037971076
0003c0 4b 9a 2e 3d 67 5b c6 3d 30 11 d7 bc 6a 28 7e 3c
       0.042627614 0.09685402 -0.026253313 0.015512565
0003d0 a8 76 a7 3d ea b1 ff bd b5 7f de 3d 2d a6 d5 bd
       0.08176929 -0.12485106 0.10864202 -0.10432086
0003e0 cc a9 ff 3c 30 f2 c1 bc 10 5c 8a 3c 24 c8 8b 3c
       0.031208895 -0.023675054 0.016889602 0.017063208
0003f0 3c a2 da 3d 77 93 1a bd 5b f8 9c bd 4c 91 43 bd
       0.10675475 -0.03773829 -0.076645575 -0.047745988

critic.mlp.0.bias f4 [40]
000000 d4 5c f9 3d 9b ad 17 bc 01 fe 81 bd e5 b4 0b 3d
       0.12175909 -0.009257699 -0.063472755 0.03410806
000010 a6 d0 3d bc 29 8a f5 bb f9 76 5b bd e0 68 01 be
       -0.01158539 -0.0074932766 -0.053580258 -0.12637663
000020 d6 33 d3 bd 52 40 f3 3a ba 33 91 bd e7 23 9d 3d
       -0.10312621 0.0018558598 -0.07089944 0.076728635
000030 8e 33 9b 3c 0c 08 70 bd 98 2a 85 3d 4c ad 05 be
       0.018945482 -0.058601424 0.06502265 -0.13054389
000040 7c bf 91 bd 8f a4 04 3d 45 11 c2 bd f8 25 5f 3d
       -0.07116601 0.032383498 -0.0947595 0.05447957
000050 26 c9 08 bc 80 cd 16 be 08 17 1a be 86 8d f8 3b
       -0.008348739 -0.1472683 -0.15047848 0.0075852303
000060 1d 39 a0 3d d7 c1 02 bd ab 8a 8e bd d6 84 af bd
       0.078233935 -0.03192314 -0.069600426 -0.08570258
000070 77 80 20 bc e0 ff 36 3d cc 68 62 3c d9 f5 c1 3c
       -0.009796253 0.044677615 0.013818931 0.0236768
000080 ae 01 21 3a df 54 96 3d 00 6c 10 3e c1 f0 b0 3d
       0.0006141913 0.073404066 0.14103699 0.0863967
000090 d3 27 99 3d 57 9f 61 bd be 91 17 bd a7 f0 69 bc
       0.07478299 -0.0550836 -0.037004225 -0.014278567

critic.mlp.2.weight f4 [1, 40]
000000 71 67 2b 3d 00 2a 71 3d b6 d5 91 bd 4a 31 d3 bd
       0.041846696 0.058877945 -0.0712084 -0.103121355
000010 0c f5 00 be df 25 ab 3d 13 df 68 bd ab e9 42 be
       -0.12593478 0.08356833 -0.056853365 -0.1903445
000020 41 dc 7e be ea c0 fd bd 30 f9 4a 3d e6 e3 3d 3e
       -0.24888708 -0.12390311 0.04955405 0.18543968
000030 fe 83 e6 bd 1a 44 4c bd 11 b1 c8 3d 54 8a 51 bd
       -0.11255644 -0.049869634 0.09799398 -0.05115731
000040 07 4d 9a bd 71 8e fd bb 0e 05 cf 3d be ab 11 3d
       -0.07534223 -0.0077379276 0.10108386 0.035564177
000050 b0 61 29 bd 40 54 0f bc ce 77 a6 3d 87 5d 14 bd
       -0.041352928 -0.008748114 0.0812832 -0.036222007
000060 a0 49 71 3d 7a c0 ad 3c ff 54 f4 3d 89 c6 49 bc
       0.058908105 0.021209944 0.11930274 -0.012315401
000070 d9 b2 e8 bd 95 00 11 3e 9b b6 b2 3d 8a 41 84 bd
       -0.113622375 0.14160378 0.087262355 -0.06457813
000080 55 03 fd bd aa 89 2f 3d 4d 09 d4 3d 13 cd 4a be
       -0.12354151 0.042855896 0.103533365 -0.19804792
000090 b8 3c 08 3e 7b 0e b3 bd 49 a1 64 be 73 71 8e 3d
       0.13304412 -0.08742996 -0.2232715 0.069552325
