evaluate_results/agent_logic_rf10_paper/checkpoints/step_440001.pth (torch, 13829 bytes, 4 tensors)

actor.im.W f4 [5, 50]
00000000: 45a0 b93f b255 213f f5fd e33e e829 823e
00000010: 4f3b eabf ad60 8e3f fdb2 e1bd c638 18bf
00000020: f644 c23f de14 c2bf 2e12 893e dcca db3f
00000030: 4edf bc3f 5c0b 7bbc 0812 d33f c641 8abf
00000040: 8d3a 423f c1d5 533e cc3c d63f 3add 0f3e
00000050: 82af 923f 0238 78be 1f2a 413f d39c b43f
00000060: 0159 b03f 4cf2 893e 5f54 d4bc 35c8 97bf
00000070: e61e 073f 7684 9fbf aa73 21bf 99bd 88bc
00000080: 32a5 0dbf 282b 23bf 75cf 04be b214 80bf
00000090: 7271 5e3e 9362 9e3f b9a4 913f bba1 103f
000000a0: c98e 37bf c5bf 06bf 66dc 933e 2b4e 523e
000000b0: 250e d2bf 4a28 743f acb2 853e a3e3 7cbf
000000c0: 55e3 fbbe 4926 b23f 6707 1bc0 b083 783f
000000d0: 1454 0340 ed52 55bf 4e74 803f 20fe b6bf
000000e0: 571f 343f 41f1 a5bf 5ba5 f13f 928f 873e
000000f0: 2ef8 313e d72a 9b3f 0472 aa3d 1b08 07bf
00000100: 76e7 433e 0f43 f3be 3db9 fe3d b422 373e
00000110: fa78 ec3f 3d41 9fbe 27e2 bb3e 5f71 aebf
00000120: 0a7f 4e3e 56e1 993f ed2a 1bbd 1fad a4be
00000130: f397 8c3f 4c00 1e3f d781 0fbf 6c30 b4bf
00000140: 5cec f2bf 81ff c03e b1c0 50bf 8492 85bf
00000150: 9b5c 0140 64a0 763f 0355 70be f4bc b4bf
00000160: 2229 56be 6985 ef3f da37 b73e db51 cd3d
00000170: cc12 bcbe face a13d 1051 c13e bda8 56bd
00000180: 9905 963e b8a7 50bf de3e ab3f cfb4 90bf
00000190: 02c8 4dbe e9a1 f5be 33c4 2d3f f931 47bb
000001a0: 7f15 ecbd 705c c33f f542 7fbf 2903 09c0
000001b0: c7ff 50bf 62e6 ce3f 48f4 5540 6dce 4540
000001c0: b13a 2140 b48d 113d 4255 9c3f 5d54 83be
000001d0: 0dcd 2140 959f 72be cd36 d7bf f657 e23e
000001e0: fb96 dcbf 23dc cd3f e7de ab3e 22b9 4ebf
000001f0: 4a2a 963f 2192 f73e 2ef9 2dbf b414 a5bc
00000200: e3cf e33e f3d0 853d d864 f8be 71a3 c23e
00000210: 36ab 07bf 849d a4bf 3c01 0b3f f600 223e
00000220: 64d0 03bf cf49 bd3f db86 bdbf 189a 023e
00000230: c197 0940 c4f7 7f3f 2dea 1d40 3fbc 87be
00000240: bc2f 263f 2c6a 8b3f a516 c83f 2fa2 b5be
00000250: ffe8 bbbf b02c 67bf e77c 953f 91d0 60bf
00000260: efbe 2f3f df7c 443f 117a 463e 69ca 253f
00000270: 59d9 eebe f913 1abf fe28 823f 39fc 9cbf
00000280: ea7b 453f bbf5 7b3e 5eb6 92be d067 0c3f
00000290: d108 933e 7b9d dabe 7be4 053f 6ffc f73f
000002a0: 4adc 333f 6595 b93e 93c7 0240 b1f3 93bf
000002b0: b897 0e40 57c3 833f b987 09c0 c239 10c0
000002c0: 66dd 04be 084b 1f3c 35a3 79be 35d8 94bd
000002d0: 4760 683d d871 dcbf 3de3 a23f 0a4f b9be
000002e0: 5523 0fbe 841b 1140 ff65 c53f e541 a4bc
000002f0: 0b23 423f dc01 61bb 22e9 f03e 3a5a cdbe
00000300: b66e c13f 7ada 0cbf 7884 3a3f d6fb ebbe
00000310: 193d 6ebf 3401 6d3e 60d3 013e 4797 46bf
00000320: 7f89 0bbe 85a9 4e3e 9a69 e3bf 3904 bdbf
00000330: 4e41 96bf 4561 803f cf89 acbf f8cf babe
00000340: f493 5abf 0cf6 1ebf e0d9 7bbe 81ef dfbf
00000350: ad57 d0bf dd91 f0bf aaa3 aabf 2beb 30bf
00000360: d1c6 87bf 38d7 50bf 14dc e1bf e3ef 6bbe
00000370: 1942 d33f 0e14 31bf c085 10bf 83c1 1b3e
00000380: 3ca0 4bbf a799 25c0 d699 90bf b164 fc3e
00000390: a096 49bf f969 823f bd8d ff3f d860 b740
000003a0: 49b3 5e40 e601 1440 c54b 09bf 1631 4040
000003b0: 1040 2ac0 8635 42c0 e104 e03f b5ce 2d3e
000003c0: 9def cf3e 910a 39c0 5b5e 413e 48c1 ccbf
000003d0: 7616 2ec0 8912 04c0 5f42 1fc0 bcdf d8bf
000003e0: 4e0c 0fbf f410 2fbf
1.4502035 0.63021386 0.4452969 0.25422597 -1.829935 1.1123253 -0.110204674 -0.5946163
1.5177295 -1.5162618 0.26771683 1.7171283 1.4755647 -0.0153225325 1.6489878 -1.0801322
0.7587059 0.2068701 1.6737304 0.14049235 1.1459811 -0.24240115 0.75454897 1.4110359
1.3777162 0.2694267 -0.025919138 -1.1857973 0.5278152 -1.2462299 -0.63067114 -0.01669197
-0.55330193 -0.63737726 -0.12969764 -1.0006316 0.21722963 1.2373832 1.1378394 0.5649678
-0.7170225 -0.5263637 0.28879088 0.20537631 -1.6410567 0.95373976 0.26112878 -0.98784846
-0.49196878 1.3917934 -2.4223268 0.9707594 2.0520067 -0.8332966 1.0035493 -1.4296303
0.7036032 -1.296425 1.8878587 0.26476723 0.1737983 1.2122449 0.08322528 -0.5274674
0.19131264 -0.475121 0.12437675 0.17884332 1.8474419 -0.3110446 0.36695978 -1.3628348
0.20165649 1.2021892 -0.037882734 -0.3216333 1.0983871 0.61719203 -0.56057495 -1.4077277
-1.8978381 0.37694934 -0.81544024 -1.0435338 2.0212772 0.96338487 -0.2346993 -1.4120164
-0.20914128 1.8712589 0.357848 0.10025378 -0.3673309 0.07900806 0.37757158 -0.052407015
0.29301146 -0.8150592 1.337856 -1.1305178 -0.20095828 -0.4797509 0.678775 -0.0030394776
-0.115275376 1.5262585 -0.99711543 -2.1408179 -0.81640285 1.6164057 3.3430347 3.0907242
2.5192072 0.03553553 1.2213519 -0.25650302 2.5281403 -0.23693688 -1.6813599 0.44207734
-1.7233576 1.6082805 0.33568498 -0.8075124 1.1731656 0.48353675 -0.67958343 -0.020151474
0.44494542 0.065339945 -0.48514438 0.3801532 -0.5299562 -1.286057 0.5429876 0.15820679
-0.51489854 1.478815 -1.480678 0.12754095 2.1498873 0.99987435 2.467418 -0.26510808
0.64916587 1.0891776 1.563191 -0.354753 -1.468048 -0.9030256 1.1678742 -0.8781825
0.68650717 0.7675304 0.19382502 0.6476198 -0.46650198 -0.60186726 1.016876 -1.2264472
0.771422 0.24605457 -0.2865476 0.54845905 0.28717664 -0.42698273 0.5230176 1.9373912
0.7025801 0.3624679 2.043431 -1.1558744 2.2280102 1.0293988 -2.1489089 -2.2535253
-0.12975082 0.009722479 -0.24378665 -0.07267801 0.056732442 -1.7222242 1.2725598 -0.36193115
-0.13978322 2.2673044 1.5421752 -0.020050952 0.7583472 -0.0034333384 0.47052866 -0.401079
1.5111911 -0.5502087 0.7285838 -0.46090573 -0.9306198 0.2314499 0.1267829 -0.7757458
-0.1362667 0.20181854 -1.7766602 -1.4766914 -1.173868 1.0029684 -1.3479556 -0.36486793
-0.8538201 -0.6209419 -0.24594831 -1.7494966 -1.6276757 -1.8794514 -1.3331196 -0.6910884
-1.0607549 -0.815784 -1.7645288 -0.23040728 1.6504546 -0.69171226 -0.56454086 0.15210538
-0.79541373 -2.5875032 -1.1296947 0.4929557 -0.7874546 1.018859 1.996513 5.7305717
3.4796927 2.3126159 -0.5363124 3.002996 -2.66016 -3.0345168 1.7501489 0.16973384
0.40612498 -2.89127 0.1888365 -1.5996485 -2.720121 -2.0636313 -2.488426 -1.6943278
-0.5587815 -0.68385243

critic.mlp.0.weight f4 [40, 60]
00000000: b15f 7dba 57d5 8d3d b6af 96bd e74f 7fbd
00000010: 98a3 8bbc 9ecc 0d3d b0bc f63c 5153 073e
00000020: ff24 913c 1243 a8bd a7eb a33d 57e2 cfbc
00000030: 0a97 fcbd c21a afbd e1fa 59bd e1b4 9c3b
00000040: c10c 513d b7a4 9e3d a33e b3bd db44 66bd
00000050: e910 403d 0c8d db3d 94a6 d9bc b3d9 c53d
00000060: f876 aabc 77d0 5f3c 6b67 ef3d a345 f5bd
00000070: 7572 a6bd 20df 05bd 721f 4ebd 2570 e43d
00000080: 3a60 abbd 8c25 dbbc fb9b f93b e0b2 b4bd
00000090: 3d24 2ebe 2446 e33d d7f4 6b3d 3425 803d
000000a0: cd7a de3b 228d 87bd 634f 5f3d 5226 6cbe
000000b0: 8c3d 78bd cc4d 88bd 37d1 a63d 5205 9b3d
000000c0: 2e84 6abd f3a3 98bb da18 a93d 91a0 4d3e
000000d0: e048 03bc a820 b83d 1046 b13d 42ad 9bbd
000000e0: ff12 c53c c7fc ccbd bc3f b7bd 1c95 88bd
000000f0: 8a43 6f3d b0a8 543d 6dae b0bd 9f3f ef3c
00000100: e728 7a3d 3c7c 85bc b67f 9fbb dd47 a23c
00000110: 7ddf 8e3d e0e6 eb3d 9f9d ffbd 38c9 41bd
00000120: fad1 4f3d 9b10 db3d 3c14 e63d 934a e93d
00000130: 6e79 d23c f4e9 e5bd 4f94 423c 4768 a5bd
00000140: 9667 f6bd dfe9 ea3d 2c09 c93d fcde 03be
00000150: 2ef3 c53c 0f29 b2bc 7a09 aebc d00e 72bd
00000160: 9759 4b3d 3c9a 9cbd aed9 413d 00b5 853d
00000170: f945 bd3d e896 1d3d d039 0cbe de93 bfbd
00000180: f51a 3d3d 7d5a dd3c 3640 cebd 823e 98bd
00000190: e3ba f83d 8f27 b23d 5759 87bd 4eb6 36bd
000001a0: b4f6 07be b612 18bb 031b c7bd 80f1 cbbd
000001b0: ed16 e9bb 72ca 9e3c 5a8e 58bd 1919 923d
000001c0: 8c1a aabd ce1d e53d b830 b53d d9f5 debd
000001d0: 9d9b 03bd 34e2 be3b 6e4d 9a3c d6d4 fa3c
000001e0: 3e83 4f3d c265 fd3b bcf6 97bd 754d 4c3d
000001f0: 164a 0abe 86b5 9cbd e049 32bd e176 ceba
00000200: e1fd 3bbd d247 03bc 34f3 093e ab10 e23c
00000210: a63e acbd 0d19 d9bb 9244 bd3d 8470 59bc
00000220: f923 6b3b 1679 36bc f708 d63c fa1c a83d
00000230: a272 fa3d f1e7 a73d 5405 fb3d e5f8 18bc
00000240: 2783 edbd 1cb0 7abd 4407 b43d 6462 5bba
00000250: ba6a 83bd 099c cabd 6b6f f7bd f126 dfbd
00000260: 4284 d6bc de13 743d 3282 5c3d 88f9 0abe
00000270: dc2d f83d 61e4 cebd 7795 dfbc 1169 56bd
00000280: e2b4 cbbc 0da6 cfbc 401b 02be 0b28 24be
00000290: 30a9 00bd 61d4 da3a 7437 70bd fd31 473d
000002a0: b6f8 edbd 26bf 0ebc c283 e83d 7207 a9bd
000002b0: 21a2 4b3e e644 8a3c 549b eebd 4d48 a73d
000002c0: 1114 74bc 5a0e 6cbd c46c d33d 29a8 d5bd
000002d0: b9f7 623c ba6c ddbc d28d 223d e7e7 86bc
000002e0: 2f19 1c3c 55bf 3a3d 901c abbd 0241 90bd
000002f0: 9282 c5bd 025c 363e ce88 be3d f5e7 b43d
00000300: bc7f babd 1bac bc3b ab61 babd ae8b 91bd
00000310: 9710 9abd 39b6 343d 8e8e 9dbd 8796 38bb
00000320: 4af6 b13b 7f6f aa3d abdc c7bd c782 b5bd
00000330: 3e86 99bd 320f b93d fc14 3ebd c703 df3d
00000340: 0637 3f3d e0ea 853c ebec 7bba 8810 d1bc
00000350: e7b0 843c 80e7 a7bd 1476 c43c a397 13bd
00000360: 3c37 7bbd fd93 8abd 617f d53d c691 d6bd
00000370: c8e1 17bc 74c6 023e 9b58 c0bb 7ed6 8f3d
00000380: 7554 28be ccf9 823d ee52 bcbd de1a 16bd
00000390: 0a6b 31bd 599d 9cbc 1c17 b93a 3696 163e
000003a0: ce66 f0bc 34f5 1f3e efbb a13d 9527 a7bd
000003b0: 422a 6d3d 77e6 babd 741d 60bd 8f87 1b3d
000003c0: 4b9a 2e3d 675b c63d c3ef 29bd c37b 9139
000003d0: f842 883d eab1 ffbd 074c bf3d 5caf febd
000003e0: 5cd2 2a3d da2c 7bbb d420 653d 24c8 8b3c
000003f0: 3ca2 da3d 7793 1abd 5bf8 9cbd 4c91 43bd
-0.0009665443 0.06925457 -0.07357733 -0.06233206 -0.017045781 0.034618966 0.03011927 0.13215376
0.017717836 -0.08215918 0.080039315 -0.025376482 -0.12333496 -0.085500255 -0.053217772 0.0047823046
0.051037554 0.077462606 -0.087521814 -0.05621801 0.046891127 0.10720262 -0.026568688 0.096606635
-0.020808682 0.013660542 0.11689647 -0.11976173 -0.081273 -0.03268349 -0.050322957 0.11154202
-0.08367963 -0.026751302 0.0076174713 -0.0882318 -0.17006011 0.11097363 0.057606544 0.06257096
0.0067895413 -0.06618716 0.05451907 -0.23061493 -0.06060557 -0.066554636 0.08145373 0.07569374
-0.057254963 -0.004658216 0.08256693 0.20080782 -0.00801298 0.08990604 0.086559415 -0.07601406
0.02405691 -0.10009151 -0.08947703 -0.06669065 0.05841402 0.051918685 -0.08627019 0.029205142
0.061074164 -0.016294591 -0.0048675193 0.019809658 0.06976221 0.11518645 -0.12481236 -0.047311038
0.05073736 0.106965266 0.11234328 0.11391177 0.025692668 -0.11226264 0.01187618 -0.0807653
-0.12031476 0.114703886 0.098162025 -0.1287803 0.024163809 -0.021748094 -0.021244753 -0.059096158
0.049645986 -0.07646605 0.047326736 0.06528664 0.09241862 0.038473994 -0.13693929 -0.09354375
0.046168286 0.027020687 -0.10070841 -0.074337974 0.12145021 0.086989515 -0.06608837 -0.044607453
-0.13277704 -0.0023204512 -0.09721949 -0.09958172 -0.0071133287 0.019383643 -0.052870132 0.07133693
-0.08305845 0.111873254 0.08847183 -0.108867355 -0.032130826 0.0058253054 0.01883575 0.030619066
0.05066227 0.0077330777 -0.07420108 0.049878556 -0.13504824 -0.0765181 -0.043527484 -0.0015751981
-0.045896415 -0.008012729 0.13471681 0.027595839 -0.08410387 -0.0066253007 0.092415944 -0.013271455
0.0035879596 -0.011137268 0.026127322 0.08208652 0.12228896 0.08198536 0.12256876 -0.009336685
-0.11597281 -0.061203107 0.08790448 -0.00083688484 -0.06416841 -0.098930426 -0.12081798 -0.10896099
-0.026186112 0.05958926 0.0538351 -0.13571751 0.12118122 -0.101021536 -0.02729295 -0.052346293
-0.024866525 -0.025347734 -0.12705708 -0.160309 -0.03141135 0.0016695374 -0.058646634 0.048631657
-0.116197035 -0.0087125655 0.11353256 -0.08253373 0.19886066 0.016878556 -0.1165072 0.08168087
-0.014897362 -0.057630874 0.1032348 -0.10432465 0.013853007 -0.027029384 0.03968603 -0.016468002
0.009527489 0.045592625 -0.08355057 -0.07043649 -0.09644045 0.17808536 0.09303437 0.08833305
-0.09106395 0.0057578213 -0.0910066 -0.0710672 -0.075226955 0.044119094 -0.07693206 -0.0028165893
0.0054309713 0.083220474 -0.09758886 -0.088628344 -0.07496308 0.090361014 -0.04640673 0.10889392
0.046683334 0.016347349 -0.00096101937 -0.025520578 0.016197635 -0.08198452 0.023982085 -0.036033284
-0.061331972 -0.06766508 0.10424686 -0.10477023 -0.009270139 0.12771016 -0.0058699376 0.07023333
-0.16438468 0.06395301 -0.09195505 -0.036646716 -0.04331497 -0.019117998 0.0014121267 0.14705738
-0.029345896 0.15620881 0.078971736 -0.081618465 0.05790163 -0.09125989 -0.05471559 0.037971076
0.042627614 0.09685402 -0.04148842 0.00027748765 0.06653398 -0.12485106 0.09340673 -0.12435791
0.04170452 -0.0038326294 0.05593951 0.017063208 0.10675475 -0.03773829 -0.076645575 -0.047745988

critic.mlp.0.bias f4 [40]
00000000: c734 213e 9bad 17bc abf8 b5bd 8d75 b23c
00000010: 96b6 dbbc 7ff8 89bc c2de 6dbd 7080 0abe
00000020: 9aeb f0bd 4256 2a3b cb55 96bd f935 b53d
00000030: 0f08 da3c 0c08 70bd 848c 9a3d fc4d 1fbe
00000040: a8d9 b4bd f3b4 38bc 2f0c 93bd 71fe 5d3d
00000050: d98b d9bc dbe0 4bbe 0817 1abe 4535 1cbb
00000060: 9b94 bf3d 3940 6bbd d794 55bd a752 d9bd
00000070: 8d46 85bc c9c4 293d dc9a 5b3c a400 a93c
00000080: 7fbc 8bbc 550c d23d 74b2 1b3e ad6f a53d
00000090: 922c 8a3d ca57 94bd dcd5 40bd a7f0 69bc
0.15742789 -0.009257699 -0.0888532 0.021784568 -0.026820462 -0.016842125 -0.058073767 -0.13525558
-0.117636874 0.0025991355 -0.073405825 0.08848185 0.02661517 -0.058601424 0.075463325 -0.15557092
-0.08830577 -0.01127361 -0.07180058 0.054197732 -0.026555942 -0.19909994 -0.15047848 -0.0023835462
0.09354516 -0.057434294 -0.052143898 -0.10611468 -0.016268993 0.041447435 0.013403621 0.020630188
-0.017057655 0.102562584 0.15204793 0.08077941 0.06746782 -0.07243307 -0.047078952 -0.014278567

critic.mlp.2.weight f4 [1, 40]
00000000: 2144 873d 002a 713d fe41 d6bd bc56 8ebd
00000010: 332f e0bd 125d 123d c772 34bd 7024 6dbe
00000020: 8f58 7bbe 9879 0bbe 1c89 9c3d ee39 403e
00000030: f703 1dbe 1a44 4cbd bef6 b13d 9135 46bd
00000040: 0848 71bd 594e f33b 7795 a23d cb9b 113d
00000050: 6907 00bd be05 a6bb ce77 a63d cfd7 f0bc
00000060: 3469 4f3d 151c dc3b dde5 083e ffb7 2ebc
00000070: 397c bdbd 0afc 0f3e 62b4 b23d e5be 79bd
00000080: 14f3 bcbd 856a 743d 3dac aa3d e478 70be
00000090: 945b f23d 1496 a9bd 626b 8cbe 7371 8e3d
0.066047914 0.058877945 -0.10461806 -0.06950137 -0.109465025 0.03573329 -0.044054773 -0.23158431
-0.24545501 -0.13620603 0.07643339 0.18772098 -0.15333544 -0.049869634 0.086896405 -0.04839093
-0.058906585 0.0074251113 0.079386644 0.035548966 -0.031257067 -0.0050666025 0.0812832 -0.02939978
0.05063744 0.006717215 0.13368936 -0.010663985 -0.09252209 0.14060989 0.087258115 -0.060973067
-0.09226051 0.059671897 0.08333633 -0.23483616 0.118338734 -0.08280578 -0.27425677 0.069552325
