evaluate_results/agent_logic_rf10_paper/checkpoints/step_536001.pth (torch, 13829 bytes, 4 tensors)

actor.im.W f4 [5, 50]
0	0x3fbb2590	1.4620838
1	0x3f246030	0.6420927
2	0x3eebcf0d	0.46056405
3	0x3e25e869	0.16201939
4	0xbfd4a0bf	-1.6611556
5	0x3fa3fbcf	1.2811221
6	0xbe4f44b3	-0.2024105
7	0xbf0725d7	-0.52792114
8	0x3fc182c6	1.5118034
9	0xbfcc2146	-1.5947654
10	0x3e9107e8	0.28326344
11	0x3fdd5b7b	1.7293543
12	0x3fbe6fef	1.487791
13	0xbafc98bc	-0.0019271593
14	0x3fd54f3f	1.6664809
15	0xbf66cb5b	-0.90154046
16	0x3f44eb99	0.76921993
17	0x3e5e99d1	0.21738364
18	0x3fed1973	1.8523391
19	0x3e9e9c19	0.30978468
20	0x3f88fe4f	1.0702609
21	0xbe9be279	-0.30446222
22	0x3f41d020	0.757082
23	0x3facb3ec	1.3492408
24	0x3fc4c38a	1.5372174
25	0x3e636d73	0.2220972
26	0xbd960328	-0.07324821
27	0xbf835dc9	-1.0262996
28	0x3f20e062	0.6284238
29	0xbfa2db6a	-1.272321
30	0xbf2bb4c8	-0.67072725
31	0xbb58f910	-0.0033107437
32	0xbf0a3846	-0.53992116
33	0xbf2dc5b8	-0.6787982
34	0xbde79cc7	-0.113092
35	0xbf7bf4cd	-0.9842041
36	0x3e829dcc	0.25511014
37	0x3fa33bc2	1.2752612
38	0x3f93befd	1.154266
39	0x3f1a75a4	0.60335755
40	0xbf353c77	-0.7079539
41	0xbf0eb725	-0.55748206
42	0x3e83ed6d	0.2576708
43	0x3e294022	0.16528371
44	0xbfd24414	-1.6427026
45	0x3f73bc33	0.95209044
46	0x3e89b783	0.2689782
47	0xbf53e89c	-0.8277681
48	0xbea9ecd9	-0.33188513
49	0x3fb4a706	1.4113472
50	0xc02a6f52	-2.6630445
51	0x3f3adf14	0.7299664
52	0x4001537a	2.02072
53	0xbf7d2b29	-0.9889398
54	0x3f9a1e0e	1.2040422
55	0xbf9d54e4	-1.2291532
56	0x3f0c46e8	0.54795694
57	0xbfad13cc	-1.3521667
58	0x3fefdad5	1.8738657
59	0x3e7846e6	0.24245796
60	0x3e1a9384	0.15095335
61	0x3f975341	1.1822282
62	0x3d59f081	0.053207878
63	0xbf0d5db1	-0.55221087
64	0x3e30c854	0.17263919
65	0xbea706c4	-0.3262235
66	0x3dd1c4b4	0.10242596
67	0x3e20a86a	0.15689245
68	0x3fff8828	1.9963427
69	0xbe26d878	-0.16293514
70	0x3eac2b79	0.33626917
71	0xbfb3c3f5	-1.4044176
72	0x3e2c773c	0.1684236
73	0x3f9489ac	1.1604514
74	0xbce35b51	-0.027753504
75	0xbed05b2e	-0.40694565
76	0x3f81ac76	1.0130756
77	0x3f20981b	0.62732095
78	0xbf22394c	-0.6336868
79	0xbfb8073f	-1.4377211
80	0xc00534e8	-2.0813541
81	0x3eb48fc4	0.35265934
82	0xbf56f87d	-0.83972913
83	0xbf9d4943	-1.2287983
84	0x400040f0	2.0039635
85	0x3f75e2cb	0.96049184
86	0xbe583983	-0.21115689
87	0xbfb1b986	-1.3884742
88	0xbe591f27	-0.2120329
89	0x3ff32a36	1.8997257
90	0x3ea2f9c7	0.3183119
91	0x3c82f244	0.015984662
92	0xbee737fa	-0.45159894
93	0xbc9b1aed	-0.018933738
94	0x3eb8bbab	0.3608068
95	0xbd8da9eb	-0.06917175
96	0x3e92e2f9	0.2868879
97	0xbf2c37dd	-0.6727274
98	0x3fbd7709	1.4801952
99	0xbf7d244d	-0.98883516
100	0xbe7e228e	-0.24817869
101	0xbf06e781	-0.52696997
102	0x3f2206b7	0.63291496
103	0xbe0831fc	-0.13300318
104	0xbd3f2c61	-0.046673182
105	0x3fcc2479	1.594863
106	0xbf9043e6	-1.1270721
107	0xc00d1ebe	-2.2050014
108	0xbf5bd075	-0.85864955
109	0x3fbe847a	1.4884179
110	0x4053f265	3.3116696
111	0x40522b0b	3.2838771
112	0x402d9751	2.7123606
113	0x3b123ea9	0.002231518
114	0x3f95f054	1.1713967
115	0xbeffaa8e	-0.4993481
116	0x401c5dab	2.443217
117	0xbea4ca77	-0.32185718
118	0xbff64ac4	-1.9241567
119	0x3e9f89c7	0.31159803
120	0xbfe26f00	-1.7690125
121	0x3fc81fb4	1.5634675
122	0x3e940bd2	0.28915268
123	0xbf5a2e7f	-0.852272
124	0x3f94a21f	1.1611975
125	0x3edb375a	0.42815667
126	0xbf3c2654	-0.73495984
127	0xbd038ce2	-0.03211678
128	0x3ed813fc	0.42202747
129	0x3d0135f4	0.031545594
130	0xbf07d9c2	-0.5306665
131	0x3eab81c9	0.33497456
132	0xbf133bea	-0.57513297
133	0xbfaa972e	-1.3327386
134	0x3f0055f0	0.5013113
135	0x3de8f0b6	0.11374037
136	0xbf0e8a4b	-0.5567977
137	0x3fb7ecc5	1.4369131
138	0xbfc337a6	-1.5251358
139	0x3daf7704	0.08567622
140	0x400e773c	2.2260275
141	0x3f92d2cd	1.1470581
142	0x402755a0	2.6146011
143	0xbedae50a	-0.42752868
144	0x3f2d4d7b	0.6769635
145	0x3f8ef913	1.1169761
146	0x3fc5c41f	1.5450476
147	0xbf0f0a45	-0.55875045
148	0xbfd60537	-1.6720341
149	0xbf8e10f5	-1.1098925
150	0x3f9c98d9	1.2234145
151	0xbf5298e2	-0.8226453
152	0x3f3e411c	0.743181
153	0x3f35b0bf	0.7097282
154	0x3e9f8404	0.31155407
155	0x3f43ede8	0.7653489
156	0xbf0638bc	-0.5243032
157	0xbf13f062	-0.5778867
158	0x3f89254a	1.0714505
159	0xbfa41ec4	-1.2821889
160	0x3f530866	0.8243469
161	0x3e98f05e	0.29870886
162	0xbe6f81c8	-0.23389351
163	0x3f19b9bf	0.6004905
164	0x3eaf1699	0.34196928
165	0xbec16ab4	-0.3777672
166	0x3ee03539	0.43790606
167	0x3fed1770	1.8522778
168	0x3f4075af	0.7517957
169	0x3e8e40df	0.27783868
170	0x400fde48	2.247942
171	0xbfa861d3	-1.3154854
172	0x40105faf	2.25584
173	0x3f7c10b6	0.98463
174	0xc00bfa47	-2.1871507
175	0xc002ed07	-2.045717
176	0x3d9fe81d	0.07807944
177	0xbce9a8d6	-0.02852289
178	0xbe393759	-0.1808752
179	0xbe852833	-0.26007232
180	0x3d8b8dd9	0.06814165
181	0xbfd50711	-1.6642781
182	0x3faa4e16	1.330508
183	0xbeb3d5a7	-0.3512394
184	0xbda574a5	-0.08078889
185	0x400ea5e8	2.228876
186	0x3fcafb1f	1.5857886
187	0x3cc108bf	0.02356374
188	0x3f384ca5	0.7199195
189	0xbd22f2f0	-0.039782465
190	0x3f06b1a2	0.52614796
191	0xbebf4baa	-0.37362415
192	0x3fc4f25b	1.5386461
193	0xbf0635ca	-0.52425826
194	0x3f49d3dd	0.788389
195	0xbecd5d68	-0.40110326
196	0xbf5f52c8	-0.8723569
197	0x3e8c05c2	0.27348143
198	0x3e2cddb5	0.1688145
199	0xbf3c9ee1	-0.7367993
200	0xbef111fa	-0.47084028
201	0xbe07fe53	-0.1328061
202	0xc00713ff	-2.1105955
203	0xbfe6d6b3	-1.8034271
204	0xbfadcb50	-1.3577671
205	0x3f51a412	0.81890976
206	0xbfd65ec8	-1.6747675
207	0xbf0e4cf0	-0.5558615
208	0xbf9690e7	-1.1762971
209	0xbf72295e	-0.9459437
210	0xbf149ea4	-0.58054566
211	0xc0055ed2	-2.0839124
212	0xbffb2917	-1.9621915
213	0xc00dbc75	-2.2146275
214	0xbfd463b6	-1.6592929
215	0xbf82ae65	-1.0209471
216	0xbfb146ec	-1.3849769
217	0xbf91eeb3	-1.140097
218	0xc00600f3	-2.093808
219	0xbf0cfecd	-0.55076295
220	0x3fb18a35	1.3870302
221	0xbf6ccd73	-0.9250099
222	0xbf643820	-0.8914814
223	0xbda3c6fb	-0.07996937
224	0xbf82e1b2	-1.0225127
225	0xc0387947	-2.8824022
226	0xbfb68180	-1.425827
227	0x3e880e5f	0.26573464
228	0xbf808ee1	-1.0043603
229	0x3f530746	0.82432973
230	0x400eb072	2.2295194
231	0x40c74c2c	6.2280483
232	0x407e8579	3.9768965
233	0x4019fa53	2.4059036
234	0xbf5e8a88	-0.8693013
235	0x4043e657	3.0609338
236	0xc03df7dd	-2.9682534
237	0xc055df71	-3.3417628
238	0x3fe76f07	1.8080758
239	0x3e5ba697	0.21450268
240	0x3d9b3e48	0.075802386
241	0xc04e3337	-3.221876
242	0xbe13d937	-0.1443833
243	0xbff71c78	-1.9305563
244	0xc042d8d0	-3.0444832
245	0xc018e69a	-2.3890748
246	0xc02deab7	-2.7174509
247	0xc0010a3a	-2.0162492
248	0xbf619935	-0.881244
249	0xbf7b299f	-0.98110384

critic.mlp.0.weight f4 [40, 60]
0	0xba7d5fb1	-0.0009665443
1	0x3d8dd557	0.06925457
2	0xbdc517e4	-0.096236974
3	0xbdae1011	-0.08499158
4	0xbd22a23b	-0.039705496
5	0x3d0dcc9e	0.034618966
6	0x3bf46f80	0.007459581
7	0x3e043754	0.12911731
8	0xbc6ee963	-0.014582011
9	0xbdd1ea6a	-0.10249789
10	0x3c283e93	0.010268825
11	0xbccfe257	-0.025376482
12	0xbdfc970a	-0.12333496
13	0xbdaf1ac2	-0.085500255
14	0xbd59fae1	-0.053217772
15	0x3b9cb4e1	0.0047823046
16	0x3d510cc1	0.051037554
17	0x3d9ea4b7	0.077462606
18	0xbdb33ea3	-0.087521814
19	0xbd6644db	-0.05621801
20	0x3d4010e9	0.046891127
21	0x3ddb8d0c	0.10720262
22	0xbcd9a694	-0.026568688
23	0x3dc5d9b3	0.096606635
24	0xbcaa76f8	-0.020808682
25	0x3c5fd077	0.013660542
26	0x3def676b	0.11689647
27	0xbdf545a3	-0.11976173
28	0xbda67275	-0.081273
29	0xbd05df20	-0.03268349
30	0xbd4e1f72	-0.050322957
31	0x3de47025	0.11154202
32	0xbdab603a	-0.08367963
33	0xbd4a633c	-0.049411044
34	0xbd0b6475	-0.03403135
35	0xbde31b06	-0.11089139
36	0xbe18a46c	-0.14906472
37	0x3de34624	0.11097363
38	0x3d6bf4d7	0.057606544
39	0x3d802534	0.06257096
40	0x3bde7acd	0.0067895413
41	0xbd878d22	-0.06618716
42	0x3d027eea	0.031859316
43	0xbe835405	-0.2565004
44	0xbdaa86e7	-0.08326512
45	0xbd884dcc	-0.066554636
46	0x3da6d137	0.08145373
47	0x3d9b0552	0.07569374
48	0xbd6a842e	-0.057254963
49	0xbb98a3f3	-0.004658216
50	0x3da918da	0.08256693
51	0x3e46f584	0.19429594
52	0xbcc837f7	-0.024440749
53	0x3daaca7c	0.08339402
54	0x3db14610	0.086559415
55	0xbd9bad42	-0.07601406
56	0x3cc512ff	0.02405691
57	0xbdccfcc7	-0.10009151
58	0xbdb73fbc	-0.08947703
59	0xbd88951c	-0.06669065
60	0x3d6f438a	0.05841402
61	0x3d54a8b0	0.051918685
62	0xbdb0ae6d	-0.08627019
63	0x3cef3f9f	0.029205142
64	0x3d7a28e7	0.061074164
65	0xbc857c3c	-0.016294591
66	0xbb9f7fb6	-0.0048675193
67	0x3ca247dd	0.019809658
68	0x3d8edf7d	0.06976221
69	0x3debe6e0	0.11518645
70	0xbdff9d9f	-0.12481236
71	0xbd41c938	-0.047311038
72	0x3d4fd1fa	0.05073736
73	0x3ddb109b	0.106965266
74	0x3de6143c	0.11234328
75	0x3de94a93	0.11391177
76	0x3cd2796e	0.025692668
77	0xbde5e9f4	-0.11226264
78	0x3c42944f	0.01187618
79	0xbda56847	-0.0807653
80	0xbdf66796	-0.12031476
81	0x3deae9df	0.114703886
82	0x3dc9092c	0.098162025
83	0xbe03defc	-0.1287803
84	0x3cc5f32e	0.024163809
85	0xbcb2290f	-0.021748094
86	0xbcae097a	-0.021244753
87	0xbd720ed0	-0.059096158
88	0x3d4b5997	0.049645986
89	0xbd9c9a3c	-0.07646605
90	0x3d41d9ae	0.047326736
91	0x3d85b500	0.06528664
92	0x3dbd45f9	0.09241862
93	0x3d1d96e8	0.038473994
94	0xbe0c39d0	-0.13693929
95	0xbdbf93de	-0.09354375
96	0x3d3d1af5	0.046168286
97	0x3cdd5a7d	0.027020687
98	0xbdce4036	-0.10070841
99	0xbd983e82	-0.074337974
100	0x3df8bae3	0.12145021
101	0x3db2278f	0.086989515
102	0xbd875957	-0.06608837
103	0xbd36b64e	-0.044607453
104	0xbe07f6b4	-0.13277704
105	0xbb1812b6	-0.0023204512
106	0xbdc71b03	-0.09721949
107	0xbdcbf180	-0.09958172
108	0xbbe916ed	-0.0071133287
109	0x3c9eca72	0.019383643
110	0xbd588e5a	-0.052870132
111	0x3d921919	0.07133693
112	0xbdaa1a8c	-0.08305845
113	0x3de51dce	0.111873254
114	0x3db530b8	0.08847183
115	0xbddef5d9	-0.108867355
116	0xbd039b9d	-0.032130826
117	0x3bbee234	0.0058253054
118	0x3c9a4d6e	0.01883575
119	0x3cfad4d6	0.030619066
120	0x3d4f833e	0.05066227
121	0x3bfd65c2	0.0077330777
122	0xbd447a9d	-0.047968496
123	0x3d9be032	0.07611121
124	0xbddedabf	-0.10881566
125	0xbd9cb586	-0.0765181
126	0xbc8dadef	-0.017294852
127	0x3c8504b2	0.01623759
128	0x3b2ae0cd	0.0026073933
129	0xbdaf5463	-0.08561017
130	0x3e06e825	0.13174494
131	0x3ce210ab	0.027595839
132	0xbdac3ea6	-0.08410387
133	0xbbd9190d	-0.0066253007
134	0x3dbd4492	0.092415944
135	0xbc597084	-0.013271455
136	0x3b6b23f9	0.0035879596
137	0xbc367916	-0.011137268
138	0x3cd608f7	0.026127322
139	0x3da81cfa	0.08208652
140	0x3dfa72a2	0.12228896
141	0x3da7e7f1	0.08198536
142	0x3dfb0554	0.12256876
143	0xbc18f8e5	-0.009336685
144	0xbded8327	-0.11597281
145	0xbd7ab01c	-0.061203107
146	0x3db40744	0.08790448
147	0xba5b6264	-0.00083688484
148	0xbd836aba	-0.06416841
149	0xbdca9c09	-0.098930426
150	0xbdf76f6b	-0.12081798
151	0xbddf26f1	-0.10896099
152	0xbcd68442	-0.026186112
153	0x3dafc36f	0.08582198
154	0x3d9bd3eb	0.076087795
155	0xbde0399b	-0.10948487
156	0x3e09768c	0.13424128
157	0xbdcee461	-0.101021536
158	0xbcdf9577	-0.02729295
159	0xbd566911	-0.052346293
160	0xbccbb4e2	-0.024866525
161	0xbccfa60d	-0.025347734
162	0xbdce7d11	-0.10082448
163	0xbe2d11a9	-0.16901268
164	0xbba9b289	-0.0051787538
165	0x3adad461	0.0016695374
166	0xbd703774	-0.058646634
167	0x3d4731fd	0.048631657
168	0xbdedf8b6	-0.116197035
169	0xbc0ebf26	-0.0087125655
170	0x3de883c2	0.11353256
171	0xbd4196d2	-0.047262974
172	0x3e597c1d	0.21238752
173	0x3d559a76	0.05214926
174	0xbdee9b54	-0.1165072
175	0x3da7484d	0.08168087
176	0xbc741411	-0.014897362
177	0xbd6c0e5a	-0.057630874
178	0x3dd36cc4	0.1032348
179	0xbdd5a829	-0.10432465
180	0x3c62f7b9	0.013853007
181	0xbcdd6cba	-0.027029384
182	0x3d133ac6	0.035944723
183	0xbca58e10	-0.020209342
184	0x3bbd999c	0.005786134
185	0x3d3abf55	0.045592625
186	0xbdb2c615	-0.087291874
187	0xbd842e3e	-0.064541325
188	0xbdb935a6	-0.09043436
189	0x3e2090be	0.15680215
190	0x3c9db8c6	0.019253146
191	0x3db4e7f5	0.08833305
192	0xbdba7fbc	-0.09106395
193	0x3bbcac1b	0.0057578213
194	0xbdba61ab	-0.0910066
195	0xbd918bae	-0.0710672
196	0xbd9a1097	-0.075226955
197	0x3d34b639	0.044119094
198	0xbd9d8e8e	-0.07693206
199	0xbb389687	-0.0028165893
200	0x3bb1f64a	0.0054309713
201	0x3daa6f7f	0.083220474
202	0xbdc7dcab	-0.09758886
203	0xbdb582c7	-0.088628344
204	0xbd99863e	-0.07496308
205	0x3db90f32	0.090361014
206	0xbd3e14fc	-0.04640673
207	0x3ddf03c7	0.10889392
208	0x3d3f3706	0.046683334
209	0x3c85eae0	0.016347349
210	0xba7beceb	-0.00096101937
211	0xbcd11088	-0.025520578
212	0x3c84b0e7	0.016197635
213	0xbdaf910a	-0.08572586
214	0x3cbe2008	0.023208633
215	0xbd22eaa8	-0.039774567
216	0xbd6cf6aa	-0.057852425
217	0xbd8a93fd	-0.06766508
218	0x3dd57f61	0.10424686
219	0xbdd691c6	-0.10477023
220	0xbc17e1c8	-0.009270139
221	0x3e02c674	0.12771016
222	0xbc1d7895	-0.0096112685
223	0x3d92bb10	0.071645856
224	0xbe2c292b	-0.1681258
225	0x3d82f9cc	0.06395301
226	0xbdbc52ee	-0.09195505
227	0xbd161ade	-0.036646716
228	0xbd316b0a	-0.04331497
229	0xbc9c9d59	-0.019117998
230	0x3ab9171c	0.0014121267
231	0x3e0f65a9	0.14003624
232	0xbd10d3db	-0.03535829
233	0x3e18c4ad	0.14918776
234	0x3da1bbef	0.078971736
235	0xbda72795	-0.081618465
236	0x3d6d2a42	0.05790163
237	0xbdbae677	-0.09125989
238	0xbd601d74	-0.05471559
239	0x3d1b878f	0.037971076
240	0x3d2e9a4b	0.042627614
241	0x3dc65b67	0.09685402
242	0xbd3220e3	-0.043488394
243	0xbae1c5e5	-0.0017225115
244	0x3d842a5b	0.06453391
245	0xbdffb1ea	-0.12485106
246	0x3dbb3360	0.091406584
247	0xbe00a795	-0.12563927
248	0x3d4fa86c	0.05069773
249	0xbd15b5c4	-0.0365503
250	0xbd62da76	-0.05538412
251	0x3c8bc824	0.017063208
252	0x3ddaa23c	0.10675475
253	0xbd1a9377	-0.03773829
254	0xbd9cf85b	-0.076645575
255	0xbd43914c	-0.047745988

critic.mlp.0.bias f4 [40]
0	0x3e0a00b4	0.1347683
1	0xbc17ad9b	-0.009257699
2	0xbd803f3b	-0.0626206
3	0x3c93cf5b	0.01804321
4	0xbcec18ce	-0.028820422
5	0xbcb62dc7	-0.022238625
6	0xbd784b97	-0.060618963
7	0xbdffe235	-0.124943174
8	0xbe05d4b5	-0.13069423
9	0xbbc45765	-0.0059918636
10	0xbd9dccf3	-0.077051066
11	0x3dc05c98	0.09392661
12	0x3cbd7f55	0.023132006
13	0xbd70080c	-0.058601424
14	0x3d89e0c2	0.06732322
15	0xbe283060	-0.16424704
16	0xbdb55371	-0.08853806
17	0xbce2d980	-0.027691603
18	0xbda68f7b	-0.081328355
19	0x3d5dfe71	0.054197732
20	0xbd0bda28	-0.034143597
21	0xbe490c4e	-0.196336
22	0xbe1a1708	-0.15047848
23	0xbbf4d580	-0.0074717402
24	0x3dbc6e2a	0.092006996
25	0xbd923ad0	-0.07140124
26	0xbd407ccf	-0.046994027
27	0xbe0a7aa1	-0.13523342
28	0xbcbced8f	-0.023062496
29	0x3d4c372c	0.049857304
30	0x3c5b9adc	0.013403621
31	0x3cbe6b9c	0.023244672
32	0xbce5a0dc	-0.028030805
33	0x3dcf7a7f	0.10130786
34	0x3e1336cf	0.14376377
35	0x3db853e7	0.09000378
36	0x3d64ec62	0.055889495
37	0xbd86ce04	-0.06582263
38	0xbd21d76e	-0.03951209
39	0xbc69f0a7	-0.014278567

critic.mlp.2.weight f4 [1, 40]
0	0x3d8fea2a	0.07027085
1	0x3d712a00	0.058877945
2	0xbde062b5	-0.10956327
3	0xbd2646bb	-0.040594798
4	0xbdcec931	-0.10096968
5	0xbac85b0a	-0.0015285921
6	0xbd25adef	-0.04044908
7	0xbe6f8f99	-0.23394622
8	0xbe69cb9d	-0.22831579
9	0xbe096acc	-0.13419646
10	0x3da23cfd	0.07921789
11	0x3e3a3d13	0.1818736
12	0xbe156e71	-0.14592911
13	0xbd4c441a	-0.049869634
14	0x3d8fcf2a	0.07021935
15	0xbd1269bb	-0.035745364
16	0xbcfec0a1	-0.031097712
17	0x3a029704	0.00049816095
18	0x3d68edd0	0.05686742
19	0x3d119bcb	0.035548966
20	0xbbe3ac02	-0.006947995
21	0xbd592db6	-0.05302211
22	0x3da677ce	0.0812832
23	0xbcbeb566	-0.023279857
24	0x3d229872	0.039696164
25	0x3a48aeed	0.00076554605
26	0x3e106962	0.141027
27	0xbba3cba5	-0.0049986416
28	0xbda7b52a	-0.08188851
29	0x3e08bf37	0.13354193
30	0x3db2b462	0.087258115
31	0xbd3903e9	-0.045169745
32	0xbdb02d91	-0.08602441
33	0x3d842ef6	0.064542696
34	0x3d8d5dc9	0.06902654
35	0xbe68b146	-0.22723874
36	0x3dd9857e	0.10621165
37	0xbd59250f	-0.053013857
38	0xbe91b179	-0.28455713
39	0x3d8e7173	0.069552325
