evaluate_results/agent_logic_rf10_paper/checkpoints/step_260001.pth (torch, 13829 bytes, 4 tensors)

actor.im.W f4 [5, 50]
000000 0a 4c ad 3f 6e ad 08 3f 3f a7 af 3e a9 f8 8d 3e
       1.353883 0.5338963 0.34307286 0.27728775
000010 f3 55 02 c0 1a df 67 3f 8e 78 b2 bd ad a6 3d bf
       -2.036496 0.905748 -0.087144 -0.7408245
000020 a8 89 b5 3f df 3d c2 bf 5e 4b 28 3e b2 1d cf 3f
       1.4182634 -1.5175132 0.16435 1.6180937
000030 23 32 b0 3f 5b 9c e8 bd 87 29 c5 3f 2c 64 a7 bf
       1.37653 -0.113579474 1.5403298 -1.3077445
000040 a1 4a 21 3f 45 2d a0 3d bc 19 b9 3f 55 19 d2 bd
       0.630045 0.078211345 1.4460979 -0.10258738
000050 d3 cb 83 3f 12 50 18 be 62 8e 27 3f 3a 85 c0 3f
       1.0296577 -0.14874294 0.65451634 1.5040658
000060 17 c8 9f 3f 14 ae 9a 3e 35 a5 dd 3b fd 58 a8 bf
       1.2482938 0.30210936 0.006764079 -1.3152157
000070 a5 fd ee 3e 5a ba 96 bf e7 ac 13 bf 0b dd ed bd
       0.4667789 -1.177562 -0.57685703 -0.11614426
000080 dc 1a 27 bf 23 87 14 bf 9f 56 71 be 82 ee 8c bf
       -0.6527536 -0.580187 -0.235682 -1.1010287
000090 0e a2 36 3e 82 68 99 3f a8 ca 84 3f 20 b5 06 3f
       0.17835256 1.1985018 1.0374346 0.52620125
0000a0 d8 4c 4f bf 35 0b c7 be 20 51 da 3e 49 78 3b bb
       -0.8097663 -0.38875738 0.42640018 -0.002860563
0000b0 75 59 cd bf 03 92 7d 3f 2c fa 7a 3e c2 59 7d bf
       -1.6042925 0.9905092 0.24509495 -0.98965085
0000c0 49 cf fc be 93 af ab 3f 35 d5 0d c0 85 a8 96 3f
       -0.49376896 1.3412956 -2.2161381 1.1770178
0000d0 27 5b 05 40 84 a6 3b bf 9f 13 3f 3f fe e7 d7 bf
       2.0836885 -0.7330096 0.74639314 -1.6867673
0000e0 05 cc 4d 3f 8a f8 a8 bf 7e 9a ee 3f fe 51 57 3e
       0.80389434 -1.3200848 1.8640897 0.21027371
0000f0 c5 ab 86 3d ab 31 8e 3f 40 82 94 bc 7a b2 21 bf
       0.06575731 1.1108907 -0.018128514 -0.6316296
000100 d7 41 99 3d 04 5c 23 bf 1f 59 2f 3c 1e 77 85 3d
       0.07483261 -0.6381228 0.0107024005 0.065168604
000110 a1 9b d7 3f c9 ef f2 be fb 04 92 3e 09 e5 ae bf
       1.6844369 -0.47448567 0.28519425 -1.3663646
000120 64 15 d3 3d f7 a4 99 3f d7 7f 30 be e9 54 87 be
       0.10306814 1.2003468 -0.17236267 -0.2643197
000130 f8 ed 93 3f 8d 25 f7 3e 71 06 03 bf a1 71 b7 bf
       1.1556997 0.48270836 -0.51181704 -1.4331552
000140 c6 b1 d2 bf 8a 01 8a 3e 6f 3f 6c bf 0a c0 49 bf
       -1.6460502 0.269543 -0.9228429 -0.78808653
000150 88 10 f3 3f 07 dd 63 3f 9a 99 68 be 72 c5 b3 bf
       1.898942 0.89009136 -0.22714844 -1.404463
000160 22 9b 90 be 7a 2b f0 3f 18 96 8e 3e 60 fe 23 3e
       -0.28243357 1.8763268 0.27848887 0.16015005
000170 2e 68 9d be 73 1b 1e 3e 15 61 bd 3e ba 28 76 bd
       -0.30743545 0.15440159 0.3698813 -0.060097434
000180 15 e8 6d 3e 1f 2b 54 bf 2c 7d a9 3f de 2b 93 bf
       0.23233064 -0.828783 1.3241324 -1.1497762
000190 08 e6 5b bb 46 76 90 be 63 97 5f 3f a8 79 29 3e
       -0.0033553857 -0.28215235 0.8734037 0.16550314
0001a0 a7 27 17 be d3 38 bf 3f 9c 1d 54 bf 08 2e 06 c0
       -0.1476122 1.4939216 -0.8285768 -2.0965595
0001b0 28 ab 25 bf aa 75 e3 3f f2 d8 59 40 30 68 22 40
       -0.6471429 1.7770283 3.4038663 2.537609
0001c0 f1 a8 fb 3f 34 d8 cd 3d 83 7d b4 3f 61 9d a2 3e
       1.9660932 0.10051003 1.4100803 0.31760696
0001d0 8b 28 15 40 d2 73 de be 9a bc 8d bf 94 3b bd 3e
       2.3305995 -0.4344774 -1.1073182 0.36959517
0001e0 c8 cd c3 bf 56 24 e1 3f ee e2 07 3f 11 45 28 bf
       -1.5297174 1.7589214 0.5308064 -0.65730387
0001f0 72 d3 a4 3f d8 23 2e 3f 73 3e f7 be 1f 4c c1 3d
       1.2877028 0.68023443 -0.48289832 0.09438347
000200 ab 97 10 3f 03 50 3d 3e 56 8f 93 be 7b 67 13 3f
       0.56481427 0.18487553 -0.28820294 0.57579774
000210 2a 2c ab be 10 1b 8b bf 75 32 3b 3f 0a 61 b4 3e
       -0.33432132 -1.0867634 0.73123866 0.35230285
000220 1b 6e a9 be d6 d6 d4 3f cc af a4 bf 00 69 9f 3e
       -0.33091816 1.6628063 -1.2866149 0.31134796
000230 b1 c2 e5 3f 9e 9f 52 3f 1b 94 12 40 09 b1 57 3e
       1.795004 0.82274806 2.2902896 0.21063627
000240 7f dc 30 3f a3 c0 90 3f 42 3f d3 3f f1 e2 82 3e
       0.6908645 1.1308788 1.650368 0.25563768
000250 11 91 5b bf ec e3 93 be 89 20 87 3f 43 89 7d bf
       -0.8576823 -0.28884828 1.0556804 -0.9903757
000260 e8 af 12 3f 80 d9 36 3f 54 22 d8 3c cb d9 f5 3e
       0.5729966 0.7142563 0.026383556 0.48017725
000270 04 10 05 bf ea 3b 3a bf ea 42 67 3f e9 08 a4 bf
       -0.5197756 -0.7274767 0.9033648 -1.2815219
000280 1b 5b 26 3f 9b 9f 01 3e 34 e1 cf be 96 94 db 3e
       0.64982766 0.12658541 -0.40601504 0.428868
000290 c1 ee 28 3e fe f4 0b bf a3 ff c4 3e 30 4a e6 3f
       0.16497327 -0.54670703 0.38476285 1.799139
0002a0 e2 35 15 3f e3 c3 64 3e b5 54 f8 3f 58 43 48 bf
       0.58285344 0.2234035 1.940085 -0.7822776
0002b0 8d c6 0e 40 40 75 96 3f be 48 0f c0 4d 81 09 c0
       2.2308686 1.1754532 -2.2388148 -2.148517
0002c0 67 99 ca bc 48 3c a4 bd 5a ce 0c be e4 00 8e 3e
       -0.024731351 -0.0801931 -0.13750592 0.27735054
0002d0 f9 dc 83 3d a8 98 ea bf 24 bc 94 3f 33 90 b4 be
       0.064386316 -1.8327837 1.1619916 -0.35266265
0002e0 14 5b 81 be 67 7d 19 40 fb 42 c2 3f 1f 82 36 bd
       -0.252648 2.398279 1.5176691 -0.044557687
0002f0 52 aa 63 3f 33 02 15 3e 69 5b b8 3e ce f7 cb be
       0.88931763 0.1455162 0.3600724 -0.39837497
000300 6e c7 c1 3f 6f 03 0c bf 6c 5d 20 3f e1 24 10 bf
       1.5138986 -0.5469274 0.6264255 -0.5630627
000310 1a fd 84 bf 56 b0 66 3e d9 04 f7 3d 93 8d 48 bf
       -1.038974 0.22528204 0.120614715 -0.78341025
000320 da 64 11 3f cb f3 67 3f db 67 89 bf ee 0b 55 bf
       0.5679451 0.90606374 -1.0734819 -0.8322133
000330 ca e7 6e bf 15 31 9f 3f 19 14 34 bf ec 98 03 be
       -0.9332243 1.2436854 -0.70343167 -0.12851304
000340 bc 61 52 be cb c4 82 3c 8d a7 ea 3e e3 be 85 bf
       -0.20545095 0.015962979 0.45830956 -1.0448879
000350 b4 49 6c bf 47 26 96 bf fb 61 23 bf 1a 36 15 bc
       -0.9229996 -1.1730431 -0.6382138 -0.009107137
000360 ef 49 d0 be e3 a9 25 be 83 9d 8a bf 61 e4 cf 3e
       -0.40681407 -0.16178088 -1.0829319 0.40603927
000370 e9 9c 05 40 08 de 9d be 17 d6 d1 3d 95 4c 08 3f
       2.087702 -0.3083346 0.102459125 0.53241855
000380 94 f4 e6 be e8 73 02 c0 74 6b 14 bf 6a 5c 56 3f
       -0.45108473 -2.0383244 -0.5797646 0.8373476
000390 d1 76 ee be a9 fb a6 3f 32 ba d4 3f e7 27 95 40
       -0.46575025 1.304555 1.6619322 4.661121
0003a0 12 45 1a 40 8c 1b 05 40 99 96 31 3e ca ca 38 40
       2.4104657 2.0798063 0.17342605 2.8873773
0003b0 b9 4e 00 c0 3e 4d 18 c0 63 38 d1 3f 7d d0 e9 3d
       -2.0048048 -2.3797145 1.6345333 0.11416719
0003c0 4f b0 8b 3f b8 6b 0c c0 74 46 63 3f 6f 04 6a bf
       1.091318 -2.1940746 0.8877938 -0.91413015
0003d0 af 4f 01 c0 11 7f ae bf f5 cc f5 bf e1 2d 83 bf
       -2.0204885 -1.3632528 -1.9203173 -1.0248376
0003e0 3c 79 e3 3d a1 f4 ae bd
       0.11107108 -0.08542753

critic.mlp.0.weight f4 [40, 60]
000000 b1 5f 7d ba 57 d5 8d 3d 6a 53 b2 bd a2 4b 9b bd
       -0.0009665443 0.06925457 -0.08707316 -0.07582785
000010 c9 32 fa bc 9e cc 0d 3d a5 2d 88 3c 1d 21 02 3e
       -0.030541794 0.034618966 0.016623328 0.12707944
000020 eb f1 e8 3b 27 0e c2 bc 44 dd c1 bd 57 e2 cf bc
       0.007108917 -0.023688389 -0.09466031 -0.025376482
000030 0a 97 fc bd c2 1a af bd e1 fa 59 bd e1 b4 9c 3b
       -0.12333496 -0.085500255 -0.053217772 0.0047823046
000040 c1 0c 51 3d b7 a4 9e 3d a3 3e b3 bd db 44 66 bd
       0.051037554 0.077462606 -0.087521814 -0.05621801
000050 e9 10 40 3d 0c 8d db 3d 94 a6 d9 bc b3 d9 c5 3d
       0.046891127 0.10720262 -0.026568688 0.096606635
000060 f8 76 aa bc 77 d0 5f 3c 6b 67 ef 3d a3 45 f5 bd
       -0.020808682 0.013660542 0.11689647 -0.11976173
000070 75 72 a6 bd 20 df 05 bd 72 1f 4e bd 25 70 e4 3d
       -0.081273 -0.03268349 -0.050322957 0.11154202
000080 3a 60 ab bd 60 da 24 bd 5b c8 a6 bc 94 56 d0 bd
       -0.08367963 -0.04024732 -0.020359209 -0.101727635
000090 83 9c a4 be 24 46 e3 3d d7 f4 6b 3d 34 25 80 3d
       -0.3215066 0.11097363 0.057606544 0.06257096
0000a0 cd 7a de 3b 22 8d 87 bd c9 07 28 3d 9c 80 49 be
       0.0067895413 -0.06618716 0.04102305 -0.19677967
0000b0 76 c2 97 bd cc 4d 88 bd 37 d1 a6 3d 52 05 9b 3d
       -0.07410137 -0.066554636 0.08145373 0.07569374
0000c0 2e 84 6a bd f3 a3 98 bb da 18 a9 3d ae a6 18 3e
       -0.057254963 -0.004658216 0.08256693 0.14907333
0000d0 cd 58 21 3d d4 59 1c 3d 10 46 b1 3d 42 ad 9b bd
       0.039391328 0.038171604 0.086559415 -0.07601406
0000e0 ff 12 c5 3c c7 fc cc bd bc 3f b7 bd 1c 95 88 bd
       0.02405691 -0.10009151 -0.08947703 -0.06669065
0000f0 8a 43 6f 3d b0 a8 54 3d 6d ae b0 bd 9f 3f ef 3c
       0.05841402 0.051918685 -0.08627019 0.029205142
000100 e7 28 7a 3d 3c 7c 85 bc b6 7f 9f bb dd 47 a2 3c
       0.061074164 -0.016294591 -0.0048675193 0.019809658
000110 7d df 8e 3d e0 e6 eb 3d 9f 9d ff bd 38 c9 41 bd
       0.06976221 0.11518645 -0.12481236 -0.047311038
000120 fa d1 4f 3d 9b 10 db 3d 3c 14 e6 3d 93 4a e9 3d
       0.05073736 0.106965266 0.11234328 0.11391177
000130 6e 79 d2 3c f4 e9 e5 bd 4f 94 42 3c 47 68 a5 bd
       0.025692668 -0.11226264 0.01187618 -0.0807653
000140 96 67 f6 bd df e9 ea 3d 2c 09 c9 3d fc de 03 be
       -0.12031476 0.114703886 0.098162025 -0.1287803
000150 2e f3 c5 3c 0f 29 b2 bc 7a 09 ae bc d0 0e 72 bd
       0.024163809 -0.021748094 -0.021244753 -0.059096158
000160 97 59 4b 3d 3c 9a 9c bd ae d9 41 3d 00 b5 85 3d
       0.049645986 -0.07646605 0.047326736 0.06528664
000170 f9 45 bd 3d e8 96 1d 3d d0 39 0c be de 93 bf bd
       0.09241862 0.038473994 -0.13693929 -0.09354375
000180 f5 1a 3d 3d 7d 5a dd 3c 36 40 ce bd 82 3e 98 bd
       0.046168286 0.027020687 -0.10070841 -0.074337974
000190 e3 ba f8 3d 8f 27 b2 3d 57 59 87 bd 4e b6 36 bd
       0.12145021 0.086989515 -0.06608837 -0.044607453
0001a0 b4 f6 07 be b6 12 18 bb 03 1b c7 bd 80 f1 cb bd
       -0.13277704 -0.0023204512 -0.09721949 -0.09958172
0001b0 ed 16 e9 bb 72 ca 9e 3c 5a 8e 58 bd 19 19 92 3d
       -0.0071133287 0.019383643 -0.052870132 0.07133693
0001c0 8c 1a aa bd ce 1d e5 3d b8 30 b5 3d d9 f5 de bd
       -0.08305845 0.111873254 0.08847183 -0.108867355
0001d0 9d 9b 03 bd 34 e2 be 3b 6e 4d 9a 3c d6 d4 fa 3c
       -0.032130826 0.0058253054 0.01883575 0.030619066
0001e0 3e 83 4f 3d c2 65 fd 3b 4f 54 81 bd 1d 92 79 3d
       0.05066227 0.0077330777 -0.06314909 0.06093036
0001f0 d4 f1 fd bd 86 b5 9c bd ff 04 05 bd 20 b6 b7 bc
       -0.12399641 -0.0765181 -0.032475468 -0.022425711
000200 af b8 47 bd ec ac 5f 3d 77 3f 1d 3c ab 10 e2 3c
       -0.048760112 0.05460827 0.009597651 0.027595839
000210 a6 3e ac bd 0d 19 d9 bb 92 44 bd 3d 84 70 59 bc
       -0.08410387 -0.0066253007 0.092415944 -0.013271455
000220 f9 23 6b 3b 16 79 36 bc f7 08 d6 3c fa 1c a8 3d
       0.0035879596 -0.011137268 0.026127322 0.08208652
000230 a2 72 fa 3d f1 e7 a7 3d 54 05 fb 3d e5 f8 18 bc
       0.12228896 0.08198536 0.12256876 -0.009336685
000240 27 83 ed bd 1c b0 7a bd 44 07 b4 3d 64 62 5b ba
       -0.11597281 -0.061203107 0.08790448 -0.00083688484
000250 ba 6a 83 bd 09 9c ca bd 6b 6f f7 bd f1 26 df bd
       -0.06416841 -0.098930426 -0.12081798 -0.10896099
000260 42 84 d6 bc 44 ac 90 3d 0a db 7f 3d b1 50 ff bd
       -0.026186112 0.07064107 0.06246475 -0.124665625
000270 b5 ac c0 3d 61 e4 ce bd 77 95 df bc 11 69 56 bd
       0.09407941 -0.101021536 -0.02729295 -0.052346293
000280 e2 b4 cb bc 0d a6 cf bc 2a 94 ed bd 04 f4 15 be
       -0.024866525 -0.025347734 -0.11600526 -0.14643866
000290 8e c8 a6 bc 61 d4 da 3a 74 37 70 bd fd 31 47 3d
       -0.020359304 0.0016695374 -0.058646634 0.048631657
0002a0 b6 f8 ed bd 26 bf 0e bc c2 83 e8 3d 8e ad 90 bd
       -0.116197035 -0.0087125655 0.11353256 -0.07064353
0002b0 3e 43 31 3e 5e ac eb 3c 54 9b ee bd 4d 48 a7 3d
       0.17310807 0.028768715 -0.1165072 0.08168087
0002c0 11 14 74 bc 5a 0e 6c bd c4 6c d3 3d 29 a8 d5 bd
       -0.014897362 -0.057630874 0.1032348 -0.10432465
0002d0 b9 f7 62 3c ba 6c dd bc 46 bd 58 3d 84 47 54 bb
       0.013853007 -0.027029384 0.05291488 -0.003239126
0002e0 91 6b ba 3c 55 bf 3a 3d ce 04 90 bd e5 71 4b bd
       0.02275637 0.045592625 -0.070321664 -0.049669165
0002f0 73 e0 e0 bd c0 8e 20 3e 89 45 c0 3d f5 e7 b4 3d
       -0.1098031 0.15679455 0.09388263 0.08833305
000300 bc 7f ba bd 1b ac bc 3b ab 61 ba bd ae 8b 91 bd
       -0.09106395 0.0057578213 -0.0910066 -0.0710672
000310 97 10 9a bd 39 b6 34 3d 8e 8e 9d bd 87 96 38 bb
       -0.075226955 0.044119094 -0.07693206 -0.0028165893
000320 4a f6 b1 3b 7f 6f aa 3d ab dc c7 bd c7 82 b5 bd
       0.0054309713 0.083220474 -0.09758886 -0.088628344
000330 3e 86 99 bd 32 0f b9 3d fc 14 3e bd c7 03 df 3d
       -0.07496308 0.090361014 -0.04640673 0.10889392
000340 06 37 3f 3d e0 ea 85 3c eb ec 7b ba 88 10 d1 bc
       0.046683334 0.016347349 -0.00096101937 -0.025520578
000350 e7 b0 84 3c c2 cf 8c bd ce b0 4b 3c 4d d0 ba bc
       0.016197635 -0.06875564 0.01243229 -0.022804404
000360 7e 49 ec bd fd 93 8a bd 61 7f d5 3d c6 91 d6 bd
       -0.11537455 -0.06766508 0.10424686 -0.10477023
000370 c8 e1 17 bc 74 c6 02 3e 2b 23 f1 3b 29 96 7f 3d
       -0.009270139 0.12771016 0.0073589287 0.062399063
000380 7d c8 1a be cc f9 82 3d ee 52 bc bd de 1a 16 bd
       -0.15115543 0.06395301 -0.09195505 -0.036646716
000390 0a 6b 31 bd 59 9d 9c bc 1c 17 b9 3a 94 d7 2d 3e
       -0.04331497 -0.019117998 0.0014121267 0.16976768
0003a0 a8 bb ef 39 8c 36 37 3e ef bb a1 3d 95 27 a7 bd
       0.00045725447 0.17891902 0.078971736 -0.081618465
0003b0 42 2a 6d 3d 77 e6 ba bd 74 1d 60 bd 8f 87 1b 3d
       0.05790163 -0.09125989 -0.05471559 0.037971076
0003c0 4b 9a 2e 3d 67 5b c6 3d 80 66 f3 bc d8 7d 45 3c
       0.042627614 0.09685402 -0.029711962 0.012053929
0003d0 5f 61 a0 3d ea b1 ff bd 67 6a d7 3d f2 b9 df bd
       0.07831072 -0.12485106 0.105183415 -0.10924138
0003e0 54 00 fd 3c 70 55 7b bc 51 4b 1e 3b 24 c8 8b 3c
       0.030883946 -0.015340194 0.0024153779 0.017063208
0003f0 3c a2 da 3d 77 93 1a bd 5b f8 9c bd 4c 91 43 bd
       0.10675475 -0.03773829 -0.076645575 -0.047745988

critic.mlp.0.bias f4 [40]
000000 d3 62 13 3e 9b ad 17 bc 52 56 9f bd 46 6a 0f 3d
       0.14393167 -0.009257699 -0.07780136 0.03501346
000010 3b 7b 76 bc 7a 94 60 bb 41 ee 4e bd 33 80 09 be
       -0.015044029 -0.0034268186 -0.050520185 -0.1342781
000020 e7 ac ea bd 44 36 06 3c 77 24 84 bd 59 da a5 3d
       -0.1145876 0.008191649 -0.064522676 0.08098287
000030 e2 40 a7 3c 0c 08 70 bd e5 6f 94 3d 0e 1f 12 be
       0.02041668 -0.058601424 0.07247905 -0.14269659
000040 7b f4 bc bd f9 63 dc 3c 15 07 a5 bd f7 76 5f 3d
       -0.092263184 0.02690314 -0.080579914 0.054556813
000050 a7 1c b2 bc b2 b0 1e be 08 17 1a be d0 bb 76 3a
       -0.021742178 -0.15497091 -0.15047848 0.00094121415
000060 9f 75 ae 3d 48 10 e0 bc b6 a4 9b bd 56 5a b6 bd
       0.08518528 -0.027351514 -0.075997755 -0.08903949
000070 33 b4 97 bc 5d 6c 4f 3d cc 68 62 3c a3 54 bb 3c
       -0.018518543 0.050640453 0.013818931 0.022867506
000080 63 3c 0f bc 76 f2 84 3d 4f 1a 18 3e 00 98 a7 3d
       -0.008742425 0.06491558 0.14853786 0.081832886
000090 ab 5e 9d 3d f4 19 84 bd f2 b0 50 bd a7 f0 69 bc
       0.07684072 -0.06450263 -0.05095 -0.014278567

critic.mlp.2.weight f4 [1, 40]
000000 61 1c 80 3d 00 2a 71 3d 6b a9 9c bd 81 a5 cf bd
       0.06255413 0.058877945 -0.076495014 -0.10138989
000010 35 0f fc bd 3a c9 a6 3d b6 d6 5f bd a2 1d 61 be
       -0.12307588 0.0814385 -0.054648124 -0.2198396
000020 38 df 82 be 85 09 09 be 75 82 63 3d d2 7a 4c 3e
       -0.25560927 -0.13382538 0.055544335 0.19968727
000030 56 b1 f3 bd 1a 44 4c bd c5 65 d0 3d 6d a9 5d bd
       -0.118990585 -0.049869634 0.10175661 -0.054116655
000040 d6 9c b0 bd b6 26 17 bb ab 4c d7 3d 19 ad 11 3d
       -0.08623664 -0.0023063845 0.1051267 0.03556547
000050 cc 2b 25 bd 13 6a 68 bb ce 77 a6 3d 13 49 0f bd
       -0.04032497 -0.0035463616 0.0812832 -0.0349818
000060 45 ff 87 3d 96 bf cb 3c 59 63 e6 3d 15 7a ad bc
       0.06640486 0.024871629 0.11249418 -0.021176377
000070 47 14 e3 bd d9 06 19 3e 9b b6 b2 3d fa 1f 82 bd
       -0.11087852 0.14944018 0.087262355 -0.06353755
000080 d7 a3 eb bd 53 d6 19 3d 0d 86 d9 3d 9c cc 67 be
       -0.11505859 0.03755791 0.10621271 -0.22636646
000090 47 52 08 3e 21 b3 c3 bd bb d4 67 be 73 71 8e 3d
       0.13312636 -0.095556505 -0.22639744 0.069552325
