evaluate_results/agent_logic_rf10_paper/checkpoints/step_608001.pth (torch, 13829 bytes, 4 tensors)

actor.im.W f4 [5, 50]
000000 64 69 be 3f 00 e8 2a 3f 8a 98 f9 3e 18 c2 fd 3d
       1.4875913 0.66760254 0.4874919 0.12390536
000010 da dc cf bf ca bf a8 3f df 4b 76 be 57 d8 07 bf
       -1.6239274 1.3183529 -0.2405238 -0.53064483
000020 24 2b c1 3f 5c 80 cf bf 91 66 a2 3e 10 80 e1 3f
       1.509129 -1.6211047 0.31718877 1.7617207
000030 81 94 c2 3f 49 b7 f6 3c 83 b2 d9 3f 37 65 47 bf
       1.520157 0.030116694 1.7007602 -0.77888817
000040 ab a3 55 3f 13 bd 90 3e d5 cc fc 3f 40 aa e3 3e
       0.8345286 0.28269252 1.975001 0.44465828
000050 82 98 83 3f fc 76 98 be cc 9c 4c 3f 7b 97 ad 3f
       1.0280917 -0.29778278 0.79926753 1.3561853
000060 c9 c1 b7 3f 82 5a a5 3e aa 2e e2 3c 6f 5f 90 bf
       1.4356014 0.32295614 0.027610142 -1.1279124
000070 b3 1c 11 3f 11 6f a7 bf c4 8b 30 bf 3b fd ee 3c
       0.56684417 -1.308077 -0.68963265 0.029173484
000080 66 e7 01 bf 29 eb 32 bf 3b f8 a4 bd 47 3e 74 bf
       -0.5074371 -0.69890076 -0.08055159 -0.9540753
000090 0e 8a 74 3e 82 25 a1 3f 49 9a 97 3f d6 f4 15 3f
       0.23880789 1.2589571 1.1843959 0.58576715
0000a0 03 0f 2e bf 58 d7 21 bf 17 59 3b 3e a5 7b af 3e
       -0.67991656 -0.63219213 0.18295704 0.3427402
0000b0 73 e9 d7 bf 4a 71 68 3f 8f 78 72 3e 5b 8e 73 bf
       -1.6868118 0.90797865 0.23678802 -0.9513909
0000c0 be 38 e9 be 18 4b c0 3f 02 19 3a c0 a9 64 f8 3e
       -0.45551103 1.5022917 -2.9077764 0.48514298
0000d0 7c 7a 02 40 a9 c2 88 bf d7 2f af 3f 5e 43 88 bf
       2.0387259 -1.0684406 1.3686475 -1.0645559
0000e0 48 d9 ef 3e 89 d6 ab bf 35 55 ed 3f 5c be 8f 3e
       0.4684546 -1.3424846 1.8541628 0.2807492
0000f0 41 0f 67 3e 03 7b a0 3f 92 72 ff 3d 64 3a f5 be
       0.22564413 1.253754 0.124730244 -0.4789611
000100 f4 86 7f 3e 69 c3 65 be 67 0e 3e 3e 82 d4 75 3e
       0.24953824 -0.22437824 0.18560182 0.24006847
000110 bd 48 06 40 1b f0 76 bd 41 d3 cd 3e 12 e7 ad bf
       2.0981896 -0.060287576 0.40200236 -1.3586142
000120 bf fb 77 3e c5 7e 9a 3f 52 53 1b 3d ca 8b 96 be
       0.24217127 1.2069937 0.037921257 -0.29403526
000130 61 20 90 3f 3c 68 31 3f d1 81 06 bf 3f 5e b2 bf
       1.1259881 0.69299674 -0.52541834 -1.3935012
000140 a6 cb 08 c0 76 3d d8 3e e6 21 45 bf b5 a2 a4 bf
       -2.1374297 0.4223439 -0.7700485 -1.2862154
000150 6a ba 04 40 48 8a 65 3f c6 c6 74 be 3a 4b b5 bf
       2.0738778 0.89664125 -0.23903951 -1.4163582
000160 81 40 8d be 37 fc e9 3f e0 92 c1 3e 1d 1c 9d 3c
       -0.27588275 1.8280095 0.3780737 0.019178445
000170 65 95 e5 be a8 85 b3 bc e1 67 a9 3e f2 f8 ca bd
       -0.4484054 -0.021914318 0.33087066 -0.09910764
000180 cd a9 88 3e 48 51 3d bf 49 ea b4 3f e3 9e 86 bf
       0.26692048 -0.7395215 1.4133998 -1.0517238
000190 5b 3d a4 be 67 7d 19 bf 92 79 0f 3f 7f 10 5e be
       -0.3207806 -0.59956974 0.56044877 -0.2168598
0001a0 3c a5 af bd 75 23 c7 3f 86 ff 9a bf 29 9a 11 c0
       -0.08576438 1.5557696 -1.210923 -2.2750342
0001b0 e0 db 6d bf 88 e8 b3 3f fd 5c 50 40 e5 87 5a 40
       -0.9291363 1.4055338 3.2556756 3.4145443
0001c0 27 f4 35 40 2a 26 62 bd 93 7b 8d 3f fe 2a 35 bf
       2.8430269 -0.055212177 1.1053337 -0.70768726
0001d0 61 9a 27 40 83 ca 15 be de 79 08 c0 e3 8c e3 3e
       2.6187975 -0.14628033 -2.1324382 0.44443426
0001e0 10 90 eb bf fb a2 c5 3f 70 6f 5f 3e 3f 0f 5f bf
       -1.8403339 1.5440363 0.21819854 -0.8713264
0001f0 ec 0e 8b 3f 1d 05 c0 3e 2b bf 49 bf 2d f8 da bd
       1.0863929 0.375039 -0.78807324 -0.10691867
000200 e6 92 ba 3e fa 0b 0b 3c 6d 56 1a bf 1d 9d 86 3e
       0.364402 0.008486742 -0.60288125 0.26291743
000210 f2 ad 25 bf 22 f0 b3 bf 41 6e dc 3e 04 37 2c 3d
       -0.64718544 -1.4057658 0.43052867 0.042044654
000220 94 98 20 bf 67 e5 ae 3f 70 64 cc bf 37 f8 77 3c
       -0.62732816 1.3663758 -1.5968151 0.015134863
000230 f7 8f 05 40 4d ec 8f 3f 4e e2 25 40 6d 8c 29 bf
       2.086912 1.1243988 2.5919375 -0.662299
000240 32 1d 24 3f f4 60 8a 3f 70 27 bd 3f 44 5e 46 bf
       0.6410705 1.0810838 1.477766 -0.7748759
000250 a7 ae f1 bf 32 ba a9 bf 14 3c 9d 3f 5e 52 51 bf
       -1.8881425 -1.3259947 1.2283959 -0.8176631
000260 75 ad 3f 3f 5f 0c 2a 3f 8e ef ab 3e ab 23 4a 3f
       0.7487405 0.66425127 0.33581203 0.78960675
000270 0d dd 11 bf c8 3f 1a bf 5e a3 89 3f dd ba a9 bf
       -0.5697792 -0.6025357 1.0752981 -1.3260151
000280 20 12 57 3f 15 50 a0 3e 69 c2 60 be e4 96 1d 3f
       0.8401203 0.31311098 -0.21949162 0.61558366
000290 53 6f b6 3e 4c ca b8 be 84 c2 11 3f 83 eb fd 3f
       0.3563181 -0.3609184 0.5693743 1.9837497
0002a0 e1 c5 44 3f b0 97 d1 3e 5f 86 0a 40 50 ef b5 bf
       0.7686444 0.4093604 2.1644514 -1.4213657
0002b0 fe f4 11 40 d0 60 79 3f ea 27 10 c0 78 18 0c c0
       2.2805781 0.9741335 -2.2524362 -2.1889935
0002c0 88 8c 85 bd 53 23 c0 bd 16 4e b1 be c2 37 c6 be
       -0.06520945 -0.093817376 -0.34629887 -0.38714415
0002d0 02 31 df 3c 3b bd d4 bf cd 97 aa 3f 3f 0b c9 be
       0.027245048 -1.6620249 1.3327576 -0.39266393
0002e0 48 a5 a0 bd 20 40 09 40 47 6f c6 3f 39 d2 43 bc
       -0.07844025 2.1445389 1.5502709 -0.011951976
0002f0 93 b5 22 3f ff ee 05 be 06 e6 07 3f 68 93 cf be
       0.6355831 -0.13079451 0.5308536 -0.4054215
000300 44 e0 c0 3f 68 6e 0e bf af da 45 3f 99 4f d5 be
       1.506844 -0.55637217 0.7728681 -0.4166229
000310 d6 4f 62 bf 06 70 72 3e 32 42 07 3e 1b 8c 44 bf
       -0.8840307 0.23675546 0.13208845 -0.76776284
000320 3c d9 37 bf b8 a8 c2 be 15 da 16 c0 35 c1 02 c0
       -0.7181585 -0.38019347 -2.3570607 -2.0430424
000330 f5 48 c3 bf b1 97 26 3f cc 0d f5 bf dc 53 3a bf
       -1.525664 0.6507521 -1.9144835 -0.7278421
000340 99 84 b5 bf 7e b1 97 bf 3f ee 53 bf d7 27 15 c0
       -1.418109 -1.1851041 -0.8278541 -2.3305566
000350 e4 5f 0d c0 ee 85 1d c0 0a 82 f3 bf 68 0d a2 bf
       -2.2089777 -2.4612994 -1.902406 -1.2660341
000360 5c 3b d0 bf 2e e7 b0 bf 83 a3 15 c0 e4 81 4a bf
       -1.6268115 -1.382055 -2.338105 -0.7910445
000370 c6 88 96 3f d4 bf 8d bf d1 44 91 bf 38 ed 85 be
       1.176049 -1.1074166 -1.1349126 -0.26157546
000380 64 73 9b bf 9c 5e 46 c0 c7 82 d2 bf 81 b8 96 3d
       -1.214459 -3.0995245 -1.644616 0.0735941
000390 e8 61 97 bf ac b2 29 3f 9d e6 1c 40 7e eb d2 40
       -1.1826754 0.66288257 2.4515755 6.5912466
0003a0 34 df 8a 40 44 36 1e 40 69 c0 8e bf 04 23 46 40
       4.3397465 2.472062 -1.1152469 3.0958872
0003b0 cd c4 4c c0 43 99 64 c0 e7 e7 eb 3f df c3 7a 3e
       -3.1995118 -3.5718544 1.8430146 0.24488781
0003c0 0c 8b 2d be ec c3 5d c0 d1 3e c8 be fe 22 0b c0
       -0.16947573 -3.4650831 -0.39110425 -2.1740108
0003d0 3f 5f 52 c0 d6 84 28 c0 a6 4c 38 c0 df b9 10 c0
       -3.2870634 -2.6331077 -2.8796782 -2.2613447
0003e0 b9 44 90 bf 5a be 98 bf
       -1.1270972 -1.1933091

critic.mlp.0.weight f4 [40, 60]
000000 b1 5f 7d ba 57 d5 8d 3d 45 58 b0 bd 72 50 99 bd
       -0.0009665443 0.06925457 -0.08610586 -0.07486047
000010 a4 45 f2 bc 9e cc 0d 3d 71 1a 90 3c fe fc 08 3e
       -0.029574223 0.034618966 0.017590733 0.13377759
000020 61 e4 a8 bc e4 2e 06 be bc 51 18 bd 57 e2 cf bc
       -0.020616712 -0.13103825 -0.037187323 -0.025376482
000030 0a 97 fc bd c2 1a af bd e1 fa 59 bd e1 b4 9c 3b
       -0.12333496 -0.085500255 -0.053217772 0.0047823046
000040 c1 0c 51 3d b7 a4 9e 3d a3 3e b3 bd db 44 66 bd
       0.051037554 0.077462606 -0.087521814 -0.05621801
000050 e9 10 40 3d 0c 8d db 3d 94 a6 d9 bc b3 d9 c5 3d
       0.046891127 0.10720262 -0.026568688 0.096606635
000060 f8 76 aa bc 77 d0 5f 3c 6b 67 ef 3d a3 45 f5 bd
       -0.020808682 0.013660542 0.11689647 -0.11976173
000070 75 72 a6 bd 20 df 05 bd 72 1f 4e bd 25 70 e4 3d
       -0.081273 -0.03268349 -0.050322957 0.11154202
000080 3a 60 ab bd cf e3 20 bd 58 c5 52 bc 62 5b ce bd
       -0.08367963 -0.039279755 -0.012864433 -0.10076024
000090 8e 86 57 be 24 46 e3 3d d7 f4 6b 3d 34 25 80 3d
       -0.21047422 0.11097363 0.057606544 0.06257096
0000a0 cd 7a de 3b 22 8d 87 bd 4e fe 2b 3d bf 99 8e be
       0.0067895413 -0.06618716 0.04199057 -0.27851674
0000b0 45 c7 95 bd cc 4d 88 bd 37 d1 a6 3d 52 05 9b 3d
       -0.07313398 -0.066554636 0.08145373 0.07569374
0000c0 2e 84 6a bd f3 a3 98 bb da 18 a9 3d dc f0 4d 3e
       -0.057254963 -0.004658216 0.08256693 0.20111412
0000d0 a0 8c a5 bc 24 c1 b8 3d 10 46 b1 3d 42 ad 9b bd
       -0.020208657 0.09021214 0.086559415 -0.07601406
0000e0 ff 12 c5 3c c7 fc cc bd bc 3f b7 bd 1c 95 88 bd
       0.02405691 -0.10009151 -0.08947703 -0.06669065
0000f0 8a 43 6f 3d b0 a8 54 3d 6d ae b0 bd 9f 3f ef 3c
       0.05841402 0.051918685 -0.08627019 0.029205142
000100 e7 28 7a 3d 3c 7c 85 bc b6 7f 9f bb dd 47 a2 3c
       0.061074164 -0.016294591 -0.0048675193 0.019809658
000110 7d df 8e 3d e0 e6 eb 3d 9f 9d ff bd 38 c9 41 bd
       0.06976221 0.11518645 -0.12481236 -0.047311038
000120 fa d1 4f 3d 9b 10 db 3d 3c 14 e6 3d 93 4a e9 3d
       0.05073736 0.106965266 0.11234328 0.11391177
000130 6e 79 d2 3c f4 e9 e5 bd 4f 94 42 3c 47 68 a5 bd
       0.025692668 -0.11226264 0.01187618 -0.0807653
000140 96 67 f6 bd df e9 ea 3d 2c 09 c9 3d fc de 03 be
       -0.12031476 0.114703886 0.098162025 -0.1287803
000150 2e f3 c5 3c 0f 29 b2 bc 7a 09 ae bc d0 0e 72 bd
       0.024163809 -0.021748094 -0.021244753 -0.059096158
000160 97 59 4b 3d 3c 9a 9c bd ae d9 41 3d 00 b5 85 3d
       0.049645986 -0.07646605 0.047326736 0.06528664
000170 f9 45 bd 3d e8 96 1d 3d d0 39 0c be de 93 bf bd
       0.09241862 0.038473994 -0.13693929 -0.09354375
000180 f5 1a 3d 3d 7d 5a dd 3c 36 40 ce bd 82 3e 98 bd
       0.046168286 0.027020687 -0.10070841 -0.074337974
000190 e3 ba f8 3d 8f 27 b2 3d 57 59 87 bd 4e b6 36 bd
       0.12145021 0.086989515 -0.06608837 -0.044607453
0001a0 b4 f6 07 be b6 12 18 bb 03 1b c7 bd 80 f1 cb bd
       -0.13277704 -0.0023204512 -0.09721949 -0.09958172
0001b0 ed 16 e9 bb 72 ca 9e 3c 5a 8e 58 bd 19 19 92 3d
       -0.0071133287 0.019383643 -0.052870132 0.07133693
0001c0 8c 1a aa bd ce 1d e5 3d b8 30 b5 3d d9 f5 de bd
       -0.08305845 0.111873254 0.08847183 -0.108867355
0001d0 9d 9b 03 bd 34 e2 be 3b 6e 4d 9a 3c d6 d4 fa 3c
       -0.032130826 0.0058253054 0.01883575 0.030619066
0001e0 3e 83 4f 3d c2 65 fd 3b 07 a2 7a bd 87 cc 80 3d
       0.05066227 0.0077330777 -0.061189678 0.062890105
0001f0 71 ee f9 bd 86 b5 9c bd 8a fc f9 bc 51 38 49 3b
       -0.12203682 -0.0765181 -0.030515928 0.0030703733
000200 b3 51 92 38 ea 72 94 bd 91 37 00 3e ab 10 e2 3c
       6.97704e-05 -0.072484806 0.12521197 0.027595839
000210 a6 3e ac bd 0d 19 d9 bb 92 44 bd 3d 84 70 59 bc
       -0.08410387 -0.0066253007 0.092415944 -0.013271455
000220 f9 23 6b 3b 16 79 36 bc f7 08 d6 3c fa 1c a8 3d
       0.0035879596 -0.011137268 0.026127322 0.08208652
000230 a2 72 fa 3d f1 e7 a7 3d 54 05 fb 3d e5 f8 18 bc
       0.12228896 0.08198536 0.12256876 -0.009336685
000240 27 83 ed bd 1c b0 7a bd 44 07 b4 3d 64 62 5b ba
       -0.11597281 -0.061203107 0.08790448 -0.00083688484
000250 ba 6a 83 bd 09 9c ca bd 6b 6f f7 bd f1 26 df bd
       -0.06416841 -0.098930426 -0.12081798 -0.10896099
000260 42 84 d6 bc c6 af 94 3d b8 cf 5f 3d 4b 4d fb bd
       -0.026186112 0.072600886 0.054641455 -0.12270602
000270 fa f7 7e 3e 61 e4 ce bd 77 95 df bc 11 69 56 bd
       0.24899283 -0.101021536 -0.02729295 -0.052346293
000280 e2 b4 cb bc 0d a6 cf bc bd 90 e9 bd 27 43 42 be
       -0.024866525 -0.025347734 -0.1140456 -0.18970929
000290 51 bb 96 bc 61 d4 da 3a 74 37 70 bd fd 31 47 3d
       -0.018399866 0.0016695374 -0.058646634 0.048631657
0002a0 b6 f8 ed bd 26 bf 0e bc c2 83 e8 3d d4 a9 76 bd
       -0.116197035 -0.0087125655 0.11353256 -0.060220554
0002b0 06 33 4e 3e 83 87 20 3d 54 9b ee bd 4d 48 a7 3d
       0.20136651 0.039191734 -0.1165072 0.08168087
0002c0 11 14 74 bc 5a 0e 6c bd c4 6c d3 3d 29 a8 d5 bd
       -0.014897362 -0.057630874 0.1032348 -0.10432465
0002d0 b9 f7 62 3c ba 6c dd bc 57 b8 06 3d f2 92 be bc
       0.013853007 -0.027029384 0.032890644 -0.023263428
0002e0 0d 0c 33 3b 55 bf 3a 3d 43 07 b9 bd 70 3f 98 bd
       0.0027320415 0.045592625 -0.09034588 -0.07433975
0002f0 fa 3e c3 bd c6 9a 19 3e 58 8c d1 bc f5 e7 b4 3d
       -0.09533496 0.15000448 -0.025579616 0.08833305
000300 bc 7f ba bd 1b ac bc 3b ab 61 ba bd ae 8b 91 bd
       -0.09106395 0.0057578213 -0.0910066 -0.0710672
000310 97 10 9a bd 39 b6 34 3d 8e 8e 9d bd 87 96 38 bb
       -0.075226955 0.044119094 -0.07693206 -0.0028165893
000320 4a f6 b1 3b 7f 6f aa 3d ab dc c7 bd c7 82 b5 bd
       0.0054309713 0.083220474 -0.09758886 -0.088628344
000330 3e 86 99 bd 32 0f b9 3d fc 14 3e bd c7 03 df 3d
       -0.07496308 0.090361014 -0.04640673 0.10889392
000340 06 37 3f 3d e0 ea 85 3c eb ec 7b ba 88 10 d1 bc
       0.046683334 0.016347349 -0.00096101937 -0.025520578
000350 e7 b0 84 3c 3b d2 b5 bd 6b 52 0a 3d 17 6d 2f bd
       0.016197635 -0.08877989 0.033770006 -0.042828646
000360 b4 0d 0f be fd 93 8a bd 61 7f d5 3d c6 91 d6 bd
       -0.13970071 -0.06766508 0.10424686 -0.10477023
000370 c8 e1 17 bc 74 c6 02 3e 52 82 4f bc 1c 1a 73 3d
       -0.009270139 0.12771016 -0.012665348 0.05935107
000380 e6 49 2f be cc f9 82 3d ee 52 bc bd de 1a 16 bd
       -0.17118034 0.06395301 -0.09195505 -0.036646716
000390 0a 6b 31 bd 59 9d 9c bc 1c 17 b9 3a b0 11 14 3e
       -0.04331497 -0.019117998 0.0014121267 0.14459872
0003a0 f6 1a 32 bd bb 70 1d 3e ef bb a1 3d 95 27 a7 bd
       -0.043482743 0.15375035 0.078971736 -0.081618465
0003b0 42 2a 6d 3d 77 e6 ba bd 74 1d 60 bd 8f 87 1b 3d
       0.05790163 -0.09125989 -0.05471559 0.037971076
0003c0 4b 9a 2e 3d 67 5b c6 3d 55 1a 2e bd e2 ee 41 ba
       0.042627614 0.09685402 -0.04250558 -0.0007397962
0003d0 93 2d 86 3d ea b1 ff bd 98 36 bd 3d a2 3a 06 be
       0.06551661 -0.12485106 0.092389286 -0.13108304
0003e0 05 64 4c 3d 1d 92 1e bd c1 33 c7 bd 24 c8 8b 3c
       0.049900074 -0.038713563 -0.09726668 0.017063208
0003f0 3c a2 da 3d 77 93 1a bd 5b f8 9c bd 4c 91 43 bd
       0.10675475 -0.03773829 -0.076645575 -0.047745988

critic.mlp.0.bias f4 [40]
000000 8c 60 14 3e 9b ad 17 bc e8 52 9b bd ed 94 75 3c
       0.14489955 -0.009257699 -0.075841725 0.01498912
000010 e1 0b e4 bc f0 70 d9 bc 00 75 6a bd 0f d9 03 be
       -0.027837696 -0.02654311 -0.057240486 -0.1287577
000020 6f 34 04 be 9a 2b ab b9 ce fb 8f bd b2 71 d3 3d
       -0.12910627 -0.00032648147 -0.0703045 0.1032442
000030 ec 6f cb 3c 0c 08 70 bd 3b 36 97 3d 3e dd 34 be
       0.024833642 -0.058601424 0.073833905 -0.17662522
000040 6c 53 98 bd ba 14 df bc 9c ae 9a bd 71 fe 5d 3d
       -0.074377865 -0.027231563 -0.07552835 0.054197732
000050 86 94 fb bc 30 37 64 be 08 17 1a be da 28 26 bc
       -0.03071047 -0.22286677 -0.15047848 -0.010141576
000060 e2 e5 ac 3d d5 97 b8 bd a1 e5 14 bd a1 7a 0a be
       0.08442284 -0.09013335 -0.036351804 -0.13523342
000070 2b 20 95 bc 1c 84 56 3d dc 9a 5b 3c 5c 66 b9 3c
       -0.018203815 0.052372083 0.013403621 0.022631817
000080 b5 73 32 bd 7c 6e d6 3d be b8 18 3e 0d ae b9 3d
       -0.043567378 0.10470292 0.14914224 0.09066401
000090 41 69 60 3d a8 20 9d bd 8c 82 37 bd a7 f0 69 bc
       0.054787878 -0.07672244 -0.044802234 -0.014278567

critic.mlp.2.weight f4 [1, 40]
000000 77 11 95 3d 00 2a 71 3d 58 1b c9 bd c9 c9 ea bc
       0.07278722 0.058877945 -0.098196685 -0.028660672
000010 22 9f a9 bd 44 2e 81 bb 31 09 bf bc a3 ca 66 be
       -0.08282305 -0.003942283 -0.023319812 -0.22538237
000020 1b 1d 73 be 6c 81 fe bd 20 e1 af 3d 81 7c 3b 3e
       -0.23741572 -0.12427029 0.08587861 0.18309213
000030 fa ae 1a be 1a 44 4c bd c5 a0 92 3d d9 51 eb bc
       -0.15105811 -0.049869634 0.071595706 -0.028725551
000040 07 fb 85 bc 26 c7 66 3b 69 e1 6c 3d cb 9b 11 3d
       -0.01635505 0.0035213917 0.057832155 0.035548966
000050 ad 67 10 bc e9 56 fd bc ce 77 a6 3d c2 01 1f bc
       -0.008813781 -0.030925231 0.0812832 -0.009705009
000060 21 4e 1a 3d b7 01 7b 3b 07 2f 02 3e a5 cb a3 bb
       0.037672166 0.0038300583 0.12713252 -0.0049986416
000070 ab 46 ac bd 08 d5 03 3e 62 b4 b2 3d fd 4f 44 bd
       -0.08411916 0.12874234 0.087258115 -0.047927845
000080 f0 a9 85 bd f4 fd 87 3d 9d a1 8d 3d 01 8a 5e be
       -0.06526554 0.066402346 0.06915591 -0.21732332
000090 de 00 ee 3d 06 34 f7 bc b6 5d 92 be 73 71 8e 3d
       0.11621259 -0.030176174 -0.2858712 0.069552325
